Model/ColorNetNew.pt (torch, 348895 bytes, 60 tensors)

weight f8 [2, 1, 8, 8]
000000 71 c4 42 18 d7 24 c5 3f 3a e2 47 ea b0 df a1 bf
       0.16518677410707341 -0.03490975246308321
000010 d6 87 0a ad 06 ae a9 bf 8c 08 aa 66 36 c0 ae bf
       -0.05015583860701127 -0.060060215027093994
000020 7f 52 a1 1f 49 b9 8e bf 1d b0 9b 68 3c 21 a3 3f
       -0.015001841810012849 0.03736294533686666
000030 9f ac b8 73 a3 bb 9c bf ff 8a 6a ca 68 b0 c4 3f
       -0.028059534013817552 0.16163358577349382
000040 62 f7 b8 2a 23 53 ad 3f 44 81 57 b6 c9 08 cc 3f
       0.05727491280093379 0.21901818660172456
000050 aa bd 52 4a 75 c0 9a 3f 53 ff f8 ed ac 1b c6 3f
       0.026124794637039685 0.17271958942182639
000060 f5 26 13 42 61 14 b6 3f 71 72 1f b8 02 4b c7 3f
       0.0862484728160345 0.1819766425168328
000070 63 3d bf 4a 2f 8f 94 3f e6 ad 51 ea b0 2e c9 3f
       0.020077456414410288 0.19673739854202593
000080 ca ba 61 9e 42 b9 c4 3f 00 d2 c8 78 9c ac c1 3f
       0.16190369351848793 0.13808017633131442
000090 64 43 ab ef 87 5b c3 3f 47 fa 4a 7b 64 85 77 bf
       0.15123080446803805 -0.005742447382259436
0000a0 e4 9b 74 62 5b 3c c4 3f 93 16 11 0a 86 59 a8 bf
       0.15809194857976572 -0.047558010796405224
0000b0 87 08 21 ec e4 c2 8d bf 00 0c 84 72 de 84 c2 3f
       -0.014531887489401164 0.1446798381003589
0000c0 88 44 c4 15 2d 56 ad 3f 84 a5 e7 5a 6c 3d c4 3f
       0.05729809656816892 0.15812448919977495
0000d0 dc b3 cf 70 9c af 9b bf 87 1c 2d d8 82 11 a4 3f
       -0.027037090669114736 0.03919609917516547
0000e0 eb 97 cf d1 4e 89 c0 3f a2 4d f5 d4 48 c4 6f bf
       0.12919030422852926 -0.003877775430433509
0000f0 aa 73 9d 53 92 92 ac bf 97 17 91 1c c9 e9 b3 3f
       -0.05580575247470361 0.07778603503638092
000100 6e ec 31 80 c5 82 9f bf 32 23 12 c2 f8 21 7a 3f
       -0.030772291135218337 0.006380054198537976
000110 fa 3d fe 50 0c 05 c7 3f 60 a3 86 7f 31 20 ab 3f
       0.17984155611746627 0.052979990784769226
000120 c6 e6 6a 9e a7 f1 bb 3f 27 e5 c6 b6 00 2e b7 3f
       0.109156109024208 0.09054569685294621
000130 20 63 9d c4 5d c4 bd 3f 22 75 20 95 14 07 b0 3f
       0.1162775616661631 0.06260803833761888
000140 89 e5 18 24 db 6c a6 3f d7 dd 61 7a 69 70 c2 3f
       0.043799255520251164 0.14405554271409812
000150 6f 54 0a 47 b0 be bb 3f f2 70 61 35 b0 c5 a8 3f
       0.10837842687972608 0.048383242145719665
000160 2a 00 4f c0 47 f2 97 3f 9a 62 9d 42 d6 61 8d bf
       0.023385163414559575 -0.014346765430375986
000170 8f a5 df e9 80 97 aa bf 12 61 96 25 44 e1 b2 bf
       -0.05193713049795711 -0.07374978940641011
000180 6b c2 15 01 60 a4 b4 3f b9 14 dc 83 0c df 64 bf
       0.08063316370476918 -0.002547764247426612
000190 57 69 68 38 87 75 bd 3f 90 4a ff e5 f4 88 b0 bf
       0.11507458808083491 -0.06458979239622864
0001a0 53 84 71 81 81 30 97 3f b4 b4 78 8e be 80 b0 3f
       0.022645972753143017 0.06446448305424007
0001b0 c2 34 08 d5 ab 3a b6 3f a1 2e 46 c1 5d 34 bd 3f
       0.08683275176027208 0.11408029526335862
0001c0 8a 97 a3 6d 73 67 99 3f cf eb c8 44 cd 87 50 3f
       0.02480869633372821 0.001008940179544327
0001d0 9c 9a 93 da 5d b6 a4 3f 65 f9 6b f2 b0 a9 a4 3f
       0.040453846866332216 0.04035714110613035
0001e0 7b 7b 7d b3 15 5c 7d bf 9b 8f a0 52 e6 00 bd 3f
       -0.007167897005131314 0.11329497830644046
0001f0 7a b6 12 2f c8 bd b9 3f 9b d5 2c 06 c9 1f 93 bf
       0.10055209302182702 -0.018675938608074465
000200 13 ab 59 a7 cc ae b7 3f fe 9f f6 96 46 44 ba 3f
       0.09251097760867948 0.10260430513028493
000210 8d f2 e1 88 43 d8 c8 3f fe 98 f8 76 78 31 b4 bf
       0.19409984763833102 -0.07887986092154972
000220 35 a6 27 b8 b0 76 a7 3f 79 02 a8 0e 03 00 a5 bf
       0.04582741020187734 -0.041015716113183616
000230 40 53 00 47 df 15 ac 3f b6 69 70 46 96 54 ab bf
       0.05485437146868444 -0.053379722689175166
000240 49 70 dd 7f 20 a9 d5 3f 50 d2 db 95 3c e0 d4 3f
       0.3384476898843372 0.3261863196815158
000250 aa 20 bc 1f 93 ff d2 3f 5e af 65 2b 1f 89 c1 3f
       0.29684904193028194 0.13699712389950042
000260 8c b2 65 7a 13 6f d4 bf 22 ef f5 8d 5c 5c 2b 3f
       -0.3192795462880802 0.00020874624076926926
000270 e5 f1 18 bb 15 52 a8 3f 85 5c 43 91 5f c1 94 3f
       0.04750125798134145 0.020268910638006083
000280 d7 b1 c8 c6 ce 39 d4 3f cf 88 13 23 32 3b ce 3f
       0.3160283032655377 0.23618151390753048
000290 62 98 ed 3e b7 e7 c9 3f 02 24 e1 52 2a f2 b6 bf
       0.20238390515004584 -0.08963264964508258
0002a0 45 ca d6 e1 b6 d9 d5 bf 7b cb 31 5e a9 27 a8 bf
       -0.34141323141662766 -0.047177593944886596
0002b0 57 63 27 e0 ac 34 a4 bf a6 3d 47 df cc 57 c0 bf
       -0.03946438061001938 -0.12767945196399672
0002c0 86 f5 2c c0 62 a1 c3 3f 80 65 eb bb 8b 27 c3 3f
       0.15336260207724822 0.149644343144967
0002d0 15 16 6f 64 6f bd c9 bf 8b c1 ef b7 81 24 a0 bf
       -0.2010936012649586 -0.031528524115745325
0002e0 ff e6 ae 45 97 37 ca bf 17 4b 6c 4b a9 09 d2 bf
       -0.20482149984837147 -0.28183967938928006
0002f0 d6 59 35 de 9e de c2 bf e3 73 18 34 41 f9 a8 bf
       -0.14741884088534957 -0.04877666245395298
000300 6f cc 06 33 c8 1c ca 3f fe 94 e2 06 7a 29 a3 bf
       0.20400335780650233 -0.037425816860642044
000310 6c 1d 3e 9b d4 43 d3 bf 5f 18 b5 35 bf f0 d3 bf
       -0.3010150447884914 -0.31156902546752535
000320 75 ac fd bb ef 1f d2 bf c1 5e 86 4c d5 95 d6 bf
       -0.2831992469643361 -0.35289509270795
000330 25 f2 60 e0 e2 e6 ce bf ef 65 93 a9 96 d4 d3 bf
       -0.24142108875266036 -0.3098503738416118
000340 62 9c 3d ef b1 a3 cf 3f f4 92 43 4f d8 cc c3 bf
       0.24718307668374268 -0.15468887205420112
000350 fd f4 6e c8 29 e8 cd bf 60 fc 8e d4 a2 20 bf bf
       -0.23364755903995862 -0.12159173669259493
000360 40 8f 46 e1 f9 aa b8 bf 35 dc bb 8d 11 ff d1 bf
       -0.09635888814824245 -0.2811931499595091
000370 b6 23 51 ce d0 f1 d3 bf 8f e9 1a cc 7f 4c d4 bf
       -0.31163425586833726 -0.31716914112225764
000380 41 84 01 03 3a b9 bc 3f 25 d6 23 1a 06 04 9b bf
       0.11220133374583076 -0.026382537217577124
000390 b5 00 9c a7 b1 b1 d0 bf 08 46 3d 92 70 2f cc bf
       -0.2608455788431557 -0.2201977457103086
0003a0 f2 20 c0 80 ff f6 c3 bf 6c bc 29 e4 f0 e7 d2 bf
       -0.15597528254171028 -0.29540655404611615
0003b0 85 db c2 0c 85 6a e3 bf 44 e0 3a 3e a8 2a c5 bf
       -0.6067528962365577 -0.16536429441998923
0003c0 4c 6d c7 73 6d e9 be 3f 48 60 4b 2c c6 5e ba bf
       0.12074932171474478 -0.10300863820464301
0003d0 16 e5 d0 5d c9 d6 d9 bf 06 1f 9c 97 55 33 d0 bf
       -0.40373453294485395 -0.25313319974564796
0003e0 ca 58 57 e8 ce 41 c7 bf a3 91 d7 ff e2 0a d5 bf
       -0.18169580788407408 -0.32878947243286855
0003f0 80 0e 93 fe df 48 cd bf 83 53 c1 e6 47 26 b3 bf
       -0.22878646784203127 -0.07480286964103126

bias f8 [2]
000000 ee a8 e4 7f 06 d8 a0 bf 72 41 0e f7 06 83 b9 bf
       -0.032898142921412674 -0.09965556651719057

weight f8 [2]
000000 37 06 cf d2 0d 27 f4 3f e2 f2 18 52 ef d9 f1 3f
       1.2595346674646757 1.1157067496234778

bias f8 [2]
000000 c1 4a 36 58 f6 47 91 bf 2a ef b0 bf d5 e7 8b bf
       -0.016876076826131795 -0.013625783836793543

running_mean f8 [2]
000000 49 f9 60 a9 65 2b ea 3f c1 6a 36 2d 13 54 f5 bf
       0.8177974994830858 -1.3330261007419468

running_var f8 [2]
000000 bb 6d 26 52 5f c5 cd 3f 37 53 8b 67 fe a9 e1 3f
       0.23258582602725916 0.5520011923168572

weight f8 [4, 2, 8, 8]
000000 b4 b9 7e e6 bc 02 95 3f 2f f4 9e 42 dd b8 b2 3f
       0.020518256729411724 0.07313330532538552
000010 aa cf 49 33 41 37 c1 bf 15 e4 54 28 79 61 c8 bf
       -0.13449873928368322 -0.19047464818302787
000020 30 39 29 7b 60 3c cc bf 52 c5 10 5f c3 80 c4 bf
       -0.22059255613062012 -0.16017954007979057
000030 7a 11 90 9e 5a 35 95 bf d3 d4 01 a7 79 51 93 3f
       -0.020711341789153327 0.018865490740115853
000040 79 a5 5d 04 c5 f7 a5 3f 5c 11 ea ff 30 a4 93 3f
       0.042905957014975855 0.019181028003474196
000050 b1 68 25 16 6f b6 a3 bf 02 95 b7 90 0b ef bd bf
       -0.038501235440621236 -0.11692878993160963
000060 b3 d0 2e 6f 98 18 c9 bf 65 30 63 05 5c 7f a1 bf
       -0.19606309346057102 -0.03417480054631098
000070 59 ad df 25 2a dc c1 bf f4 19 b5 75 56 0f b4 bf
       -0.1395313916139951 -0.07835903524128424
000080 11 fe cc a0 4b 65 af 3f b2 70 75 a1 62 d8 95 3f
       0.06131969774150659 0.021333256821308218
000090 8a ec df 94 15 fa a5 3f 07 50 7f e0 bb 59 b1 bf
       0.04292361681287911 -0.06777548056498982
0000a0 15 66 79 1c fb 64 b6 bf 0e 16 d8 bd 67 b8 92 bf
       -0.08747834630175817 -0.01828157516685818
0000b0 1c 82 29 e9 9a f8 c5 bf 69 8f ca 05 6e bb b1 3f
       -0.1716493261801738 0.06926620141399344
0000c0 03 10 87 56 19 34 b9 3f 9a 73 c0 05 0c 51 af 3f
       0.09845121729364341 0.06116521425449335
0000d0 78 ec e8 14 ed a1 a1 bf 82 f4 6a 86 0a 64 b2 bf
       -0.03443852310416501 -0.07183900624927911
0000e0 94 ba 4f 12 4b 29 76 bf fb e3 57 68 89 9e c3 bf
       -0.005410474060211574 -0.1532756576050643
0000f0 45 6f 04 7d 50 18 c7 bf 15 dc ff d3 f4 aa b4 3f
       -0.18042951683389155 0.08073358703391904
000100 7b bd 04 de 71 08 bc 3f 07 3d cc 73 69 da 91 bf
       0.10950385733007366 -0.017434737866151042
000110 ad b1 bc dd 1e 26 bc 3f 2c 50 47 25 b2 eb c5 3f
       0.10995667375090674 0.17125536747210057
000120 a8 5a be ac 67 f4 86 3f 3f 5f b4 5a d7 ed be 3f
       0.01120835300370733 0.12081666912524457
000130 4b 9e ab 8d a7 62 ba bf 64 65 76 95 0e af a7 bf
       -0.10306784828900921 -0.04625745367520542
000140 39 30 eb 90 a1 51 d3 3f e6 db 0d b4 8c 50 ca 3f
       0.3018573680135464 0.20558317939477816
000150 74 40 9f a1 9c 8b c5 3f b0 c1 20 80 ce 98 59 3f
       0.16832311526968946 0.0015623108488505948
000160 42 a7 e2 bf 8d c6 b6 3f 66 f9 c7 b0 c4 da be 3f
       0.08896718916608129 0.12052563968606975
000170 7d 79 3a 89 2a a7 d1 3f 71 59 09 ca 97 1d c7 3f
       0.2758280124779942 0.18059060444893363
000180 5d 0a ae 0b e5 b0 d1 3f 61 4a 8d b7 81 94 d0 3f
       0.27642179623231816 0.25906413006774726
000190 5f 26 f2 1d a2 77 b3 3f 38 02 22 33 4b ff af 3f
       0.07604420882321382 0.06249461173229459
0001a0 3f 72 6e f4 4a 87 c8 3f 3e 8f 55 1d c4 1e da 3f
       0.19162880835655646 0.40812781204862236
0001b0 5d bb 36 b4 16 ff b8 3f 84 42 e2 a7 05 90 d0 3f
       0.09764234447241678 0.2587904109468939
0001c0 ae a8 08 d9 b2 ab d2 3f 08 ce d3 2f 85 bc d7 3f
       0.2917296523543297 0.3708813635887229
0001d0 c5 1a 7c 00 33 08 d5 3f 41 9d 5a 14 79 6a a9 3f
       0.32862544104902397 0.04964044927083445
0001e0 0b bd 3e 44 9f 22 af 3f 87 54 0d e6 3b 88 c1 3f
       0.06081102092809417 0.13697003109942704
0001f0 cd 08 fc 11 b3 18 dc 3f 71 e3 3e 89 34 f1 c6 3f
       0.4390075374250387 0.1792359991211714
000200 f9 7d 05 78 dd 71 ac bf d8 eb 12 d4 df 52 a6 bf
       -0.05555622186761506 -0.04360103095810758
000210 94 44 f0 08 fc 8d bf bf 9b 33 b6 58 d3 f4 bc bf
       -0.12326026170946341 -0.11311074176610562
000220 ea 77 d8 b7 71 6a c1 bf 6b 47 50 0a a5 bc c7 bf
       -0.13606091954073857 -0.18544447902291536
000230 80 e7 a8 ac fc 02 d0 bf 51 bd 01 4f 1e db aa bf
       -0.2501823125963867 -0.052452990669616846
000240 59 3b 87 61 a5 fd 88 bf 81 91 19 cf 5c 7c b7 bf
       -0.012202541388345688 -0.09174137169026687
000250 d9 1b 92 de ae f3 bf bf 71 c2 94 db d0 ea c7 bf
       -0.12481205877166647 -0.1868535110638905
000260 2c 15 b9 f5 fb 32 c1 bf 60 0c 3c d4 45 c8 d3 bf
       -0.1343684148616061 -0.3090986797907984
000270 e5 d3 da b7 e7 4d c9 bf 3b 38 0a 24 a8 11 cc bf
       -0.1976899764755721 -0.2192888427711653
000280 3e 2e ab 63 d8 35 b5 3f 37 7e 69 cd 2d 14 b3 bf
       0.08285286362950559 -0.07452665581649219
000290 97 05 fe 0d e2 b3 a5 bf 73 cd 73 e8 09 c5 c0 bf
       -0.04238802357486831 -0.1310131440182932
0002a0 1b 8a 6e 5d 82 10 ca bf 93 a6 ef 96 16 e3 d4 bf
       -0.20362882196521145 -0.3263603662477205
0002b0 bf cd 7a e3 72 91 c6 bf 80 e8 75 ea c7 71 bb bf
       -0.17631374461562463 -0.1072049090779803
0002c0 65 9b 5f d8 b1 94 aa 3f a7 d0 d5 dd ff f4 b7 3f
       0.05191570059087417 0.09358214536570363
0002d0 b7 a9 7f 1c 52 6c a1 3f 81 93 be 9e e5 04 b9 bf
       0.03402954671749419 -0.0977309715804733
0002e0 9c c1 e9 b2 7f 62 c9 bf 1f 94 8d aa b0 42 d2 bf
       -0.1983184455489323 -0.2853204408223195
0002f0 54 65 f8 46 38 09 c1 bf f4 1a 63 39 73 3c c1 bf
       -0.1330938669714593 -0.13465729047876318
000300 f9 66 19 73 9a b0 cc 3f e3 32 80 a5 08 12 bd 3f
       0.22413950557784526 0.11355642357393551
000310 f8 96 9b 74 ba 05 a6 3f 59 7c 01 30 b5 da bd bf
       0.04301245377955171 -0.11661846563355151
000320 7e 02 ae ff b4 b4 ac bf 49 6a 46 3e 57 1e c8 bf
       -0.05606618519869232 -0.1884259275510252
000330 b8 a8 31 5a 9f af c7 bf 06 5a 0d d8 33 07 c4 bf
       -0.18504707244875873 -0.15646980332776667
000340 78 d1 0c de dd f5 d4 3f 49 d7 bb ed 2c 86 d2 3f
       0.3275065105874755 0.2894394227617921
000350 19 cb 8b 8d 75 40 d2 3f b1 4c 17 19 1f 16 a3 3f
       0.28518427679880315 0.037278148472659985
000360 67 24 29 95 f7 c6 9f 3f 68 67 d2 85 aa 0b 9b bf
       0.03103243682770476 -0.026411690156784046
000370 3b 87 a3 06 f1 28 c1 bf c9 2e ce 05 19 32 b6 3f
       -0.1340619356552056 0.08670193092091973
000380 c2 29 7e ae a7 97 d2 3f 50 0c 91 98 be bd d3 3f
       0.2905062870055667 0.30845608614999254
000390 36 41 83 c9 b6 22 c7 3f 38 73 b0 ce 67 38 91 3f
       0.18074688758361795 0.016816732397376216
0003a0 18 19 b7 b8 38 b3 bc 3f 81 23 a1 e5 94 76 96 3f
       0.11210970410966004 0.021936728015393484
0003b0 48 1e 18 ff 05 d4 b7 3f 88 12 52 47 1d fb d2 3f
       0.09307897069822346 0.29657680478002435
0003c0 0d 3c 29 a7 b3 0f d8 3f 8f 9a 91 b1 5f 71 c2 3f
       0.37595835995028964 0.14408489389753185
0003d0 2f 6c e7 d4 e7 90 d0 3f 50 6e b6 c7 57 94 bf 3f
       0.25884433547406877 0.12335728288456349
0003e0 2f a2 63 34 93 12 b7 3f 4a 28 94 45 c4 93 c2 3f
       0.09012718228371662 0.14513448140525248
0003f0 f4 39 23 e4 79 9d bb 3f b0 62 c1 3a 21 96 d0 3f
       0.10787164516225528 0.259163195970852
000400 e1 fb cc 11 2d a5 d8 bf a6 c7 6f cd 9b 94 c4 bf
       -0.38508154619552043 -0.16078517466627068
000410 4f 35 e7 3a 58 26 bf bf 65 e3 85 e3 18 0b d2 bf
       -0.12167884290757523 -0.2819273206619555
000420 51 a5 0c 71 07 5f c3 bf 86 db 39 36 96 f7 d0 bf
       -0.15133755702962984 -0.26511149688251867
000430 b6 d3 e7 99 8f f4 d2 bf 77 3b 63 a4 f2 10 d3 bf
       -0.29617681531754714 -0.29790941289404976
000440 9e 3c 24 ad 40 b9 d3 bf 67 eb 02 10 72 98 d5 bf
       -0.30818192394594657 -0.3374295383798
000450 14 d2 36 73 b1 df d8 bf 0d d9 bd 4a d0 67 d8 bf
       -0.3886531472337833 -0.3813362817667361
000460 44 70 30 dd 2e 86 d2 bf f5 da cc 99 67 45 d5 bf
       -0.28943988419064604 -0.3323611261325106
000470 81 5f 5b 93 73 b6 d2 bf 59 46 16 8d b1 57 d0 bf
       -0.2923859538109284 -0.25535239007976923
000480 f2 63 d6 72 0d 14 d3 bf 49 f9 0e 27 a7 f8 ce bf
       -0.2980989095172496 -0.24196328551438231
000490 09 ab f4 92 32 c1 d3 bf e9 08 d9 70 15 71 d8 bf
       -0.30866684294839836 -0.3819020845441075
0004a0 2a d6 24 e2 e2 22 d3 bf cd 2b 8b fc 2c db d7 bf
       -0.2990042885242895 -0.3727524248358208
0004b0 80 e4 fb b1 1d 08 d1 bf 47 b1 19 30 bc 60 cb bf
       -0.2661203611492695 -0.2138896212449117
0004c0 3e 13 58 5d 6b db d6 bf 42 6e f7 99 36 86 c8 bf
       -0.3571422969401289 -0.1915958644666365
0004d0 06 4c ee 2b c2 01 cf bf af 30 48 19 58 6d cf bf
       -0.24224116463719286 -0.2455244182059508
0004e0 4b 03 ba c3 6a 95 d5 bf 63 ed 8d cd c4 23 d2 bf
       -0.33724469293524767 -0.2834331519477102
0004f0 4b 11 8d 7c 45 bf c2 bf a3 c3 d0 31 83 34 ca bf
       -0.146462140861454 -0.2047275536765741
000500 7c d5 8c bb 5a 91 c5 bf 49 9a bf 9a 8b 17 91 bf
       -0.1684983649990207 -0.016691380806060505
000510 6f 32 92 28 42 90 a9 3f 4d 63 a2 e1 e6 f6 ab bf
       0.04992872948887316 -0.054618086856129545
000520 89 73 c2 fa 91 70 cb bf dc 96 f2 71 68 2d d7 bf
       -0.21437287086601156 -0.3621464836854622
000530 81 2a 83 d3 f5 09 d5 bf 01 94 cd a2 22 70 d3 bf
       -0.32873292594437237 -0.30371919535383546
000540 38 b8 ce 3b 47 86 ac 3f 8e ad 7e 47 0b 92 ba 3f
       0.05571196179458621 0.10379095550040615
000550 10 47 02 51 3b 1f b6 3f cd 55 df ce d0 17 9d 3f
       0.08641405799633284 0.02841116202019638
000560 bc a1 1c d5 e9 3a d4 bf 86 34 99 f4 5d 69 d0 bf
       -0.31609578906730085 -0.2564310921341718
000570 93 cb f2 7b 31 c7 c4 bf 94 eb 5c 15 15 17 d1 bf
       -0.16232889702004324 -0.267033835279727
000580 64 43 13 59 86 6b bc 3f 75 16 b4 f5 e7 a0 c6 3f
       0.1110156981915345 0.17678546426047928
000590 fd e4 6b 65 cd e7 d6 3f 02 df 19 66 5b 50 a8 3f
       0.3578980913585637 0.04748807545996493
0005a0 56 b1 fb b2 aa 9d ab bf 0a c7 46 c6 95 bf d6 bf
       -0.05393727717259604 -0.35544342387139294
0005b0 8f 18 7b b9 c6 10 c5 bf 6e b9 cd 50 83 d0 c1 bf
       -0.1645744710605794 -0.13917581029404452
0005c0 1f d0 53 7f 7f ed ba 3f 17 60 b8 bd 43 c2 ca 3f
       0.10518643244341817 0.20905348552401
0005d0 3b cb c8 89 8b f9 d4 3f fc 5a ea 2a fb 17 d2 3f
       0.3277310224104217 0.28271369162523263
0005e0 49 c9 1d bf fa 75 b6 3f 1d 31 c4 4c 04 d2 a0 bf
       0.08773772397924974 -0.03285230099763423
0005f0 87 86 ec 1e 92 c4 af bf 51 47 80 29 ae f6 ca bf
       -0.0620465910672126 -0.210653085960582
000600 b0 0d d4 5b 74 7e c4 bf 82 17 1c a4 32 90 c1 bf
       -0.16010908588223804 -0.1372130681340274
000610 4c a3 4c 6d 65 a3 c1 bf 0a c3 6c 12 c5 36 c2 bf
       -0.13779895626910343 -0.14229644202853137
000620 74 e4 19 bb a8 a8 a1 bf aa 88 85 3c 3e c3 a1 bf
       -0.03448989185285081 -0.03469271172322526
000630 25 f8 f2 0b e8 d4 b6 bf 24 5a 20 71 a0 96 b7 bf
       -0.08918619434095428 -0.09214213144182587
000640 8a e6 e8 93 0c f1 cf bf e4 d2 1d 8f 9e 0a c1 bf
       -0.24954373571545246 -0.13313657749281227
000650 3b 07 ab 67 52 47 d1 bf 3c 25 f3 73 ae 69 c8 bf
       -0.26997814296565864 -0.19072514211283387
000660 25 a0 37 86 da 52 be bf 49 5f 06 42 fc 10 b2 bf
       -0.11845174576558344 -0.07057167636810137
000670 0c 9b a1 ea 9c c7 c3 bf 3a d4 40 03 5e a3 be bf
       -0.15452920395474512 -0.11968028621124996
000680 51 82 63 5f 93 00 e5 bf 5c 9b af b4 64 a6 de bf
       -0.6563202727375687 -0.47890584607232767
000690 ee e5 82 df 85 99 d3 bf 87 bf bc d4 6d 9d d2 bf
       -0.3062452967384094 -0.29085870528341967
0006a0 50 ec 0f 4d ba 8a d7 bf d9 b0 d1 dc b6 c8 cf bf
       -0.367842269187979 -0.2483128145426068
0006b0 f1 6d cc cc 93 4c bc bf 25 cd 36 f1 7b f3 d1 bf
       -0.1105434775349108 -0.2804860931020861
0006c0 d8 b1 7f 1f b0 8f d5 bf 2f 71 89 1a d2 48 d3 bf
       -0.3368950183492223 -0.3013196238660098
0006d0 dc 8d 21 d9 f1 85 c0 bf 11 8c ef b8 f4 77 c8 bf
       -0.1290876684389407 -0.19116076498093595
0006e0 14 88 56 05 91 a5 d1 bf 4f 40 14 de f6 88 d2 bf
       -0.27573037644663256 -0.289609639047744
0006f0 4c f2 43 9f 8f 4e d0 bf f2 c3 35 57 eb d5 d0 bf
       -0.2547949843717887 -0.2630565978680003
000700 9b 82 2a 3a 71 80 c5 bf 48 be 79 51 74 81 c2 bf
       -0.16798224773539946 -0.1445756337957269
000710 3a 7d 40 4a 3e d8 ae bf 5b 3b 30 fc 75 24 b4 bf
       -0.06024355560679813 -0.07868134886687754
000720 88 f4 d2 48 1f 67 c0 bf 3c 2a c6 01 9d 8a d5 bf
       -0.12814703994618903 -0.3365852849316615
000730 ac fb ab 3a 02 6f c8 bf 98 fb 2e 2b da ce c2 bf
       -0.1908877169116442 -0.14693762882776862
000740 57 ec 82 35 c6 62 c8 bf 39 34 2f ad 5d c0 aa 3f
       -0.1905143510137772 0.05224888552729862
000750 54 75 90 09 b5 d3 c1 3f 0a 63 6d 5f 87 25 cb 3f
       0.13927329031950342 0.2120827880815102
000760 e2 c8 aa 30 e7 ef c4 3f df e5 37 03 51 3f d2 bf
       0.16357126118015858 -0.28511452974598045
000770 1f 31 fa ef f3 5c ca bf 3b 9b 4f ed 18 ac d1 bf
       -0.20596169679300488 -0.2761289899339549
000780 18 2c b8 d8 b7 37 ab 3f ce 12 18 a5 88 91 ce 3f
       0.05315947075367705 0.23881633816940567
000790 14 d0 91 4d 5a 90 b4 3f 78 5e 48 ed 00 64 ce 3f
       0.08032764810360532 0.23742686830586357
0007a0 71 89 2b 46 1a 49 b4 3f b6 f7 74 4d 33 f0 a6 bf
       0.07924045766006828 -0.04480133362311227
0007b0 a8 92 dd d7 eb c1 c1 bf 02 fc ac 73 ae 1f ca bf
       -0.13873050728138492 -0.20409184120396168
0007c0 4b 7d 85 ae 5d df be 3f b7 82 fa b8 42 ac d6 3f
       0.12059579382684153 0.3542639547759267
0007d0 6f 75 dd da 6c 7a cb 3f 20 e6 7e 84 5f 2c c6 3f
       0.2146736210515132 0.17322916001812505
0007e0 f3 e9 80 88 cc 53 d0 3f a1 dd 3e 96 67 2e c7 3f
       0.25511468248774277 0.18110365711411894
0007f0 3d 4b 4a 62 9d 6c a2 bf 1c ee 49 34 27 98 b3 bf
       -0.03598491501647636 -0.07654042269307876

bias f8 [4]
000000 4b 70 38 ac 8a c3 b1 bf 85 fa 1d 23 7b af b3 bf
       -0.06938997940636786 -0.07689637763358277
000010 57 25 40 b5 85 e0 b3 bf 6c 6a 71 a4 80 a2 b3 3f
       -0.07764468836844195 0.0766983415100328

weight f8 [4]
000000 17 5c 37 6b 18 ee f0 3f 5d c3 0f f7 11 a0 db 3f
       1.0581287563452457 0.4316449082098666
000010 b2 7c a5 eb 39 6f e8 3f 32 ec 90 82 68 08 f3 3f
       0.7635774233312047 1.189552793525547

bias f8 [4]
000000 69 2d 0a cc b5 72 c8 bf 30 b5 b1 5f f2 97 d9 3f
       -0.19100067580107385 0.39989909501203424
000010 34 7d e3 f3 59 57 eb bf 93 37 5c ac 73 52 e0 3f
       -0.8544130099725522 0.5100649229441266

running_mean f8 [4]
000000 20 8e 1d 06 e1 bc f6 3f f5 8a de 77 4e 86 1f c0
       1.4211130370030176 -7.881158707578597
000010 68 1b ad f6 f3 69 16 40 80 09 ab 8b ce dc 10 c0
       5.603469709697357 -4.215631658853795

running_var f8 [4]
000000 67 f9 b1 29 06 65 27 40 09 d4 e6 68 eb 22 45 40
       11.697312643981332 42.272809136113274
000010 fd d0 28 93 3e ec 39 40 77 c0 e4 af a6 35 34 40
       25.922829816307956 20.209574693057643

weight f8 [16, 4, 4, 4]
000000 33 45 ff 87 29 73 be bf 12 7a fa b8 b4 27 bb bf
       -0.11894473619692718 -0.10607461467814286
000010 33 f4 c0 c4 7b 65 b2 bf 85 90 33 bc 16 c5 79 3f
       -0.07186101487691658 0.0062914741604097645
000020 8d b3 31 0c 77 39 c4 3f e8 b6 05 d5 f3 9e b6 3f
       0.15800369353692326 0.0883629221986798
000030 7a e5 92 0b cb cd de 3f cc ca d6 f5 5a 55 d4 3f
       0.4813106167817619 0.3177096749088093
000040 9e 34 69 63 c1 43 d1 3f 1b 2d 02 12 24 8b cf 3f
       0.269760462838187 0.24643374327966047
000050 d8 aa c7 7d 9b 9b d0 3f 32 a2 61 1d 2d af e1 3f
       0.2594975212402182 0.5526338170867062
000060 0a 44 5d 09 99 ab db 3f 02 1f 27 74 64 2e e2 3f
       0.43234849848255463 0.5681631344423013
000070 67 e9 99 dc 6b 8c ce 3f 97 b7 9c 2b d6 91 c9 3f
       0.23866031905692894 0.19976307992459105
000080 4c 5a 5a 0e f1 ce b6 3f c7 52 9e 5e 2e 64 c3 3f
       0.0890951786080702 0.15149478549996884
000090 4b 35 6a da 24 65 bb 3f 78 2b db 69 12 10 ab 3f
       0.1070120843162005 0.052856994077578656
0000a0 5f 80 41 c4 41 ae 9c 3f 0a 90 d4 2f 8d 71 b2 3f
       0.028008487323291194 0.07204515855534069
0000b0 44 73 87 48 11 82 c6 3f 55 77 cb 7b 22 95 d7 3f
       0.17584434548816763 0.36847745980582164
0000c0 97 5a 3f 5f 74 1d c3 3f f2 c2 f6 7f 90 53 9c bf
       0.1493363823962752 -0.027662523088738795
0000d0 21 52 59 2f 26 d1 c1 3f fa 0b 77 e6 e2 9f b5 bf
       0.13919522582968205 -0.0844709217699772
0000e0 34 87 b0 fd 8f 0e c7 bf 5f 81 8d fb af 7b b6 bf
       -0.18013191115556426 -0.08782482043671312
0000f0 21 e2 91 1e 34 b5 b7 3f 5b 55 d2 c4 e4 ec b6 bf
       0.09260869737944023 -0.08955220990386208
000100 47 ad 68 70 d1 f8 b1 3f 4e cf e2 0c 81 c8 c6 3f
       0.0702029132304932 0.1779938996238521
000110 05 f6 b3 45 c1 19 cb 3f 27 97 0c ee 15 25 c4 3f
       0.2117234793039843 0.15738176463599382
000120 62 64 33 ab 04 25 b1 3f 63 cd 09 68 71 eb c7 3f
       0.06697110347467253 0.18687264995569838
000130 0e 6d 76 a1 3d 41 d3 3f 29 2a ef d6 e8 a2 c1 3f
       0.30085697906334097 0.1377841042979793
000140 90 00 e8 fe d9 d2 9d 3f a2 e3 cf 01 a2 54 d0 3f
       0.02912464731525738 0.2551655786224335
000150 01 15 d2 6b cd c9 d2 3f 8c ff 9a c6 59 88 c6 3f
       0.29356704263075534 0.17603609273464504
000160 de c2 6d 0c 91 ab d7 3f e1 cf 0f da 64 c2 e3 3f
       0.36984659398789954 0.6174797305125105
000170 12 93 07 0e b8 28 e2 3f 9e 2a a0 5f 50 cd db 3f
       0.5674705766692532 0.43440636957590495
000180 3a a8 cd 9b d2 3c 97 bf 55 3e 5e d0 ee e4 8f 3f
       -0.022692957648736668 0.015573373540774297
000190 26 27 57 9d d1 a9 c3 bf 2d 7a 8a 28 bd fc b6 bf
       -0.15361995871199347 -0.08979398956078262
0001a0 25 f9 76 55 97 8a b5 bf 53 0b 7b 2c 26 e6 a8 3f
       -0.08414598309079631 0.04863089840866643
0001b0 52 bb ad ab 7f 00 af bf bc 5c a4 e4 a3 c0 9f bf
       -0.06055067988096731 -0.031008301572992933
0001c0 9e f3 a3 d4 be 63 d1 bf 00 5e 02 6d 3e 0b a0 3f
       -0.27171297803561767 0.03133578377417834
0001d0 82 40 8a 78 61 da b1 bf ba f1 f9 7b 51 da d1 bf
       -0.0697384757315849 -0.27895009142937577
0001e0 0a ab af ff aa 38 d1 bf 2b e4 c2 ba 5b f0 7e bf
       -0.2690837380347807 -0.007553442305089179
0001f0 df df 69 e3 ec d9 ab bf ca bf 0d 0f ff d2 d6 bf
       -0.05439701343578895 -0.35662819357002873
000200 75 0c 6b 78 44 c6 bb 3f f6 63 60 6d 50 d0 aa 3f
       0.10849407138725715 0.05237056098139441
000210 c2 dd 27 32 5d 62 c3 bf d1 16 cb 81 4f b9 d0 bf
       -0.15143933247575886 -0.2613104598534451
000220 cd e1 5a 22 80 d5 c7 3f 08 dd 41 c5 f0 dc be 3f
       0.18620301892748473 0.12055878463603531
000230 92 d4 c4 98 99 91 98 3f 12 3b a8 c6 22 09 bb bf
       0.023992919873496783 -0.10560815191295728
000240 35 d3 4d f6 ee 89 e0 3f 22 20 3f f6 c6 f3 bb 3f
       0.5168375788331107 0.10918849479560369
000250 cd 82 2e 64 be b9 92 3f 78 1d ff d0 81 34 d0 bf
       0.01828668104610891 -0.253204778764903
000260 57 95 1f 9d 97 05 e1 3f 1c 04 f4 b4 b8 a5 cd 3f
       0.5319326466384763 0.23161991916279667
000270 5d 87 f8 7e d6 83 cc 3f aa f6 ea ef ed 78 bc bf
       0.22277337264773225 -0.11122023684853369
000280 ef 3c eb 13 96 5b d2 bf b9 c2 47 d3 31 7d af bf
       -0.2868399805565351 -0.06150203422646911
000290 7c 4e 2e 45 6d 0b ac bf 33 2c 0f bf e5 ab c2 bf
       -0.05477467984669901 -0.1458708937555869
0002a0 4b aa f8 62 9a 35 80 bf 6d 65 c8 4d 61 ce 82 3f
       -0.007914739747396335 0.009182701288454631
0002b0 a0 59 a6 1a 33 42 a3 bf 43 93 d5 d0 99 ac b3 bf
       -0.037614438059949906 -0.07685242985242006
0002c0 75 d0 97 c8 51 e5 ca bf fa bc 3f 8c 3b 97 d0 bf
       -0.21012327475148465 -0.2592305059069556
0002d0 1e e5 4f 58 31 60 a9 bf 47 51 ea d0 40 82 be bf
       -0.04956201746967735 -0.11917500591727502
0002e0 43 f4 6d ff e0 95 b5 bf e8 7e fd 86 c5 ac d1 bf
       -0.08431822048255903 -0.2761701410545201
0002f0 8e e9 2d 67 89 06 dc bf 69 15 10 8f 1d d6 ca bf
       -0.43789897037609016 -0.20965928540696702
000300 fc 1c 7e 94 ec 69 c6 3f 6b 09 7b ba d7 15 a1 3f
       0.17510754824272812 0.03336977149367012
000310 ae 99 45 ac fc a7 cc 3f b7 a0 3b a8 ab 17 97 3f
       0.22387655650818544 0.022551233428118347
000320 9d 9e 16 14 a8 c3 e2 3f f8 17 37 e3 ca 92 dc 3f
       0.5863838569975602 0.4464595049761324
000330 ed f6 c7 3f b4 b2 7c 3f 42 83 63 14 f0 60 b1 3f
       0.007006363008711364 0.06788540361186526
000340 10 c2 7f 6f 60 b4 eb 3f 31 0b 4e fd 92 20 c2 3f
       0.8657686403003613 0.1416190850105408
000350 54 18 f4 e8 c4 d9 a1 3f b4 31 7c 44 7b 1d bc bf
       0.03486457198782547 -0.10982485219955757
000360 56 f2 e7 e3 a3 14 f2 3f 23 25 74 cd 1b ed ee 3f
       1.1300391104297396 0.9664439213530936
000370 a1 c8 86 36 dc 5c e5 3f f5 41 34 bc be 5b ba 3f
       0.6675854744883233 0.10296241850688388
000380 86 64 27 04 7b 12 d5 bf f7 cb ad ca d4 6c c9 bf
       -0.3292529621663295 -0.19863376518659923
000390 23 c4 4f dd fc 25 c3 bf 17 e9 46 06 17 94 db bf
       -0.1495967941878301 -0.4309136925982257
0003a0 b1 bc 69 32 8f 04 d2 bf ed 06 f4 76 10 41 c0 bf
       -0.2815282814326095 -0.12698560531867234
0003b0 32 bf 39 ac 55 d8 ba bf eb 70 ce 79 ab 6b d2 bf
       -0.10486350493169708 -0.2878216447368362
0003c0 89 d0 73 a2 3f a0 d8 bf 60 01 c5 09 eb 3a c8 bf
       -0.3847807966660715 -0.1892980382635967
0003d0 1a 95 d1 ea d6 e6 bb bf 45 07 3c 45 c2 79 d2 bf
       -0.10899108155134166 -0.2886815715902354
0003e0 6b 87 50 98 1c 54 e4 bf c6 17 22 b6 bd 41 cd bf
       -0.6352675413984178 -0.22856875794621895
0003f0 ef 6c ec d0 d6 cb d1 bf 65 85 b1 94 0c eb c6 bf
       -0.2780663528698843 -0.17904813061162908
000400 be fe f5 63 51 29 ba 3f 2d 24 4c 68 58 d4 c3 3f
       0.10219296160175426 0.1549177655472546
000410 35 8a 29 be a2 38 bb 3f ff 58 bc 64 d3 3a 94 bf
       0.1063329424155562 -0.01975565245000954
000420 ce d2 b9 9e 09 41 c3 3f 5e 3b 93 eb ad b4 ce 3f
       0.15042228937422525 0.23988889696780807
000430 9e 17 f4 95 b8 13 b6 3f 90 43 f7 b8 15 72 b2 3f
       0.08623841916059269 0.07205329671638894
000440 c4 71 35 10 7b 44 97 3f bc 93 57 93 28 4f c8 3f
       0.022722170700363767 0.18991572565496806
000450 52 41 b6 18 98 1e d0 3f 1b 4a 10 8b 7b 37 a3 3f
       0.25186731732630563 0.037532673574009766
000460 ae 95 c7 f9 48 2a c2 3f 06 b5 d4 0c cc 68 c0 3f
       0.14191543766280063 0.1281981527949158
000470 42 5b 77 9c 17 c5 d2 3f 1d b0 77 b7 34 68 bf 3f
       0.2932795551291073 0.12268380622089166
000480 26 7c 57 3b 72 98 c2 bf 7b d5 c1 eb 36 c3 c5 bf
       -0.14527728936715895 -0.17001997481899508
000490 20 89 94 f6 16 80 c8 bf 19 cf 2e 67 2e f8 cc bf
       -0.19140898742723156 -0.22632389105057696
0004a0 59 95 a1 57 8f a2 6c bf 6c 17 bc 0e c7 a5 b0 bf
       -0.003495483365486035 -0.06502956495032003
0004b0 54 6e db 23 02 8d 9b 3f 47 1a b7 d0 22 bd c3 bf
       0.02690509170393647 -0.15420947257207926
0004c0 2b a2 ab 89 63 ed b3 bf 3b 27 1b 6f 7d 9d 94 3f
       -0.07784101592154317 0.02013202658307665
0004d0 5f 7e aa 4d 4b 8a c1 bf be 77 4d e0 4b 6b c8 bf
       -0.13703290264401155 -0.19077442600513267
0004e0 38 05 dc 31 26 d9 b4 3f 53 b0 3d 6a 7e 5c b7 bf
       0.08143843381187288 -0.09125509351514553
0004f0 6b 8b c9 bd 57 da c1 bf 21 1f ac 5a 2b 49 c3 bf
       -0.1394757916160317 -0.1506704514251789
000500 c1 b9 0a 26 f5 9b c4 bf 69 52 b7 19 db ed c2 bf
       -0.16100944859995361 -0.14788378482502942
000510 12 20 6e fe 44 b8 a2 bf 24 53 3b a3 b5 00 ad 3f
       -0.036562114771243284 0.05664603822302741
000520 67 cc cd 7a 02 da 72 bf de c4 fb 93 d8 61 b8 3f
       -0.004602441488589105 0.09524301159742118
000530 f4 85 be c2 d5 36 ca 3f 3d d6 89 fe ba 3f ca 3f
       0.20479843148227383 0.20506989887842222
000540 5f 07 66 7d a2 71 70 3f cf 8a 16 bb 1d be c0 3f
       0.004014620519571326 0.13080188403281176
000550 ea 04 78 3d 1d 5b cb 3f ff 8e e7 7e 61 73 c5 3f
       0.21371808530242414 0.16758364387998623
000560 f8 e5 2a ae b9 6c b4 3f 16 c0 0e bf 31 4c b4 3f
       0.07978401662958123 0.07928763308041228
000570 54 db 20 58 dd 62 cc 3f 81 22 2c db 74 f9 d0 3f
       0.2217671089472001 0.265225614581631
000580 f5 e6 d2 c7 ce cc c4 bf 0d 93 81 e3 49 d5 ca bf
       -0.16250023610137246 -0.20963405235956892
000590 b5 fe 95 73 d2 07 d4 bf 3a 67 e4 2e ad 40 d1 bf
       -0.31297742164313586 -0.2695725400859491
0005a0 5d 59 cb a2 ac 6f d1 bf 32 4b 9c 38 a9 a2 bd bf
       -0.2724410619533922 -0.1157632601937564
0005b0 b4 82 c4 b4 b9 75 c0 bf 97 95 c5 68 db 85 c9 bf
       -0.12859269453567423 -0.1993974935132143
0005c0 4a c5 f0 69 6b 91 c4 bf d4 eb 3a 7c a5 07 cc bf
       -0.16068785355450138 -0.21898335042882755
0005d0 8c 1c 66 a2 c5 35 b7 bf 7a 2b b5 aa f9 a8 93 bf
       -0.0906642457467674 -0.019199276966257874
0005e0 7a 35 b6 ab 7a 03 d1 bf 6d 59 86 44 66 1f cc bf
       -0.26583735245443274 -0.2197082361787567
0005f0 c0 68 49 fa 70 8a c7 bf a9 07 7a 23 27 3f c9 bf
       -0.18391239377053203 -0.19723977310428367
000600 c3 a8 79 da 38 ac 8a bf 7c 2c 3e 16 d2 0d b4 3f
       -0.01302380005582327 0.0783358864120362
000610 87 9e 41 aa 54 96 a4 bf 2f a6 fc e1 2d 73 a0 bf
       -0.040209432395212956 -0.03212874778394014
000620 45 c4 70 25 78 c6 a4 3f f9 67 73 92 3f 49 c4 3f
       0.04057670075452128 0.1584853615848372
000630 aa c1 a9 e9 15 d4 b7 3f 45 f8 b9 5f 4c d1 c4 3f
       0.09307991938272289 0.16263727831023025
000640 00 01 49 f9 4e 7d 7d 3f b4 bf af 48 1d a2 c8 3f
       0.007199581614770745 0.19244733857294494
000650 72 9b ac cb c9 96 b5 3f 07 f2 02 70 3b 35 b2 3f
       0.08433209631458086 0.07112475857406518
000660 37 74 14 36 8a e8 9e bf 58 6e 5b 21 a1 9e c6 3f
       -0.030183944273734133 0.17671598557250223
000670 8b 64 8d eb d5 3b c7 3f 7f f0 92 7f bc d7 9b 3f
       0.18151353837564374 0.027190156256196914
000680 8d 06 a9 10 7b 92 c7 3f 04 6b 9c 4a ea 8e a8 bf
       0.1841577369069011 -0.04796535645274072
000690 13 a0 53 b7 b7 ec 83 bf da 4c 04 d7 18 31 c5 bf
       -0.009728846819101055 -0.165560822476073
0006a0 32 68 50 a5 73 0a ab 3f 32 bf f3 9b 7a d6 f1 3e
       0.05281411545748006 1.7011459701287558e-05
0006b0 d7 96 89 95 a8 5d cf bf 5e fe f3 85 9f d5 bf bf
       -0.24504573156007467 -0.1243533803972183
0006c0 4e 89 8c 6e 49 35 a1 3f ee d0 2f 4f 49 f6 b6 bf
       0.033609671349284484 -0.08969553168555297
0006d0 4b a1 08 c2 cd e0 b6 bf 4b e2 f7 0c 6d 15 b4 3f
       -0.08936773287917281 0.07845193449600989
0006e0 d6 53 d0 17 22 e6 bc 3f d9 70 24 23 d4 c1 cd bf
       0.11288655358687491 -0.23247768131194027
0006f0 6c bb 41 75 86 e1 dd bf db e1 e4 9a a6 5a 8b bf
       -0.4668899674497229 -0.013356496431343004
000700 12 36 24 90 3c b8 a2 3f 1d 06 5c c5 52 e8 98 bf
       0.03656186351336656 -0.024323743148675903
000710 a1 04 3d aa 10 fa b3 bf 32 92 81 f2 fb 47 c2 3f
       -0.07803444057664645 0.1428217825042722
000720 5f e5 39 3e 8d 04 aa bf 48 6c a9 5b 2b f1 c3 3f
       -0.05081597694965966 0.15579740501093142
000730 d2 cd 2e a8 a1 ad 9d 3f 43 ad ee a1 ae a7 b1 3f
       0.028982664003434362 0.06896487668443733
000740 1f 07 31 6f 91 63 c1 3f 3a e8 00 ae cc f4 73 3f
       0.13585107735894383 0.004872130899508826
000750 85 1b 06 c5 85 e0 b9 3f 19 1a 21 11 43 10 b8 3f
       0.10108219204094666 0.09399813812442694
000760 d9 79 ba 7b 65 43 b7 3f 7a 77 39 fe a5 f2 b7 3f
       0.09087213774407789 0.09354627091076209
000770 99 62 84 33 b5 8e b8 3f 7a bc 40 b5 30 3e ad 3f
       0.09592754848234576 0.05711509907302399
000780 fb 1c 47 10 8b d0 92 3f b0 f6 43 2d dd 91 96 bf
       0.01837365424014779 -0.022040801894937345
000790 1e 9c 0b 1a 40 b7 c4 bf 72 ca 7d 1f 94 30 bf bf
       -0.16184235831971788 -0.12183500069458278
0007a0 7e 2d 7d 7c f0 3e be bf 75 c5 bb 61 37 96 c2 bf
       -0.11814787902146937 -0.1452092387403742
0007b0 a0 30 5a 52 45 f0 c9 bf 4d 23 7f fe 32 79 c5 bf
       -0.2026449825392591 -0.167761205926832
0007c0 90 d9 6f 55 07 e9 b4 bf 5d 90 20 ee e0 85 c4 bf
       -0.08168073497640749 -0.16033565165810418
0007d0 38 d1 68 53 7e 24 c2 bf 93 95 71 5b 99 ef bd bf
       -0.14173869202353173 -0.116937241387481
0007e0 25 2f dc 09 2b f7 d1 bf 15 4c 40 bc a2 60 d7 bf
       -0.28071094477557984 -0.3652731741323703
0007f0 38 a5 79 d0 83 83 d4 bf f4 91 88 a1 d3 d3 d1 bf
       -0.32052703246025116 -0.2785538747287142

bias f8 [16]
000000 ca d6 43 c7 c4 a0 bc bf 4a 79 26 c8 4f 75 a5 bf
       -0.11182813515537329 -0.041910641844185095
000010 a4 26 1d 98 38 f3 b9 3f 58 ce 00 61 2e e8 98 bf
       0.10136750901906538 -0.024323200865366296
000020 8d f3 da 39 9d f0 bd bf f9 19 ff cf 9b 5c 84 3f
       -0.11695273077471154 0.009942261967705856
000030 1e 78 69 85 48 e7 bc 3f 59 bc 62 a4 45 b6 bb bf
       0.11290410287026062 -0.10825000060388969
000040 fe 52 d9 a1 3c 4a af bf 61 10 91 d4 01 45 b3 3f
       -0.061113257176350175 0.07527171554198865
000050 fa f6 0d 37 da 30 a9 bf 65 d1 5d fa 00 50 ac 3f
       -0.04920083925297365 0.05529788070899392
000060 ae ee c9 7e a3 d5 b2 bf 91 51 58 5e a5 c0 6f bf
       -0.07357236714772838 -0.003876040444774805
000070 40 01 22 65 b4 36 b0 bf 28 f6 89 e0 06 a7 ba bf
       -0.06333472699225684 -0.10411112768084563

weight f8 [16]
000000 8c 9c 62 a2 53 1a f5 3f 4f e3 63 dd af fa f4 3f
       1.3189274161502764 1.3112028739980877
000010 2f 30 06 53 b4 c3 dd 3f a5 5e 6e f8 a7 d4 c7 3f
       0.4650698481352746 0.18617725019861556
000020 28 83 ec 73 76 6e f5 3f 36 b7 37 21 1f 0a fb 3f
       1.3394684341694276 1.6899710938991581
000030 22 20 0c 59 0b 47 e1 3f f1 bc b5 c1 4c ff e4 3f
       0.5399224032598833 0.6561645301243556
000040 25 c2 62 ed 79 ae e5 3f 2e 36 1d 56 78 6e ed 3f
       0.6775483738366047 0.9197351152340099
000050 cd d6 c4 c8 0b a8 ee 3f 04 e1 7e 48 19 ff e6 3f
       0.9580134316699628 0.7186399856500718
000060 50 c4 a8 67 2e 09 e1 3f 72 af c6 df 28 c4 e6 3f
       0.5323707604021681 0.7114452715518225
000070 e2 75 02 af 63 e9 e9 3f 17 23 3a fa fb e0 ea 3f
       0.8097399156719656 0.8399639022109991

bias f8 [16]
000000 d9 79 2d 3d 6d b6 c1 bf 39 2d 6b be bc b3 c5 3f
       -0.13837972151936986 0.16954764650140833
000010 1f 7c a9 d9 b0 14 e3 bf f7 5e 24 19 15 87 ce bf
       -0.5962757350170057 -0.23849738814964613
000020 10 4c a9 0f fc 64 c5 3f e9 da 47 8e c1 25 e4 3f
       0.16714430584633577 0.6296088961524592
000030 1c ca 2c 28 74 79 f0 bf 92 a8 97 c3 6c 1e f1 bf
       -1.029651791509088 -1.0699279442147014
000040 1b af 57 f0 6c ae e9 bf 13 43 6d 5a b9 e9 c7 bf
       -0.8025421804609069 -0.1868201915299542
000050 ac 46 72 57 fe 02 d6 bf fb 85 9f cb ae 44 da bf
       -0.3439327100723897 -0.4104420650965889
000060 1b e4 2d 8b f8 8a e6 bf be 23 55 c5 4b ef f1 bf
       -0.7044642179818114 -1.1209218700698638
000070 e8 62 45 81 5b 36 c8 bf 69 16 cd 5c 12 7c e3 bf
       -0.18915885746061822 -0.6088954746744096

running_mean f8 [16]
000000 a8 fb 92 e5 d6 04 e4 3f 4d 59 73 9b ef 85 09 c0
       0.625590752017037 -3.1903984207703275
000010 ff aa 8a 25 3c 3b 00 c0 d0 94 23 b9 ec e2 ff bf
       -2.0289233143752194 -1.9929015380851531
000020 f0 35 f9 b8 97 ac 08 c0 65 e6 fd 5f 67 14 11 c0
       -3.0842737628033703 -4.269925594207597
000030 18 a7 e4 1d 2b 5b 0d 40 97 d3 c2 29 c9 81 10 40
       3.669515832462718 4.126743938938396
000040 40 31 5c 8f 17 f9 06 40 30 59 f0 90 94 43 e6 3f
       2.8716269683847315 0.6957495528065802
000050 72 7b 6f 98 dd 3d fe 3f 0e 15 27 96 17 cb 10 40
       1.8901039080153308 4.1983321629861745
000060 be 5f 65 84 f2 8d 0b c0 0b 56 bb 7b c9 55 0e 40
       -3.444310221046151 3.791888205198807
000070 b5 8b de 15 08 40 d2 3f f0 65 5e af 99 bc de bf
       0.28515817771602353 -0.4802612507424717

running_var f8 [16]
000000 99 b3 26 c4 33 86 24 40 1b a0 27 67 fb a4 2a 40
       10.262113694881736 13.322230552279555
000010 55 9f 14 db 21 0d 17 40 88 3e 8a f5 4d 54 0d 40
       5.762824462064448 3.6661643202604104
000020 0b 44 1c b3 db 81 14 40 5b 63 37 5a 54 87 29 40
       5.126814650154311 12.764315432797664
000030 78 81 c7 66 2a dd 1c 40 e8 0c 06 a3 8a 3c 20 40
       7.21598206131636 8.118245214928223
000040 b3 67 40 e0 35 70 17 40 2f 4c e1 0e 94 55 31 40
       5.859580520564054 17.33429043770246
000050 43 8f 84 91 53 fd 14 40 bf 55 0e 67 e2 c3 14 40
       5.247389100757405 5.191293344736038
000060 dc c0 be 6d 4d 24 17 40 04 26 99 01 f1 fb 1c 40
       5.78545161701933 7.246036553356593
000070 43 be 91 da 8e b7 25 40 35 50 73 34 27 2e 16 40
       10.85851176289646 5.545071429765859
