Model/ColorNet.pt (torch, 817695 bytes, 60 tensors)

weight f8 [8, 1, 8, 8]
0.14688083433028284 -0.03589149007273266 -0.04229526205080661 -0.04320851762007658 0.0065389877261781346 0.058493930212573764 -0.007029813949865009 0.15408821841417958
0.019621556232450037 0.20007015997895952 0.02014850047871844 0.17759467245811078 0.08445458153625471 0.17508744999366915 0.010003184466047428 0.14457408782005518
0.12929565944813823 0.12775673787932898 0.14763024825709348 -0.007148924893530579 0.15848403272695852 -0.04926159875093745 -0.027269316182411338 0.10170308307051257
0.03542347499185038 0.15555672875078752 -0.024403009444444325 0.045809108172067146 0.13802649345171036 0.003723198472455795 -0.05437678215533575 0.05885984356167515
-0.04752006617978298 0.00439184581437074 0.19172830338191021 0.07079842882418737 0.12686594845716082 0.10934415738446926 0.12910227001416893 0.05853135962496878
0.037162151876761335 0.15036639712631922 0.13557750347792027 0.08215414473668838 0.05937739189079446 0.023140989659329595 -0.03063647172272397 -0.07582342878621923
0.08919591237489916 0.05207453413990348 0.17647458997921597 -0.004683299250429466 0.0744588254772368 0.11584113142938222 0.1264826894262864 0.13101588677678094
0.04266078676070519 0.08226070416880092 0.11075985389098991 0.09644918028974288 0.03860455889371281 0.16038539017441317 0.13780446193055884 0.0014482048566247855
-0.20888424390840105 -0.174657208471941 -0.08269527638741085 -0.28304718117564676 0.005596936320317475 -0.13255639233532288 0.021000456226377293 -0.07457707415689563
-0.19087198997981716 -0.17835881174407286 -0.15042717337931866 -0.16720318981602378 -0.28900339481166526 -0.14373488110258031 -0.0017661200054047324 0.04132063725204894
-0.10456123490210387 -0.09510288474746913 -0.07913884680752342 -0.18793323017356936 -0.11043779108215536 0.020231239436263943 0.030694265697403387 -0.05225491730268346
-0.18153517956636264 -0.14111288982321524 -0.20621294825547834 -0.0423677673739321 -0.02726226726093148 0.005996215196877387 0.03649194516464937 0.09934400797124351
-0.10594066667301677 -0.16092441915366512 -0.24158706612888306 -0.20924359049928934 -0.13494090569144263 -0.10095906917606326 0.11211693220552434 -0.0137908034108487
-0.052149158426399986 -0.16333456703759244 -0.076652492274853 0.036878442283004666 0.08016176422306079 -0.04526495349271572 0.12416402757342539 -0.04030935675595224
-0.13845816620559873 -0.011138601447685265 -0.08685284549794099 -0.08449075077764678 -0.029198222377871067 -0.13571950562771423 -0.005150797995437188 0.10524878207985762
-0.05958548824520084 -0.007981240383791907 -0.10935289899643191 -0.039228197833571676 -0.015647955405521427 -0.10006036987211131 0.1418637415182905 0.0996223031951569
-0.0630134656629724 -0.13449520625064976 -0.11110661666226389 0.07555302410689563 -0.07824838670928844 -0.11605702082681256 -0.13916294922050504 -0.13630068248058036
-0.016080688453863328 0.02872755653045065 -0.030239944247138127 0.03981537177183776 0.012552925959202443 -0.024166559867988952 -0.1363638532592345 0.036202916927205356
-0.1781148676669377 -0.11984242515205092 -0.17602190249241736 -0.03073996198225356 0.03672887340292236 -0.09655760544995352 -0.04103117135182245 0.02760458985251211
-0.14039413704636136 -0.03129822661368284 -0.1197092066569064 -0.039239513565528725 -0.12543056720409979 -0.14642662661558395 -0.035872740203227026 -0.08883903698567149
-0.19473041545471773 0.027426075577083788 -0.16880422729738573 -0.18550815188581016 0.013556589567845575 0.04034230167166551 -0.1393011853814319 0.026770063550145395
-0.17840335676066862 -0.1391525967305647 -0.15792625639424132 -0.16507343690906456 -0.05063743639501108 -0.1741872780265507 -0.025429579236388763 -0.003212937866068241
0.02372262792305715 0.02660486819182391 -0.07112221842465205 0.022330683213269108 -0.14175436963797913 -0.13469490542055573 -0.07111322345498781 0.010982619994667544
-0.0940342693529338 0.07163522722413802 -0.021479865215158794 -0.04455565380358997 0.030090264741825825 -0.05929922702149294 -0.11368023394899635 -0.12556965409541948
0.10912097893701832 0.056934480711847604 0.0523573314220809 0.08854201400820681 0.015808150080733684 0.06726787452181139 0.08402435694046215 0.0576150764692919
-0.052246556556210876 0.1598645826244937 0.03754959498061234 -0.034991595023410905 -0.030298496650651537 -0.08039638906079713 0.06935921914410174 -0.11438811676250542
0.03503607625525211 -0.0494223843689816 0.14431740758687006 -0.04492500244347699 0.06054584560839248 0.0003967866038088953 -0.018802112390881993 -0.09876291496077229
0.12955809865189122 0.1471066908011808 -0.012015785872683536 0.0802016452075318 0.10171350393089904 -0.009606699043714738 -0.08676932468183879 -0.07409071163507955
0.14130309639777866 0.1540517828731777 0.14914147437081351 0.06433029915952294 0.05787739592869095 -0.0522711347520223 0.10969101622544013 0.048435856563450834
0.07971215053185002 0.12955973619532102 0.07360035485014896 0.05864483367760661 0.1510795855464426 -0.01659387396404712 0.06315688840731203 0.07439153191166227
-0.059472003438748575 0.08394899234658948 -0.0550193807317882 0.08024877781935524 0.004171956374060629 -0.07165327239676866 0.12349230695490637 0.061204872060098205
0.043409886205220856 -0.06997151060021643 0.08783439299745026 -0.11537479508461404 0.041320942188582184 -0.008972538945431877 0.0023516564882952395 0.06892527905449201
00000000: 0bcb edbd fdcc c23f 555a 2290 5e60 a2bf
00000010: c463 917e b9a7 a5bf 0d7a 2c44 6d1f a6bf
00000020: 1814 ed26 a0c8 7a3f e015 8e9a eaf2 ad3f
00000030: f8a7 2f50 4bcb 7cbf d6d6 64a9 29b9 c33f
00000040: ce8e 4259 ac17 943f 6def 0125 e69b c93f
00000050: a867 7afa cea1 943f a861 1317 6cbb c63f
00000060: 7e11 b2c1 d09e b53f 16d8 d4fb 4369 c63f
00000070: c4a8 19b1 8c7c 843f 2fa1 8459 6781 c23f
00000080: cf18 6c9a c28c c03f c186 8431 555a c03f
00000090: e010 1548 8ce5 c23f fa8b e8e9 3048 7dbf
000000a0: bf0f c06c 3449 c43f 99fb 2af7 d038 a9bf
000000b0: fc3e c0d4 7cec 9bbf 70b2 b097 3609 ba3f
000000c0: 2f8b 3395 0623 a23f e024 546b 48e9 c33f
000000d0: 8a93 f33d 1afd 98bf 0b79 ea9a 4a74 a73f
000000e0: d8a6 ad25 daaa c13f a374 9ff5 1c80 6e3f
000000f0: 17ab 090a 46d7 abbf bd46 4a9e e022 ae3f
00000100: 7eb6 4ad4 8c54 a8bf bdcc 4422 2ffd 713f
00000110: 6216 5f94 8d8a c83f 2d77 6888 d81f b23f
00000120: 50bd ccb5 243d c03f ca97 f98b fafd bb3f
00000130: 836d c655 6c86 c03f 3d62 c286 d2f7 ad3f
00000140: 845a ebe5 ea06 a33f fa95 09c3 343f c33f
00000150: 3f68 c187 9a5a c13f 39fb dfd4 0d08 b53f
00000160: bbe1 95a8 b666 ae3f 51b5 2287 45b2 973f
00000170: 9aa9 74d0 2a5f 9fbf 244b e80a 2a69 b3bf
00000180: 744a 9616 8bd5 b63f 30af 2b6a 83a9 aa3f
00000190: 3193 4428 b896 c63f ab3a e391 cb2e 73bf
000001a0: 07c4 52cc bb0f b33f 6755 05af c3a7 bd3f
000001b0: 8d4a 4cb3 9530 c03f 2e3a 7bea 20c5 c03f
000001c0: 83ef ea77 a2d7 a53f 67a3 269a 090f b53f
000001d0: 0cea 2bfe c15a bc3f 3d09 12bb e4b0 b83f
000001e0: ec99 d90b fac3 a33f 3614 c72a 8287 c43f
000001f0: 4408 9e9c 93a3 c13f 1bae d01f 36ba 573f
00000200: 163e 1e0a b8bc cabf e4e5 32db 2a5b c6bf
00000210: bb1b 9e83 842b b5bf 00f6 97ec 711d d2bf
00000220: 2dc6 4127 d0ec 763f cb5c fa9c 9bf7 c0bf
00000230: cc02 c6c2 2481 953f 1005 89ae 7b17 b3bf
00000240: cdc6 574d 7e6e c8bf 9875 b227 76d4 c6bf
00000250: c404 0c97 3241 c3bf 58fa 0504 ea66 c5bf
00000260: 808a 4918 087f d2bf daa4 d092 e765 c2bf
00000270: 5361 7fea a4ef 5cbf e17b 4b83 fa27 a53f
00000280: 1e7b 556c 86c4 babf 13e2 bea3 a958 b8bf
00000290: d4a7 e186 7142 b4bf e5ab b632 320e c8bf
000002a0: f9b9 f0ac a645 bcbf 65f8 f17e 7fb7 943f
000002b0: 395d 614d 516e 9f3f 2a8c bd11 28c1 aabf
000002c0: 57cf a775 8b3c c7bf 70d9 6ab7 fc0f c2bf
000002d0: 3d6f 6296 2f65 cabf 0f18 8d5e 3ab1 a5bf
000002e0: 79b9 33c9 a3ea 9bbf 4ed2 b9c2 7c8f 783f
000002f0: 6f64 197e 12af a23f fe40 4ae1 9b6e b93f
00000300: c452 ad72 ed1e bbbf de46 b2de 2b99 c4bf
00000310: 897f 1432 53ec cebf c1c8 0b75 7ec8 cabf
00000320: d22e 6b5c be45 c1bf ea85 581c 74d8 b9bf
00000330: 298c 26fd b1b3 bc3f fcce 144d 5a3e 8cbf
00000340: 7e1e e963 4bb3 aabf b5cb dda7 25e8 c4bf
00000350: fd35 7a6b 7f9f b3bf 05dc 102f bbe1 a23f
00000360: 224b ba3b 7b85 b43f 2bf6 cfcd f72c a7bf
00000370: 297b c4b5 36c9 bf3f 5dae fa91 6da3 a4bf
00000380: 85cc db47 ffb8 c1bf ea23 87c7 d5cf 86bf
00000390: 256b faf2 fc3b b6bf f88b 6793 2fa1 b5bf
000003a0: 416f db88 23e6 9dbf 4ed7 0cbb 415f c1bf
000003b0: 9eef 04cf 0019 75bf d510 fa8c 95f1 ba3f
000003c0: f29d a836 fd81 aebf cb6f 70f3 7758 80bf
000003d0: 6497 e934 8dfe bbbf 306b 8de5 b715 a4bf
000003e0: 1c2a dd82 0406 90bf 28f4 3970 8e9d b9bf
000003f0: ac95 2751 9728 c23f b3e6 2ce6 d880 b93f
00000400: e1e6 3a86 a621 b0bf 425c 2890 2337 c1bf
00000410: 8302 efb4 7b71 bcbf 142c a767 7157 b33f
00000420: 5e93 e115 1608 b4bf 2f1f ecb4 e9b5 bdbf
00000430: eec5 db6d 17d0 c1bf f099 d6fe 4c72 c1bf
00000440: fba9 06bc 7477 90bf 9a4a 2baf c16a 9d3f
00000450: f61a 4c4e 38f7 9ebf 4ab8 462f ae62 a43f
00000460: c608 b633 59b5 893f 75cb 2861 1ebf 98bf
00000470: 2c6f 0de9 5e74 c1bf e2bd 7150 3089 a23f
00000480: 6fca c7cd 77cc c6bf 118e b340 fead bebf
00000490: 45d5 4abd e287 c6bf 1685 93ed 4b7a 9fbf
000004a0: 6840 2b7c 20ce a23f 616e 96cd ffb7 b8bf
000004b0: 5232 25a6 0902 a5bf 3a4c 8baa 6044 9c3f
000004c0: 9b06 9561 6ff8 c1bf 6c06 7537 5206 a0bf
000004d0: d61b 9f37 43a5 bebf 5625 f396 3317 a4bf
000004e0: 2eb9 07dc 1b0e c0bf b5ec 4992 1bbe c2bf
000004f0: 7b45 fb6b e95d a2bf fd2a 76b6 27be b6bf
00000500: 850e f51e edec c8bf 6711 a5c6 9415 9c3f
00000510: f79b d57d 609b c5bf a0d7 be2a bbbe c7bf
00000520: 0baa b6a6 8ec3 8b3f 9e7c a604 bfa7 a43f
00000530: a9ee c009 9fd4 c1bf d3bf d68d 9c69 9b3f
00000540: 0750 64d3 ebd5 c6bf 813d 0e96 c0cf c1bf
00000550: 154d 3275 ed36 c4bf 723b 7b5a 2021 c5bf
00000560: 232a 8a6a 26ed a9bf f66b 40cb c44b c6bf
00000570: 3c71 af2c 360a 9abf f90a e2e1 0452 6abf
00000580: 4738 6b9c be4a 983f d56e 317b 4e3e 9b3f
00000590: 2021 27d2 1035 b2bf d6af 64c8 dadd 963f
000005a0: f381 d4d6 0125 c2bf 780b dcc2 ae3d c1bf
000005b0: 5f64 0de9 7934 b2bf 41a8 9c4d 0e7e 863f
000005c0: 98f8 923f a112 b8bf cd50 2bae af56 b23f
000005d0: 6883 7c5a d1fe 95bf 146b e0a7 ffcf a6bf
000005e0: 97fb f97b fbcf 9e3f 4285 78e1 775c aebf
000005f0: ac37 03d7 251a bdbf aadc da9a aa12 c0bf
00000600: 378d d73b 5aef bb3f 3221 5829 8426 ad3f
00000610: a3cc 5384 94ce aa3f 97ba 7c7e b0aa b63f
00000620: 4694 6dfe 0230 903f 3182 24a9 7738 b13f
00000630: 6e70 20c9 9e82 b53f 3461 622a b97f ad3f
00000640: db9e 7987 0fc0 aabf 0e98 1451 7176 c43f
00000650: d9ec d654 b339 a33f 9556 8518 6bea a1bf
00000660: 1f18 eeb0 9106 9fbf b68c bb95 db94 b4bf
00000670: 5367 e699 86c1 b13f 03c6 8b24 8a48 bdbf
00000680: b697 64a3 3ff0 a13f 5f38 1c09 e44d a9bf
00000690: 4020 ea28 fe78 c23f b3ef 88f0 6800 a7bf
000006a0: 7fea 9775 ddff ae3f 8735 a27c f900 3a3f
000006b0: 951a 4267 dc40 93bf e16b d0c1 8648 b9bf
000006c0: fa26 521a 5c95 c03f 05c6 015d 64d4 c23f
000006d0: 9f0e df7a bb9b 88bf 4f72 4053 1888 b43f
000006e0: 06dd f16c e509 ba3f 19df b851 adac 83bf
000006f0: ecf3 cdb3 8336 b6bf f2f7 68df 9bf7 b2bf
00000700: 2a0e ed48 3816 c23f 5d57 aa04 f8b7 c33f
00000710: d12e 735d 1117 c33f 4134 0853 f377 b03f
00000720: 67fb 6125 1ba2 ad3f 14ca 913c 48c3 aabf
00000730: f36f 5adf b514 bc3f ff9b c9a7 95cc a83f
00000740: cacc a0f7 0368 b43f 5c2c ebd6 6995 c03f
00000750: b22d 0e0d 79d7 b23f 3b09 7315 b206 ae3f
00000760: 3ff2 816b 9356 c33f e546 f507 fcfd 90bf
00000770: a7fd 39c2 0c2b b03f 29f1 a8cc 520b b33f
00000780: 9e13 984b 1d73 aebf 5027 a960 ae7d b53f
00000790: 9945 c711 802b acbf a031 4714 2f8b b43f
000007a0: 6aa9 fd02 9d16 713f c072 986d de57 b2bf
000007b0: 74cd ad1b 319d bf3f a53d b5b7 3e56 af3f
000007c0: 8925 2613 d239 a63f 57fd ad25 a7e9 b1bf
000007d0: eb57 6395 507c b63f 72ce abdb 3389 bdbf
000007e0: 1103 aebe 0428 a53f 2267 a9ca 3160 82bf
000007f0: b34b adf6 c743 633f 9b1e 684b 16a5 b13f

bias f8 [8]
-0.10690158946243966 -0.05474628694595714 -0.023708864438913804 -0.11576990098539786 -0.05946548063499773 0.08129504502301226 -0.031303771244508234 0.11903433940745194
00000000: 50b0 a10e e75d bbbf 5a48 0590 b407 acbf
00000010: 74cd 8ff5 2247 98bf d0eb 97a2 18a3 bdbf
00000020: e7ef 226d 4272 aebf 1b60 b387 c0cf b43f
00000030: 5127 7943 0c07 a0bf db20 dbd2 0879 be3f

weight f8 [8]
1.0915547984668146 0.795731130280111 0.896896923190279 1.0233884574522452 1.018301434744132 0.8774703118813028 1.074085379921015 1.100736185483631
00000000: 374f 132a 0277 f13f 47ca 9e21 a176 e93f
00000010: 5a87 1f2d 61b3 ec3f cec7 3d93 cc5f f03f
00000020: 8222 fb71 f64a f03f 38b7 979e 3c14 ec3f
00000030: bdf5 bd26 742f f13f d6d0 e28b 9d9c f13f

bias f8 [8]
-0.5959610539622598 -0.0773965677250244 0.20169430437101366 -0.2857588976335239 -0.20672401119180933 0.007635744853360652 -0.13637915216987173 -0.599381512789705
00000000: a3a4 8eea 1c12 e3bf f49d 33ef 42d0 b3bf
00000010: 840f 8874 1ed1 c93f b820 f8af df49 d2bf
00000020: f6f1 aeb1 ee75 cabf 3703 d0a6 a846 7f3f
00000030: d480 363f df74 c1bf ff47 6823 222e e3bf

running_mean f8 [8]
0.9400199809613018 -1.1077926679177412 -1.02146905667966 0.4234871201928816 0.5589647233415797 1.2118742328632717 0.876894934889737 0.9422961993783108
00000000: 3717 7ac8 a414 ee3f db48 f7cd 84b9 f1bf
00000010: b10a 05f0 ef57 f0bf 885c e0b8 691a db3f
00000020: 2dd5 cbfc 09e3 e13f 9834 503c d663 f33f
00000030: 9e24 6cf7 850f ec3f b632 ef5b 4a27 ee3f

running_var f8 [8]
0.36247437848264624 0.3907797415476506 0.33216813402727113 0.09864011032308 0.13070028376806656 0.4256266934964184 0.27589423556565035 0.23803515357447524
00000000: 1723 4ebc c732 d73f 48bc 7808 8902 d93f
00000010: 0de9 1a22 3e42 d53f 7b55 e96f 7a40 b93f
00000020: 554e 2e72 c9ba c03f 79ca 37be 773d db3f
00000030: 6b33 ba4b 40a8 d13f 6c4a f397 ef77 ce3f

weight f8 [16, 8, 8, 8]
-0.0009603427256363111 0.0590861457530384 -0.05528755957514692 -0.046180964792745666 0.08016364234470809 0.032946505487755184 0.038983846761857184 -0.07793756734336153
-0.021841254608883733 -0.05618512670747965 -0.06580614075624837 0.028205823379200294 0.036237319760892936 0.09067120331486186 0.022451361630274683 0.039275532088182796
-0.0795391639162875 0.014336649042160103 0.022773084648012795 0.07814562812931947 0.08733977846940748 0.020502612972530754 0.06154821553114903 -0.004701173341843798
-0.0040716237389826935 -0.01549526213460821 0.03141968195814719 0.040682571954117036 0.07449979175936616 0.0936749720609536 -0.10465251991933502 -0.049701131220555334
0.05325752340188488 0.03399485449065713 0.01697868872101453 0.03142554079458916 0.06821975821088792 -0.08799393655085441 -0.019161671524433835 -0.0930885745787909
-0.05604463266556614 -0.06902778115299643 0.08496344435285981 0.03854380842426486 0.07389838214675938 0.015641958295741866 -0.08556646421799262 -0.06212417177094201
-0.10234560144865333 -0.10746563180350177 0.0529362733157095 -0.08211854240262977 -0.13955510729783463 0.0556243615499941 -0.12078511342245021 -0.08518976511120671
-0.026388908034701525 -0.09624473680291835 -0.08893300983771484 -0.07644505582261023 -0.11106141747083052 -0.050434487460531134 0.0654042311505469 -0.11523445011835515
0.00435376316519785 0.0724546095319967 0.027055708486615673 0.07349403858209554 0.026985256485325012 0.005654062111789626 0.054319717582663476 0.032222337461732836
-0.13525671288630145 -0.01795367808296246 0.003832010106935759 0.06210027202790561 0.1255079004994728 0.03196873534919925 0.042569376345476036 0.005980771211177442
-0.1089215085383942 0.11931324266853922 -0.004891547051813574 0.026821704003289 0.11719726336174388 0.04246277109343657 0.0442623520953723 -0.01860248867991877
-0.07410697033411133 0.0553168743513964 -0.06058034207809241 -0.03495444182368259 0.10305923315636754 0.0908674716864139 0.07321180071154337 0.037500094476764494
-0.035466747743413365 0.04679705965272416 -0.02122749049269186 -0.027181603925450378 0.1585353613004035 0.07899808156802741 0.0657350286983679 -0.09453748075001846
-0.14719035598511407 -0.019093872776571846 -0.06285722918331732 0.05537876039514704 0.05563673617048192 0.0338180634902341 -0.08089291100266222 -0.05660092825387112
-0.08614524602736673 -0.06287933236068634 -0.05759801106977976 -0.03155638139657178 -0.043737432529651954 -0.07322690241000243 -0.11818436645417425 -0.1203658268080044
-0.08513399372824802 -0.09586802305356323 -0.10184732350008997 -0.09343879753544251 -0.0992607583781049 -0.03709809595425966 -0.10210739847507955 -0.12393654558988415
-0.12079556105996694 0.07607583362954647 0.11979849302105071 0.09077276459048678 0.12033977902153473 0.041590620621710296 -0.07706403808202243 -0.06228089378587561
-0.1069694027848506 -0.05015663288157412 0.023565713361328268 0.07927582429241545 0.05994813873678513 0.06747647734083984 -0.04934145630014113 -0.0620865032940737
0.005867460154142851 0.022347462810819764 0.005951364331951816 0.10301019318119205 0.10254034284294768 0.06219462226040479 0.0020831818670927708 -0.10831471571061374
-0.039465453948509484 0.008586783066252797 0.04891285183496035 0.10248920961090228 0.1300866659784215 0.04473286087761675 -0.022132277460081774 -0.08134534922135031
0.024239148432101343 0.04800748702419917 0.07284923215526477 0.15643469250215178 0.2810325729626166 0.09021327513285747 -0.06971188897078119 -0.09198204400390342
0.014941295406614544 0.155219324534899 0.03096827735224962 0.15957139486855415 -0.024614334756454262 -0.04451521629365531 0.00816851068190688 0.03599523152349918
-0.0008903715855162057 -0.04569985740388781 0.08408224143903724 0.24684084983501858 0.0632676166976049 0.003919420314132263 -0.04387996426164869 0.10486922342368009
-0.08700853491058243 -0.04984326632547781 0.036812662879574236 0.027597195254205873 -0.011105242023467122 0.09048389773809014 -0.07493001802488561 -0.007884577486094899
0.02728477627126495 -0.012092388329130215 -0.03244570001326963 -0.031679855488760955 0.021981944126391643 0.04132151437246638 -0.0021622302021250084 0.029069406572754582
0.04518138050338073 0.013474103962576114 -0.14612629246663372 -0.11417525550820608 -0.053267089728227926 -0.15551585384238859 -0.11794701237575723 0.012503168299386797
-0.057769334431655064 -0.06641108872409418 -0.07239494602823955 -0.04569042094772036 -0.07882033036811635 0.07700747640136613 0.02353277144676615 0.01103660111852358
0.01164192146733177 0.01704225665291024 -0.1544839505527095 -0.15321576432390818 -0.08042875917176616 0.0754945744055223 0.060616340399651754 0.019403443228630444
-0.07116790080827674 -0.005142503429456402 -0.0024281542878280757 -0.10893602969699163 -0.1220999018489969 0.039303885813556955 0.05278487522865386 0.0016882863673460939
-0.11139396704473231 -0.13180475485367157 -0.12359138167563877 -0.1046720314499477 -0.0937725394381914 -0.12189778613657028 -0.08846906947446596 -0.07826748324820643
-0.004846207085877384 -0.0971909654913239 -0.035728052006496244 0.08754960756135861 0.02712167577599767 0.0071652039015107204 -0.12659497773081516 -0.0544223735764055
-0.0476918342797356 -0.10154697386369523 -0.052732372665789375 -0.06040472283425574 -0.09383718352698814 0.057315129565281744 0.06933855389241889 0.012119928341754375
00000000: 425d be4c f077 4fbf d2dd 4f0f 8a40 ae3f
00000010: f976 80a8 a64e acbf 6c13 f70a 08a5 a7bf
00000020: 11e2 32be 9a85 b43f c8be 2c47 5dde a03f
00000030: 1133 d4d5 b0f5 a33f df99 de66 b7f3 b3bf
00000040: 3abc fec8 8d5d 96bf 2fe2 7503 4cc4 acbf
00000050: 298f 6cd6 abd8 b0bf 1eb5 e1c3 fce1 9c3f
00000060: de13 89ae b28d a23f e621 ed5c 3a36 b73f
00000070: 5490 cf5f 7dfd 963f c017 b42b ec1b a43f
00000080: 138a c5bb ad5c b4bf e996 2976 885c 8d3f
00000090: cc44 2bd7 d351 973f c80b 2415 5a01 b43f
000000a0: 537e 2a54 e65b b63f c05a cc10 a3fe 943f
000000b0: 38b9 aa69 3f83 af3f d7c3 189c 8941 73bf
000000c0: 530b cf2c 68ad 70bf d882 e3e0 fabb 8fbf
000000d0: 6603 ec94 3d16 a03f 5cc5 1e98 58d4 a43f
000000e0: 5050 2a19 6b12 b33f 449c 743d 15fb b73f
000000f0: 4a5e 7fee 81ca babf 243e 553a 6d72 a9bf
00000100: 87d9 8df2 9144 ab3f b60f 8a08 c667 a13f
00000110: 2c94 2483 dc62 913f 8299 f12b 0217 a03f
00000120: 43f0 749e d976 b13f b072 bb47 c586 b6bf
00000130: 04f5 2202 1e9f 93bf 5579 721f a7d4 b7bf
00000140: 0073 d4d0 e1b1 acbf ee4b 91fe cdab b1bf
00000150: 55de d90e 2ac0 b53f e07f 4a99 03bc a33f
00000160: 4132 8c1e 01eb b23f fa6b 4d0d 7204 903f
00000170: a75c 730d afe7 b5bf 6435 184c bdce afbf
00000180: c785 1c43 5233 babf 983e 0a1e de82 bbbf
00000190: 8180 5395 761a ab3f 3bb5 0386 b805 b5bf
000001a0: 8dbf ea16 f1dc c1bf 66ab 6fdb cb7a ac3f
000001b0: 1e3a feef c5eb bebf 2a47 1b17 ffce b5bf
000001c0: 05dd f1a3 b105 9bbf a90c fbbc 7ea3 b8bf
000001d0: 53af c950 50c4 b6bf 03f2 b236 e791 b3bf
000001e0: 7776 e263 856e bcbf bf8d 7794 8cd2 a9bf
000001f0: 8dc6 cfe9 54be b03f 4481 a142 0180 bdbf
00000200: 6e7c 8b66 40d5 713f 7266 62a2 628c b23f
00000210: c701 7bdc 7db4 9b3f 653b 295c 81d0 b23f
00000220: bf87 50e8 05a2 9b3f 6649 c1bd b628 773f
00000230: 3a4b 1745 cbcf ab3f 4c98 323b 727f a03f
00000240: cb9f 348b 1750 c1bf e541 d6f0 7262 92bf
00000250: b897 cac2 4e64 6f3f 4578 dd5a 9bcb af3f
00000260: 3876 0494 a410 c03f f879 a3c1 345e a03f
00000270: 090c 6e3e a7cb a53f eb1e 1c0c 4b7f 783f
00000280: 07de 00ad 47e2 bbbf edb7 3d0b 508b be3f
00000290: dc84 d4a9 2809 74bf 8587 1116 2677 9b3f
000002a0: 7ac3 51cd a300 be3f f3a5 492a aebd a53f
000002b0: 8c27 6315 8ea9 a63f 8391 04e2 870c 93bf
000002c0: 439b fda5 acf8 b2bf 2c2b 834c 7e52 ac3f
000002d0: 4505 03f8 6204 afbf 131e f770 8ce5 a1bf
000002e0: 9f1a f503 1762 ba3f 8cd1 2933 1743 b73f
000002f0: dcc2 bc31 02be b23f 5fcd bf5e 3633 a33f
00000300: fa8f 4e93 b228 a2bf 6dcb 83c1 c8f5 a73f
00000310: 74e0 c4c5 a8bc 95bf af89 a68f 7ed5 9bbf
00000320: 41bb 0500 e34a c43f 050b c8e0 3739 b43f
00000330: 690b 76c6 02d4 b03f 894b 11bc 9b33 b8bf
00000340: 930f 9f32 22d7 c2bf 2877 841c 588d 93bf
00000350: 9cd6 a84f 6917 b0bf 0692 94d9 9a5a ac3f
00000360: 9fe6 9d14 6b7c ac3f 42c2 68e9 9950 a13f
00000370: 8413 3cd7 65b5 b4bf c517 8cff cbfa acbf
00000380: c8b6 6466 9d0d b6bf c95d 1524 dc18 b0bf
00000390: bbfc b78b 7c7d adbf 3d21 2874 2828 a0bf
000003a0: 58d7 a6b4 c064 a6bf ead0 098f ffbe b2bf
000003b0: 55b4 d1a4 5441 bebf e445 b279 4bd0 bebf
000003c0: bf37 d766 57cb b5bf 584a bf87 ce8a b8bf
000003d0: 7936 9e8b aa12 babf 62a0 97e3 9aeb b7bf
000003e0: 2197 022f 2769 b9bf d71d bc89 85fe a2bf
000003f0: b04e 21e1 b523 babf cc77 1632 4eba bfbf
00000400: d228 4138 75ec bebf 5570 74b1 b479 b33f
00000410: efaf a231 1dab be3f 209d 4847 e23c b73f
00000420: fa2b 4e77 96ce be3f 45fb c7a6 5d4b a53f
00000430: 5f8e 4203 78ba b3bf 5bb4 f303 48e3 afbf
00000440: 9b32 a2c6 5862 bbbf ffc3 ce53 21ae a9bf
00000450: 7a77 c640 9c21 983f b209 b3a0 6b4b b43f
00000460: 8a3f a9be 85b1 ae3f 009e 6d6f 2346 b13f
00000470: 27d0 4a8a 4843 a9bf ec92 575a cdc9 afbf
00000480: fae0 8f57 7a08 783f fa26 afd7 40e2 963f
00000490: 42cc c132 7560 783f 352c de42 e05e ba3f
000004a0: 61f5 077b 1540 ba3f f9e6 3039 f9d7 af3f
000004b0: f47f b4bf bf10 613f 5412 a761 83ba bbbf
000004c0: 59b0 0fe4 d034 a4bf b147 9483 f295 813f
000004d0: 7772 f8f5 1a0b a93f 43c2 789b bb3c ba3f
000004e0: 8af1 020c aea6 c03f 6140 0dbd 39e7 a63f
000004f0: 2d19 82ff d7a9 96bf c25f 967e 0cd3 b4bf
00000500: 70ef 31b7 25d2 983f 2ad3 76f5 6f94 a83f
00000510: 5344 a54d 3fa6 b23f e7d6 2050 0d06 c43f
00000520: 0f0d 7f0b 70fc d13f 0f55 5c9a 3718 b73f
00000530: 799a 456b a3d8 b1bf 40e5 d09e 228c b7bf
00000540: e2de 0cb9 8a99 8e3f 3ad4 4a11 3ade c33f
00000550: 64f6 c3e9 25b6 9f3f 9634 2be1 d56c c43f
00000560: 04c5 2a0b 8034 99bf e3ac 4fcc b2ca a6bf
00000570: dff3 e2f1 a6ba 803f 3427 698c f76d a23f
00000580: 7e80 a86b fa2c 4dbf 3e8f f6c1 f865 a7bf
00000590: c3b0 27ed 6986 b53f 32db ad20 7b98 cf3f
000005a0: 0db1 9c78 4e32 b03f 697a 1861 cf0d 703f
000005b0: f727 e846 6f77 a6bf ef2c f69c b5d8 ba3f
000005c0: 7df0 e9fb 3046 b6bf c865 967d 0e85 a9bf
000005d0: c7fa 4afe 1bd9 a23f 1904 506c 7042 9c3f
000005e0: da8c 705a 58be 86bf 4d86 99e5 f329 b73f
000005f0: b6d3 e718 9d2e b3bf 657f 9013 ca25 80bf
00000600: 0c17 0e57 8af0 9b3f 16b1 3be3 e4c3 88bf
00000610: 00d8 e708 b99c a0bf e04f 888e 5738 a0bf
00000620: 1e5c 804c 6f82 963f 06ae b3f1 1728 a53f
00000630: d746 2580 86b6 61bf bf2a 2dda 5ec4 9d3f
00000640: c2e0 4c8f 0322 a73f 8eb8 e59e 4f98 8b3f
00000650: 1e6e 9d2f 44b4 c2bf 8191 6bec 963a bdbf
00000660: c2f2 abf0 d245 abbf 0e9c 2189 f1e7 c3bf
00000670: b995 d080 c631 bebf 7dba 89d7 429b 893f
00000680: 6af8 3034 f193 adbf b867 292e 5100 b1bf
00000690: ed43 96a5 7988 b2bf 51ff 6b1f bc64 a7bf
000006a0: c3e3 30b5 912d b4bf ecfc b010 c3b6 b33f
000006b0: c50e fe8e f918 983f cc89 e786 5b9a 863f
000006c0: f8e3 b73f b8d7 873f baab e57b 8673 913f
000006d0: 05bd b04d 21c6 c3bf b55c 80fc 929c c3bf
000006e0: d7f3 4caa fa96 b4bf 47df 18c8 9c53 b33f
000006f0: 594a 3ddf 1a09 af3f 2915 6308 7fde 933f
00000700: f91b 7f3e 0f38 b2bf 5a0b c940 4e10 75bf
00000710: 3009 3068 35e4 63bf 0d98 e74c 3be3 bbbf
00000720: c947 496d f041 bfbf 7492 5990 a31f a43f
00000730: 7538 a981 9e06 ab3f 3a6a faae 2fa9 5b3f
00000740: 9cc7 6da5 5084 bcbf 77e3 c66b fade c0bf
00000750: 3844 5d4e afa3 bfbf 1527 e247 c9cb babf
00000760: ff5f 2626 7a01 b8bf a54f e97c b134 bfbf
00000770: b7b2 19b0 e8a5 b6bf 902a e478 5609 b4bf
00000780: a585 18cf 9dd9 73bf 917c 40d2 81e1 b8bf
00000790: 46db d57d f24a a2bf 7df0 40ad a669 b63f
000007a0: a1eb e1d9 c8c5 9b3f 4e8d d1c6 4259 7d3f
000007b0: 9b89 98a4 4334 c0bf b8da 5cd5 3fdd abbf
000007c0: 1612 0969 106b a8bf 3599 c083 fbfe b9bf
000007d0: 6581 14d0 bcff aabf 88b3 312a 5eed aebf
000007e0: 8aac 65b2 b605 b8bf d207 199e 6858 ad3f
000007f0: 2ce3 51e5 2bc0 b13f 0f91 dc3e 55d2 883f

bias f8 [16]
-0.01532242869572469 0.03463510191799056 0.007024255752835778 0.03832674284029542 0.0327218107824514 -0.034234758515955886 -0.023129072961763707 0.00890162179458105
0.0188389747476046 -0.03398639657946491 0.03768349136481605 -0.012187227463313978 0.005603552783617412 -0.02445129049030847 -0.01223815400972977 0.011067649144247899
00000000: 5bbe 2591 5d61 8fbf 2e13 102c b1bb a13f
00000010: 4672 cb4b 77c5 7c3f e95e 1f16 909f a33f
00000020: 0062 5ac6 e9c0 a03f 3bcb 6ce0 3787 a1bf
00000030: 038e d4cf 25af 97bf 27a6 e973 033b 823f
00000040: 917a b931 864a 933f 02a8 a23b aa66 a1bf
00000050: 9c9f 0526 404b a33f 271e 12fb 9df5 88bf
00000060: 481a 273f c0f3 763f 3fe4 0054 c209 99bf
00000070: deb0 e139 5110 89bf 1df7 f1b8 a2aa 863f

weight f8 [16]
0.8713878168859149 0.9729837770607541 0.8771693097234576 0.9590996242059516 0.851197641755594 0.9837477426141256 0.9407407521192572 0.8817935681660459
0.9634981972926928 0.9903030142375577 1.059882814383121 0.8448413671119707 0.9547600423570122 0.9115715439620276 0.9219713255464413 0.8882002976244215
00000000: 090d f5b3 68e2 eb3f bc76 c0df ae22 ef3f
00000010: 0e26 4a5f c511 ec3f 2541 f2b1 f1b0 ee3f
00000020: 24b9 38d6 023d eb3f ed53 c18b dc7a ef3f
00000030: 9ebb 8b59 8c1a ee3f 0115 2325 a737 ec3f
00000040: f810 e42b fad4 ee3f 20fa 68f2 8fb0 ef3f
00000050: 18e3 95ae 47f5 f03f 17b9 41c3 f008 eb3f
00000060: 1e6e aeee 648d ee3f 0eff 2816 982b ed3f
00000070: a74b 6202 ca80 ed3f f904 d307 236c ec3f

bias f8 [16]
-0.055912809551247104 0.25270741421402676 -0.36978415778182117 -0.8690805563163919 -0.29081676247869603 -0.28746957840458964 0.44763616550208035 0.20340506388399987
-1.1873044916510394 0.21929256137625133 -0.7347084270409435 -0.7046981801040998 -0.2528775612714921 -0.33995991680776144 0.5266345533993863 0.013825425771398094
00000000: 3f71 e690 9aa0 acbf d261 e0b7 5b2c d03f
00000010: ea1d 102c 8baa d7bf 0cfd de06 82cf ebbf
00000020: d65f fee8 bd9c d2bf 7eed 75cd e665 d2bf
00000030: 5ba6 d528 12a6 dc3f 2e7d 9c58 2d09 ca3f
00000040: d98f a0fe 32ff f2bf 39fc ae55 c711 cc3f
00000050: 0991 473f bb82 e7bf 6521 a332 e38c e6bf
00000060: 2e69 e35d 252f d0bf 4df9 283d e7c1 d5bf
00000070: df67 f9b4 30da e03f 74d9 543c 8150 8c3f

running_mean f8 [16]
-2.4206454989283483 -5.186268813787605 5.840283845257175 6.5457616002407955 2.84959536098014 6.012960335597757 -6.471451437603257 -6.237520256611223
5.218790443384445 -3.7250633893546414 6.348662498185727 1.7360251514863256 4.1603559483780534 4.765183251719759 -7.248531822755289 -0.6473136000839184
00000000: d9da 2863 7b5d 03c0 0fee 7d40 bdbe 14c0
00000010: 5ff2 4a5e 735c 1740 91c9 0121 dc2e 1a40
00000020: b2f1 11a7 f8cb 0640 7426 6679 450d 1840
00000030: f8a1 682a c4e2 19c0 8421 9982 38f3 18c0
00000040: db0d 1c9a 0ae0 1440 d870 c608 eecc 0dc0
00000050: 8b32 2cc8 0765 1940 e9ac 2a4f c2c6 fb3f
00000060: df02 8859 34a4 1040 4d55 c632 8c0f 1340
00000070: 37ff 4a20 7ffe 1cc0 fab9 d302 cbb6 e4bf

running_var f8 [16]
30.61457153822776 51.590388615259656 36.65700270205914 43.85348534224126 27.937971794203566 28.04248843883068 65.79058760535897 51.81769567029942
44.88552034345385 16.171702982611734 69.27654816692316 12.512747794235114 38.003381389399856 46.483081433321004 75.97544356082174 7.40245666965301
00000000: 9bbd 718f 549d 3e40 483c a9da 91cb 4940
00000010: 235d 1faa 1854 4240 5245 f801 3fed 4540
00000020: bdac 64eb 1ef0 3b40 623c b785 e00a 3c40
00000030: f168 c1fc 9872 5040 2702 7140 aae8 4940
00000040: da89 09bb 5871 4640 6cf1 06ba f42b 3040
00000050: 0a2d 15f7 b251 5140 02ac fee0 8606 2940
00000060: 9771 26cd 6e00 4340 92b5 c69c d53d 4740
00000070: af34 d4aa 6dfe 5240 f5dd e899 1d9c 1d40

weight f8 [32, 16, 4, 4]
-0.003514976698422696 0.033862786381955556 -0.026359454507373554 -0.06883701848553518 -0.0077554967399893395 0.01791797455237939 -0.06563050540988036 -0.09923643060915306
-0.127666540489982 0.04849204045538215 0.07974784519283079 -0.04325144662854316 -0.11845376150777771 0.006243920103244166 -0.014070487532401416 -0.12233686505299805
0.025040829830971643 0.10212911855380019 0.028699107329279716 0.053124578984983954 0.06647250738998067 0.00884147733664381 0.09261972641037648 0.10547065946707304
0.1031886897741785 0.04631484735419244 0.12068109232483278 0.10948075381370427 0.06397320177430973 0.015652357949845992 0.062108603975275165 0.05038913123824482
0.017999490963490655 0.03892011042811778 -0.0728158652758918 -0.06556964542708828 0.039423843992512565 -0.033094881095491836 -0.06272420029080222 -0.04542470449415233
-0.06994163452491736 -0.08763996453272738 -0.06519043698010062 -0.10626583100723437 0.16421102601125073 -0.02981501187949821 -0.0007262119818170668 0.01678932420240364
0.05650303595745433 -0.02964740015054782 0.02167226539448359 -0.01890255632203775 0.10851373434795948 0.09079276373357492 0.02707376794008028 0.011704650558314315
0.16405438606375128 0.022008046451095817 0.08355618803819133 -0.03838699371850313 0.15432861285404773 0.15324466110323065 0.13727764176760865 0.09683275442065617
-0.010134099908535445 -0.0076335897930047995 -0.040810575862493786 0.043342281235149736 0.0667006073595402 0.06081130936124154 -0.07140980906441009 -0.0385962535282476
-0.01190897344006574 0.1435475784824357 0.013109722375441921 -0.014301777216014019 0.08209437106227546 -0.07793015610307641 -0.07612009944479646 0.08037322695263695
0.057728816371434656 0.079080371464398 0.101150617657327 0.004859069966862205 0.0633969812573826 0.10582250527084033 0.1055601915277597 0.031703876916230826
-0.01977295355353499 0.007223506199930681 0.09684897435415674 0.08206668126495842 0.06907944371306904 -0.0728711769744945 0.10827799213206572 0.09322014453139237
-0.09902031723851928 0.0024964315089546145 0.04426242239733158 -0.03929223490270927 0.12076322497401469 0.11317326550402379 0.1729354256627213 -0.11075525320331837
-0.04644965060766259 -0.05936734173974505 0.107743899839117 0.07619251601892638 0.008898023932309469 -0.09739709357277006 0.06434012117286536 0.06623011481700915
0.05422042077326975 0.011478923204725672 0.16061263118126973 -0.09380765670911394 0.08044560835834444 0.1720033268243092 0.07610909154714923 -0.07383611359690288
0.11343796205810497 0.048043310188920496 0.03163456177393364 -0.0031843827434532204 0.1167596747375841 -0.03749613234016447 -0.02861201067606058 -0.0133456631544509
0.13031788697550672 0.004326667617796522 0.08096950546660293 0.0008340219589695397 0.10037333120955387 0.014613428421205044 0.05276792903085673 -0.03490334878607995
0.12560658858298884 0.004137834676806738 0.09945241092462644 -0.025601273985826487 0.080200020519982 0.008429660892959042 0.08729066131766697 0.02094557504733976
-0.08323598395535499 -0.06178568928633805 -0.005471635672315258 -0.08503199132753056 -0.039712779814468226 -0.008191331006450274 -0.04661485552024613 0.01304145543969349
-0.03786282969998997 0.012931846936516186 0.19343537339160857 -0.08616556501030918 -0.08341944334951983 -0.07157860697825659 0.1489996742903542 0.03125304205956103
0.1339160910119394 0.10056135857036803 0.08587792421628865 0.0606556313629139 0.18591371148829877 0.12432775907622888 0.1038071009557853 0.13351720009275816
0.1308163368196414 0.04192834281839593 0.10129660588184783 0.02471436980856356 0.1951898420357247 0.05566897035696476 0.07845905702893283 0.13450658735859305
0.08644333694256053 0.03695930193009667 0.028145450358977538 0.022338665721400024 0.03175773758318716 0.04366189403031378 0.04930137761692751 0.05061671074945872
0.06298152424039147 -0.005521443334602432 0.01733459743315184 -0.03910048738220857 0.06467278874752581 0.04174498303889027 0.001155065482031648 -0.021088763942611242
0.13874263545387236 0.11245440553855007 -0.0423444497395869 0.07234444514284886 0.17252820299220809 0.05504941273184065 -0.027429294691000385 -0.06976003007785729
0.12151985759622512 -0.04323718994230953 -0.058631738021904245 -0.06232739670238392 0.06906292693308029 0.03125906364210387 0.0029455197556126312 0.07568870005705482
0.1299295775041974 0.039793481933610854 0.028388683645905504 0.13024580576409653 0.06379979474269447 0.07764764332781766 0.053345870003559566 0.042526689730400385
0.13348992219690084 0.056605228800532884 0.035579222219025104 0.11463683431065272 0.09297749619126992 0.04567592415912557 0.07184798404191843 -0.003207576247032356
0.030581320671076766 0.05008609058787213 0.12400437090712241 -0.03390964793175592 0.1755239355504294 0.1291217864295046 0.050534302110197896 0.05166714246206695
-0.008597410001179539 0.03326063864881273 -0.044212944227798916 0.13319369550758592 0.020759593795687245 0.012304783798018549 0.06907038318512046 0.026047424084991194
-0.0032863302665474313 0.009972747698651403 -0.0020131251441471037 -0.05997507568293202 0.09786691795771592 0.01488296014557211 -0.07160797000064745 0.010857017569369187
0.06136580019350037 0.07058918217629466 -0.0603489099341971 0.10682723098364624 -0.09076013958215322 -0.026472683432447682 -0.023230748077614778 -0.08049942870530533
00000000: dce0 e8be 70cb 6cbf b8b5 1f90 7656 a13f
00000010: 45c2 320c f9fd 9abf 0347 2687 4d9f b1bf
00000020: 16c1 cc4d 3ac4 7fbf 7624 daea 1659 923f
00000030: a8fa 5a2a 29cd b0bf fdbf 0908 8f67 b9bf
00000040: da55 1990 6057 c0bf c28d bedf f2d3 a83f
00000050: 0c99 07d3 5a6a b43f bc6e 8cb9 0d25 a6bf
00000060: 559b c357 fc52 bebf 93bd 468a 3993 793f
00000070: 1dd2 52de fcd0 8cbf 4b6f 7f02 7851 bfbf
00000080: f940 c1a4 4da4 993f bc6a 2848 2225 ba3f
00000090: 8056 9d7d 4c63 9d3f 8763 b512 2533 ab3f
000000a0: b8b5 529d 5704 b13f e0dc 1200 7b1b 823f
000000b0: 0da4 e527 edb5 b73f ea3f 1909 2000 bb3f
000000c0: 00ae e5ef 926a ba3f cf35 6965 94b6 a73f
000000d0: d5dc c7c0 f4e4 be3f 79d9 2b41 ee06 bc3f
000000e0: eee9 7039 8c60 b03f 02df fff5 2b07 903f
000000f0: de7f bfed b2cc af3f 4df6 7bad 9acc a93f
00000100: c8a0 2164 756e 923f 3915 e432 56ed a33f
00000110: e969 fd7f 0fa4 b2bf a53b b81a 2cc9 b0bf
00000120: 05ca 42b1 5c2f a43f fdb6 f0ef cff1 a0bf
00000130: 14b0 ea74 b10e b0bf eb37 7728 e841 a7bf
00000140: 54ce e9e8 b1e7 b1bf 289c 7d9d 926f b6bf
00000150: 4f6b d70a 52b0 b0bf cdbb dbcc 3c34 bbbf
00000160: dd32 2eed dd04 c53f c326 cf93 d387 9ebf
00000170: a77a 1e5b e8cb 47bf df2c 7c79 3831 913f
00000180: a2bb 1f47 f7ed ac3f ca6b 3b58 e35b 9ebf
00000190: b3ed 651c 4131 963f c215 db14 315b 93bf
000001a0: 35fa 305c 8ec7 bb3f 18fc f2ce 313e b73f
000001b0: 354f 87cf 39b9 9b3f 1c5f df9a 9bf8 873f
000001c0: ae5f 74ef bbff c43f ec74 06ff 4689 963f
000001d0: 19a1 0037 f063 b53f 89b7 39c5 75a7 a3bf
000001e0: 77c8 853c 0ac1 c33f 1ccc dc63 859d c33f
000001f0: b693 ee52 5092 c13f de16 6b09 08ca b83f
00000200: ced3 73dd 2fc1 84bf a34b 3128 6644 7fbf
00000210: cc17 52b1 1fe5 a4bf f3c4 e0a0 f530 a63f
00000220: 3089 3b7f 4a13 b13f ebef ddf1 a822 af3f
00000230: 3995 8bca e947 b2bf 23cc 4d5d e3c2 a3bf
00000240: 9ad2 a15b bb63 88bf 5443 805d c45f c23f
00000250: 72b5 e526 45d9 8a3f 4bf4 560b 404a 8dbf
00000260: f0ed e5fe 2204 b53f 38bb d50f 3bf3 b3bf
00000270: e704 af59 9b7c b3bf c14d 3cfd 5693 b43f
00000280: 9d46 b4a4 a18e ad3f 74f3 3179 9c3e b43f
00000290: 96f4 cec2 01e5 b93f cbdf 8ba9 1ae7 733f
000002a0: aa63 2ad9 c83a b03f 0ead 5107 2f17 bb3f
000002b0: 8c08 5f22 fe05 bb3f 27f3 0595 7d3b a03f
000002c0: 9458 6e73 5c3f 94bf 482c 422e 6596 7d3f
000002d0: 3093 8029 18cb b83f 00cf 1f70 5202 b53f
000002e0: 2ed1 92bf 30af b13f ee2d ed79 afa7 b2bf
000002f0: cb71 1543 1bb8 bb3f a739 1780 46dd b73f
00000300: fcd1 2d40 6559 b9bf ef57 0176 6573 643f
00000310: 40cc 4671 90a9 a63f 6fab c99f 1c1e a4bf
00000320: 7fa8 d2b5 56ea be3f fc0d 1f52 ecf8 bc3f
00000330: ee46 c57e bf22 c63f d952 5ece 745a bcbf
00000340: df83 8aa4 3fc8 a7bf 9600 726e 6565 aebf
00000350: b60a 27ae 1a95 bb3f 9651 804c 5a81 b33f
00000360: 576d 4e8e 2039 823f 09d9 9e13 04ef b8bf
00000370: 1015 421c 9878 b03f b93d 26f1 74f4 b03f
00000380: 253c fe6b c7c2 ab3f 8a8c 0ffe 4282 873f
00000390: 8ac0 1f67 f48e c43f 0f17 ae51 c703 b8bf
000003a0: 8e83 0159 1598 b43f e4bd c17b 3404 c63f
000003b0: 048f 1fab e27b b33f 9795 296d ece6 b2bf
000003c0: 6019 2a31 450a bd3f 7022 1bfc 2199 a83f
000003d0: 8f13 7cc0 6732 a03f ece9 b677 2216 6abf
000003e0: 4151 7d48 f6e3 bd3f f046 416c b132 a3bf
000003f0: c584 8188 774c 9dbf 9e9a 5596 f854 8bbf
00000400: 5462 52ab 41ae c03f 68a0 b4fe d6b8 713f
00000410: 65cd f3e1 6aba b43f 3e90 da84 4854 4b3f
00000420: 2384 ef0e 11b2 b93f 3a4c 3629 a5ed 8d3f
00000430: e52b eee2 6504 ab3f 843b 1d0b dade a1bf
00000440: de22 106f e013 c03f 8b6b cf89 d5f2 703f
00000450: d1fb 6d94 b675 b93f 892e 056a 3837 9abf
00000460: 1198 4511 fd87 b43f fe22 d0ee 9143 813f
00000470: 1208 9b47 ae58 b63f 0705 4cbf c172 953f
00000480: 154a f014 f44e b5bf a9f7 b0b5 5fa2 afbf
00000490: 1ca2 4a04 6d69 76bf 5e91 dd15 a8c4 b5bf
000004a0: b5a1 12c5 3b55 a4bf ec6e 44d6 9dc6 80bf
000004b0: bf37 efff e6dd a7bf 4486 d884 7ab5 8a3f
000004c0: 6c48 97be c162 a3bf 4b8d 5a1d 037c 8a3f
000004d0: 09a2 4d85 7dc2 c83f 4bb9 c24b f20e b6bf
000004e0: fb65 0905 fa5a b5bf f999 10c0 f952 b2bf
000004f0: 648a 18dc 6b12 c33f 30b8 1713 6600 a03f
00000500: def7 a697 2924 c13f 4512 4da2 63be b93f
00000510: 5413 f57b 18fc b53f a73c 0b42 410e af3f
00000520: 4230 5c3f 05cc c73f 93a5 37ab f1d3 bf3f
00000530: 629a b227 1a93 ba3f 8d0a ed73 1717 c13f
00000540: f220 36f8 96be c03f ca68 5cba a177 a53f
00000550: 9e55 7509 93ee b93f dfaf 4648 b94e 993f
00000560: 1e05 0712 fbfb c83f b699 2bae a480 ac3f
00000570: e6a6 038c e415 b43f e69e e608 8337 c13f
00000580: 9d1a 2089 2621 b63f 2140 2562 54ec a23f
00000590: 82c0 4a33 29d2 9c3f ceb8 d67a f2df 963f
000005a0: 7625 a1d8 8c42 a03f 671b e20d da5a a63f
000005b0: db5f 06b9 073e a93f cf9b 99fa 6eea a93f
000005c0: ce5d dda2 8e1f b03f d206 c828 a79d 76bf
000005d0: 0c44 4224 29c0 913f e9e4 20a5 fa04 a4bf
000005e0: 019b 9c58 658e b03f bd24 d931 995f a53f
000005f0: 0289 151e b2ec 523f 164c c9fd 4a98 95bf
00000600: e1e8 ea94 51c2 c13f 0c46 14da cfc9 bc3f
00000610: 88e7 98f5 2bae a5bf b790 ef61 2a85 b23f
00000620: 8d9d be76 6715 c63f 46cc b1c6 6f2f ac3f
00000630: 37cc 99ce 6c16 9cbf 8b9b c017 cbdb b1bf
00000640: b3bb 30e6 ec1b bf3f 92db 8b59 2f23 a6bf
00000650: 9099 9faa fa04 aebf aa8e f664 60e9 afbf
00000660: 832a 8ba4 1bae b13f 33c4 1720 3001 a03f
00000670: f67a a4e0 3321 683f 55fb 6bab 5560 b33f
00000680: abf1 144b 88a1 c03f 0d66 ffae cf5f a43f
00000690: bbb5 574f ec11 9d3f d956 1902 e5ab c03f
000006a0: 8f50 e9ef 2e55 b03f cd56 b448 b7e0 b33f
000006b0: 397b 155e 2650 ab3f 7ccb 32eb 0ec6 a53f
000006c0: f933 17a1 3216 c13f b236 f64c 5cfb ac3f
000006d0: b116 b297 7037 a23f 4efe 47ee d658 bd3f
000006e0: cfcc 6789 5fcd b73f 1ebf f4b0 d562 a73f
000006f0: 935a be25 a164 b23f bfe2 9262 c646 6abf
00000700: be61 9ab0 b550 9f3f 3b6a 1e52 e2a4 a93f
00000710: d46d 9b1d c0be bf3f 1583 c5f9 9a5c a1bf
00000720: e659 6d7d 9177 c63f 8d39 f50c 1087 c03f
00000730: 6a6a c7cd a1df a93f e200 4e9e 1d74 aa3f
00000740: c66f 48d6 849b 81bf 3740 7bd6 8907 a13f
00000750: 775a 093b 14a3 a6bf fa85 1eb3 7d0c c13f
00000760: fc0e b9c1 0042 953f 6d87 f91f 4033 893f
00000770: defb e6bc 98ae b13f e83d 5c0a 2dac 9a3f
00000780: cafe 9820 efeb 6abf 3759 bc89 976c 843f
00000790: 250e 0555 d47d 60bf 3e42 4499 0db5 aebf
000007a0: c51b fd6b ce0d b93f 4044 be18 f57a 8e3f
000007b0: 9825 4961 e654 b2bf 00eb 233b 343c 863f
000007c0: 9210 d991 566b af3f cb08 e6f4 2112 b23f
000007d0: 3683 0865 0de6 aebf b2a1 6587 0759 bb3f
000007e0: 7726 4977 0e3c b7bf 1fa3 51b6 a71b 9bbf
000007f0: f216 051d cdc9 97bf eece a24d 9c9b b4bf

bias f8 [32]
-0.03319620640038791 0.057182999476630816 -0.026413640942820785 0.049530338714345125 -0.04910522894817795 -0.022125342928208353 -0.05342899602969458 -0.05626131217264372
0.04561315315250619 0.03411758000612814 0.007151221046336364 -0.04993834556115539 -0.0012714060715979653 -0.016514930560474712 -0.03853438098773157 0.03397949924332577
-0.010393136402855212 0.050695273055002855 0.029003714353819876 -0.03955113748923074 -0.02793358026619227 -0.04501555098520973 0.0459741012362893 0.009592781896571404
-0.011274597089592215 -0.05397449763105924 -0.004026385264981609 -0.016718010034700043 -0.03056305304109866 0.05054583305458217 0.0367033621078784 -0.024788391381963027
00000000: a28e aed9 17ff a0bf 3a54 4711 1747 ad3f
00000010: 7120 1270 2d0c 9bbf 6536 e061 0a5c a93f
00000020: a33f ca10 5224 a9bf e562 28a1 06a8 96bf
00000030: 0718 369d 0b5b abbf ad83 9f5f 48ce acbf
00000040: 886a 1d72 9b5a a73f b9a1 b004 dc77 a13f
00000050: 7fe4 5348 994a 7d3f cfc5 00d2 8491 a9bf
00000060: bb34 d6df a9d4 54bf e29e 9c3a 4ae9 90bf
00000070: 9452 3a44 c7ba a3bf c015 f8cb c265 a13f
00000080: bc02 a027 ff48 85bf 8d82 aa17 bbf4 a93f
00000090: e0df 7252 26b3 9d3f 5a5a 12f4 0b40 a4bf
000000a0: d65e d0d6 9e9a 9cbf 83f6 953e 470c a7bf
000000b0: beb3 8bda ea89 a73f b5fe 2f64 61a5 833f
000000c0: fdf7 33ce 2217 87bf 846f 499c 8ba2 abbf
000000d0: 3b0d 8c90 f87d 70bf d5b6 69a9 861e 91bf
000000e0: 2817 1cc5 eb4b 9fbf 7246 d6b7 24e1 a93f
000000f0: b12b d077 c8ca a23f ad52 39c9 2062 99bf

weight f8 [32]
0.7700463088758993 0.8349736895714671 1.1334250725138664 1.3374153827867732 0.9351937552448402 0.8620544109968349 0.99338824739354 0.993731494622042
0.79072995167166 1.0873064966948003 0.5369045664717432 0.6050367078446581 1.0071695171200004 0.940307601216652 0.7254276268972614 1.0591478072463232
0.7500774188357004 0.899390143541512 0.7781761405504918 0.8505547146417854 0.7769419734473935 0.8191974802291734 0.8985836244799565 1.0275977415282498
0.7201390174991187 1.1055028357171164 0.8640691085928237 0.9001398673827552 0.9321087794797761 0.8445477713516916 1.1663425458425796 0.8738945359544884
00000000: 4ce1 2028 38a4 e83f 675b 37be 1ab8 ea3f
00000010: a29d 2e54 8222 f23f c1c8 23ac 0d66 f53f
00000020: 8a66 4674 1bed ed3f 8c53 d321 f395 eb3f
00000030: 0227 5926 d6c9 ef3f 1505 cdfd a5cc ef3f
00000040: d5b7 4ce6 a84d e93f 1e85 407f 9b65 f13f
00000050: d936 427c 522e e13f 6450 22f1 755c e33f
00000060: acef 98c8 5d1d f03f befb 6cf7 ff16 ee3f
00000070: a36f a4ff b336 e73f 930c 9cf8 44f2 f03f
00000080: f8c1 eb5b a200 e83f 9560 9bd6 cdc7 ec3f
00000090: bb23 46a6 d1e6 e83f e70a 5b85 be37 eb3f
000000a0: 8614 db69 b5dc e83f d598 51a2 dd36 ea3f
000000b0: 149a fb71 32c1 ec3f adea 5454 0a71 f03f
000000c0: e46e 17fb 600b e73f f8a4 d0bd 23b0 f13f
000000d0: 4b7b 5c42 74a6 eb3f c082 871f f2cd ec3f
000000e0: 7fc3 85ca d5d3 ed3f baaf 3b0c 8906 eb3f
000000f0: 753c 25cd 56a9 f23f e57b 82ac f1f6 eb3f

bias f8 [32]
-1.070616516111002 -1.154418146387049 0.24735866084870728 0.7221204867550592 -0.011689319244652174 0.021510990293860038 -1.1253560951194952 0.14023639947782768
-0.14048889352616611 0.34070191421813945 -0.6508761911654932 -0.35880408321479146 0.22759650750994734 0.009286040408636516 -0.7882258034877816 0.21601989742701844
-0.2986470751933505 -0.011797163388632872 -0.8321990300288181 -0.8305330521733713 -0.41803195645036617 -0.2725203460902842 0.051874805510190095 0.324282852282885
-0.5663612129873654 0.04294947842872137 -0.8211192621423838 -0.8716121529649551 -0.09225075373623509 -0.3861732338135567 -0.08163226280585363 -0.9575229782873993
00000000: 3f11 b4c8 3e21 f1bf d542 8a29 7f78 f2bf
00000010: 7820 5dd7 72a9 cf3f 7c4e 4c6c 9c1b e73f
00000020: 263f f2de 91f0 87bf 9b4d 441f fa06 963f
00000030: ab47 8e64 7501 f2bf e6a7 bb2e 44f3 c13f
00000040: b8b3 9241 8afb c1bf ae18 d066 0fce d53f
00000050: 76a0 594e fad3 e4bf ed0a c566 a5f6 d6bf
00000060: 8932 38e2 e121 cd3f 6459 ea3e 8f04 833f
00000070: aefc fa51 2539 e9bf 28fe 5d3d 8aa6 cb3f
00000080: 7718 409f 081d d3bf ee99 8477 1c29 88bf
00000090: 0393 37dc 5fa1 eabf 379d 2a0d ba93 eabf
000000a0: 32c8 681b 09c1 dabf aaf3 7c2d f970 d1bf
000000b0: 2225 4ea2 558f aa3f 8a59 4ddd 0cc1 d43f
000000c0: b21d f08c a11f e2bf 5796 765a 79fd a53f
000000d0: d18c 20e7 9b46 eabf effa 782b 3fe4 ebbf
000000e0: 3c17 54d2 be9d b7bf 6677 74f0 0fb7 d8bf
000000f0: cdb3 0c1b dae5 b4bf 7636 9d3a 07a4 eebf

running_mean f8 [32]
2.5811073446756203 4.554418555048984 -0.28402324670411344 -3.8618438141140006 -0.25233949728790506 2.576913489394361 4.627092122433885 -1.5237185355284324
1.1267182398375555 -0.9901080076227456 3.7059799512981457 2.7107732114186027 -1.0267646418928074 -1.3101418309114994 4.244290448072983 2.447020539725741
3.4476805462906084 1.655350893855785 2.216729405407779 2.972234991880582 2.629329226910543 -1.7012872307359244 -2.825173241115541 -2.0992268533359146
2.8244029690138994 -2.361201908773037 4.154807360311406 3.9409136266215916 1.0684373932564377 2.293747086188848 -3.219592439605043 4.846345833305871
00000000: 0bc7 869b 1ba6 0440 81ec 687f b937 1240
00000010: 4f77 f9d6 6f2d d2bf 4a09 9f5e 0ee5 0ec0
00000020: eecc 1590 5426 d0bf 688f ccd1 849d 0440
00000030: 26bb f56f 2482 1240 4675 e6af 2661 f8bf
00000040: 348b 7eb4 0907 f23f cbea 07fd f6ae efbf
00000050: 5da8 13d1 d8a5 0d40 8b53 8fdd a9af 0540
00000060: 70e6 d9c2 a06d f0bf e82e ce47 57f6 f4bf
00000070: 6acb 7446 27fa 1040 3f19 3681 7f93 0340
00000080: 16fd ca89 d994 0b40 4b3d 0838 517c fa3f
00000090: a776 62a0 dcbb 0140 3d3b b123 23c7 0740
000000a0: 62fb ffc2 dd08 0540 accf 91f5 7838 fbbf
000000b0: 2b01 a16d f499 06c0 b2b3 cf72 37cb 00c0
000000c0: b81e 7595 6098 0640 b976 8bd3 bde3 02c0
000000d0: cdde 16d2 859e 1040 9b9a 35b9 fd86 0f40
000000e0: 1dc2 ddce 5118 f13f a8cf 8312 9859 0240
000000f0: 8d6b 54ae b9c1 09c0 4b9e 6c7b a862 1340

running_var f8 [32]
9.52876675592996 7.247421256814676 15.8203311253911 34.8939370764723 3.3132323616725934 1.6402281661932512 8.799698725507614 11.423166025879707
10.144762000738204 14.99796048231624 6.178082778580358 7.603160181855996 6.501101795060661 14.377073148495354 4.836516492737712 15.17888479178782
5.058372933958244 7.846443985727067 5.7341951162771325 7.781948868536844 16.306111463275407 6.73439970529558 2.6391188392403078 12.285528067936287
8.65970396528572 5.074392000873867 13.569529649340891 7.78494918850479 3.719830856567743 13.249284635018364 4.7241545094377795 11.99778204964845
00000000: c5dc 2784 ba0e 2340 c16a 79ff 5bfd 1c40
00000010: 2ce4 f670 02a4 2f40 b010 b687 6c72 4140
00000020: 0876 ebf7 7f81 0a40 f672 bce3 5f3e fa3f
00000030: 8a6a 811c 7299 2140 ffdc a337 a9d8 2640
00000040: 8cbf b53e 1e4a 2440 4d7f 24ad f4fe 2d40
00000050: 0def f754 5bb6 1840 9e48 9dd2 a269 1e40
00000060: 7e02 37d4 2001 1a40 7ff9 51bb 0fc1 2c40
00000070: 0c7e 8bc7 9758 1340 fef5 94c9 965b 2e40
00000080: f649 491d c63b 1440 e45f 5236 c262 1f40
00000090: 3d2c 35d8 d0ef 1640 300a 4634 b720 1f40
000000a0: d6b2 2352 5d4e 3040 08bf f179 06f0 1a40
000000b0: 595b 8656 ea1c 0540 bac0 23bc 3092 2840
000000c0: 2be3 d7b7 c451 2140 5b59 ab6a 2d4c 1440
000000d0: ff0a e463 9923 2b40 6899 56b8 c923 1f40
000000e0: 88e1 1cae 36c2 0d40 2d99 553c a27f 2a40
000000f0: 0e25 7dc2 88e5 1240 488d ef49 ddfe 2740
