Model/ColorNet.pt (torch, 348895 bytes, 60 tensors)

weight f8 [2, 1, 8, 8]
0	0x3fcb8afb5ac89a5c	0.21517888958733777
1	0x3fac3afdfc20c43e	0.0551375742219382
2	0x3fb79e220a88ee9c	0.09225666768264279
3	0x3fb3b5c330d49c5c	0.07699222509528297
4	0x3fbe2e5ab30904b1	0.11789481039979212
5	0x3fc2c3ccc1345c33	0.14660033639731437
6	0x3fb070e35c93b04b	0.06422253618410527
7	0x3fc5dcac6e88584f	0.17079692265605437
8	0x3fa6696dc129cb44	0.043773107366084335
9	0x3fd05020f1786dba	0.2548906667813885
10	0x3fbafeff9683e53f	0.10545346665084752
11	0x3fd00ffe3a27f0bc	0.25097613982485334
12	0x3fc4267ddf7f4654	0.15742467320392228
13	0x3fcf0146746b1869	0.2422264164399082
14	0x3fa9592452b0f113	0.049508223623407364
15	0x3fc271007b21bd99	0.14407354366583716
16	0x3fc24eb647dc2366	0.14302710064682883
17	0x3fc49c28dd4dd180	0.1610156136117773
18	0x3fcb308e436c4e80	0.2124193028654311
19	0x3fa6f7aee8051034	0.04485842306397139
20	0x3fcaca0e685267d7	0.20929126828997255
21	0xbf9c5bc2612d0da1	-0.02769378393283051
22	0xbf8dfb8f465861c6	-0.014639968237177291
23	0x3faff3dc50ba6a92	0.0624073837800171
24	0x3fa412f37d45e99b	0.03920708564961047
25	0x3fc707fbd09895bb	0.1799311417136503
26	0x3fa2722f09a26698	0.03602740280730393
27	0x3fbcd9ce283951f2	0.1126984451487443
28	0x3fc88bbb93d9bfc2	0.19176430434481345
29	0x3f93afa613277a27	0.019224734229164177
30	0xbfb13ef5b87db65d	-0.06736694101501813
31	0xbf81d93b294054e9	-0.008715116688146245
32	0xbfb137d350aa4214	-0.06725807875978546
33	0x3f87587d36c80394	0.011399248346607917
34	0x3fce4335d4f9cb9e	0.23642609500128925
35	0x3fbada4799db5a40	0.1048931837679925
36	0x3fc3be0b723b18e9	0.15423720433881918
37	0x3fb928c59c95b88f	0.09827838013527156
38	0x3fb8ec405b68bb3e	0.09735491019885686
39	0xbfa0028a85656e6a	-0.03126938703891542
40	0x3f455a2c6a76f00a	0.0006516186594391915
41	0x3fc2b4713c63952c	0.14613166283303636
42	0x3fc520bbfc2cf6e3	0.16506147206558017
43	0x3fb856069f2bd11d	0.09506265054716719
44	0x3fb121ca55f85f92	0.06692185019380606
45	0xbf49a6e06c789a8c	-0.000782832700626583
46	0xbfb4d571dd7eb80f	-0.0813819089659946
47	0xbfc6c0198f15f151	-0.1777374218617163
48	0x3f9594759ea105b1	0.02107414036459482
49	0xbf9b1e580d507318	-0.02648294049514552
50	0x3fc33110651dde77	0.14993481576287923
51	0xbfa5510d60e40cfc	-0.041634004666798646
52	0x3fa381e9905ef005	0.03810052764262654
53	0x3f9b18d579e427c8	0.02646192127671279
54	0x3f7721337bad9554	0.00564689741699927
55	0xbfb47af98f1a0c8a	-0.08000144714064752
56	0xbfa1f0b893750366	-0.03503968048108312
57	0xbf988c0753bba27c	-0.023971666799214905
58	0x3fb0795a0ad321e4	0.06435168041492251
59	0x3fa8274bc74042b4	0.04717480475676919
60	0xbf8c1c147a6fa460	-0.01372543333669024
61	0x3fb33c9aadd05d44	0.075143496928253
62	0x3f8bc9a454ecf1fc	0.013568195192072523
63	0xbfca5d091f2630bf	-0.20596422215419882
64	0xbfbd59ee8e43e05f	-0.11465350125570371
65	0xbf9f39feb493a204	-0.030494670650030656
66	0x3fc43ac49e311ad9	0.1580434582158066
67	0xbfb2a5ca16a6a1bc	-0.072842245607382
68	0x3fb659ed593029fd	0.08730967929310647
69	0xbfbfd99570e2ae55	-0.12441381460183128
70	0xbfb94fbbf2802539	-0.09887289686607383
71	0xbfcf8419019161da	-0.2462188012748488
72	0xbfb6f38fa04359ea	-0.08965394652054895
73	0xbfb1cb22a513a4cd	-0.06950584917253196
74	0x3fbd9f2dcdba1ef1	0.11571012756951028
75	0x3fc0bbfece3ee64c	0.13073716230955978
76	0xbfd0835bc952ce7a	-0.2580174890565342
77	0xbfc772f2650d47d2	-0.18319539961026848
78	0xbfbc2be34ffdc6d3	-0.11004467680848089
79	0xbfc801d24c39d653	-0.18755558702439376
80	0x3fa20e927c138327	0.03526742710687918
81	0x3fb32fcf70f278b0	0.07494827754496458
82	0x3fc786ed60838ef0	0.18380515301316036
83	0x3fb70bf12baaa6ed	0.09002597156600319
84	0xbfc3bb13dd574612	-0.15414665515577092
85	0xbfc1b16c3edb3a72	-0.13822701520117026
86	0xbfc4d3591d5b16a5	-0.1626998322810113
87	0xbfd24a0cc7163ba5	-0.2857696479995247
88	0xbf8f7b6e6010d98f	-0.015372144991584928
89	0x3fa82c80f9755c6f	0.047214537097425395
90	0x3fd18f6db1c307ae	0.2743791805224828
91	0x3fdf2c246fbf7de6	0.4870692340172965
92	0xbf39d5b080922ab9	-0.0003942066110275522
93	0xbfcc0a6b9e577a70	-0.21906800490883738
94	0xbfc879b8c7a5f964	-0.1912146544309038
95	0xbfc16a42f90d003e	-0.13605534706766947
96	0x3fc17e241137dc00	0.13666201439602332
97	0x3fcbcc06db3d3287	0.2171639032843766
98	0x3fdbde30b26eaae8	0.43543641495732155
99	0x3fd9d6ae293648ce	0.4037280466519747
100	0x3fcbb7a3153d4dae	0.2165416578014691
101	0xbfb801d4c40a0158	-0.09377794061766076
102	0xbfad21da60e41108	-0.05689890320539531
103	0xbfc7dc9d3bdcda0b	-0.18642011092170238
104	0x3fc7f02f1210ba53	0.1870173299989398
105	0x3fcc0cd0e2514bf4	0.21914111185705532
106	0x3fd9a7832de00c3b	0.4008491466522092
107	0x3fdcb7982db686be	0.44870571579131624
108	0x3fd83cb88e4fb9b7	0.3787061109313998
109	0x3fd32ee88dc5806e	0.2997380623328415
110	0x3fd5216759675ade	0.3301638005336097
111	0x3fd0606243ddb5cd	0.2558828032259413
112	0xbfb4609d986a086c	-0.07959923716592393
113	0x3fc798b8856c9899	0.18434816851476368
114	0x3fd17937c7e16f19	0.27302355308141696
115	0x3fd22cc659b1ad0c	0.28398283728775264
116	0x3fd446330a7e965e	0.3167846300587821
117	0x3fcbf3d5d0958437	0.21837876019256594
118	0x3fb91c7e6a6e85bc	0.09809103105955946
119	0x3fd9a4afaded9730	0.40067665085949766
120	0xbfb6e27fba3e6402	-0.08939359948125516
121	0x3fa7b407d4b23b55	0.046295399392980364
122	0x3fc5761f22025bcf	0.16766728554350016
123	0x3fd411cd3df6c93b	0.3135865311734453
124	0x3fd75dcb9ea82da5	0.3650998162636035
125	0x3fd055f6af02cc7b	0.25524680224334134
126	0x3fd8a778052d8386	0.38522148614543317
127	0x3fd50d1f8f5db6e3	0.3289259815272613

bias f8 [2]
0	0xbfa0d8067e106435	-0.03289814270846884
1	0xbfb98306f6cb38b0	-0.09965556645622331

weight f8 [2]
0	0x3fe741d1c2773657	0.7267845914991068
1	0x3fbba7cd848ca344	0.10802921758717071

bias f8 [2]
0	0xbfcde6cd48caa773	-0.23360601476934625
1	0xbfeb765b5fecdc64	-0.8581978677310755

running_mean f8 [2]
0	0x3fef2846d9c64fbc	0.9736665967379774
1	0x3ff47df399e1b37e	1.2807498942376863

running_var f8 [2]
0	0x3fd70c7dfe5944aa	0.36013746107807754
1	0x3fe69db1a12e15a4	0.7067497394606801

weight f8 [4, 2, 8, 8]
0	0x3fcf0647d49af5be	0.24237916833037149
1	0x3fdf5b41813fa1c0	0.489944816798495
2	0x3fcd197b40a7cd56	0.22734013230329236
3	0x3fd6787f1205f66f	0.35110451469504417
4	0x3fd9bec02af29e7a	0.4022674960528786
5	0x3fdc38dcae09619c	0.44097058292165925
6	0x3fdd2c5f32f7bf2b	0.4558332441074408
7	0x3fe0e1ada77fc8e5	0.5275486251323654
8	0xbfb9af7702a18460	-0.100333631651226
9	0x3fb908106baa99ce	0.0977792990548558
10	0x3fcc2bb2fb2a807e	0.2200835920712087
11	0x3fd5ff8e1e08234d	0.34372284825126515
12	0x3fd7e2fbdc6aa7fd	0.3732289936548339
13	0x3fe017000d6844f9	0.5028076421605469
14	0x3fd4fb73de75e986	0.32784744953792033
15	0x3fd8f60ef664fa51	0.39001821577031587
16	0xbfd22834e9317e78	-0.28370402119433136
17	0xbfc54bc97d73948f	-0.16637533784447497
18	0xbfabb638796baa22	-0.054124607869955335
19	0x3fcdc6067214e47c	0.23260574884787732
20	0x3fd6b8ad837387a1	0.3550218375877368
21	0x3fded1234d55a84a	0.48151476432997653
22	0x3fd6cf2cc76e784c	0.35639495349631
23	0x3fda73f0bb65fbe0	0.41332643795607105
24	0xbfd2702a895bf834	-0.28809607900609824
25	0xbfd1172ed70091bc	-0.2670399760848132
26	0xbfd2c5d6c7755456	-0.2933251331172121
27	0xbfceb359b099004e	-0.23984833834583913
28	0xbfb48004e79c304b	-0.08007841734451053
29	0xbf8c36b791bb0606	-0.013776239523738642
30	0xbfbda7a543657414	-0.11583931823174992
31	0xbfa47015b2922e6e	-0.039917638824673016
32	0xbfd71d1e947423ef	-0.3611523103468803
33	0xbfd976590cf7691e	-0.3978483797669855
34	0xbfd1f9144c80ac3b	-0.28082759352645653
35	0xbfc673c61790def3	-0.1754081358974343
36	0xbfc61b8382328c64	-0.1727146516542205
37	0xbfc53822e3c27ffd	-0.1657756435497503
38	0xbfcfa5ac6f64f908	-0.24724345626049904
39	0xbfd04f650c59be1e	-0.254845869122592
40	0xbfcbec5b0532c723	-0.21815049890351998
41	0xbfd748611b9f253c	-0.36379268357685013
42	0xbfcb41f6f561abd7	-0.21295058232803285
43	0xbfcf4a7df1d01d7b	-0.24446081454537336
44	0xbfbc34a2087bde13	-0.11017811495900558
45	0xbfa5c4dd1dc666aa	-0.04251757610763936
46	0xbfc4c5f241f43965	-0.1622908422509212
47	0xbfc516487df272ec	-0.16474252843627057
48	0xbfcc5bcabaf155ec	-0.22155126693785065
49	0xbfcb9acf5df3de53	-0.21566192710428086
50	0xbfd7347c6873e0c7	-0.3625784893079182
51	0xbfc7f4cd4d37ac7e	-0.18715826292404708
52	0xbfd0fb4ceff00af6	-0.26533816749012773
53	0x3fc9a1e2519f34e3	0.20025280938572285
54	0x3fb04d0ca28aeb86	0.06367567985846109
55	0x3fc1c85aabe6987c	0.13892682450859073
56	0xbfc47cefd08f008d	-0.1600627678253698
57	0xbfc45a56381a4239	-0.15900686015494772
58	0xbfc6e115fa6fb2f9	-0.1787440750917069
59	0xbfc853e3580026b4	-0.1900600604715713
60	0x3f86384fb8ede83b	0.010849593001456373
61	0x3fc253b9d3ed346d	0.1431801113889465
62	0x3fdbfc66086038e9	0.43728018587070366
63	0x3fc43ec20181e44e	0.15816521714785597
64	0xbfb1391b0fd0b412	-0.06727761398424573
65	0x3f93da3eac5c2ff2	0.019387225408578908
66	0x3fa3c254f29c551f	0.03859200917774274
67	0x3fb1504298ceafe2	0.06763092260979378
68	0x3fca00e9c82a8c46	0.20315286897411705
69	0x3fd165eccac7d945	0.2718460064201234
70	0x3fcff9da122d6103	0.24981237304269407
71	0x3fd9b14962abf7d4	0.40144571910775295
72	0xbfc49b14470d19b3	-0.16098264188094688
73	0xbfc4ca1dd3f0b586	-0.16241810654302585
74	0xbfc1b2a074fff6c8	-0.13826375687488324
75	0xbfc06942a2ddb562	-0.12821228935664936
76	0x3fac93a896329f3f	0.0558140452715734
77	0x3fb16c03e292740e	0.06805443078560833
78	0x3fce82581b3551c8	0.23835278824357276
79	0x3fcf14ff64ee746e	0.24282829693121094
80	0xbfc02c2927407409	-0.1263476792964016
81	0xbfcfc4547f90887c	-0.24817901829471
82	0xbfc46676193042a4	-0.15937687139423418
83	0xbfcc521f771b539b	-0.22125619235762603
84	0xbfcc71864b1ee99c	-0.22221449535375093
85	0xbfd1762d2f0908c3	-0.2728379210785869
86	0xbf7d09e7f0fa8eef	-0.007089525242608848
87	0x3fb38368fcf9fee4	0.07622390915093608
88	0xbfd04f356dab1725	-0.2548345156650263
89	0xbfc752c117853608	-0.18221295975165241
90	0xbfc89c834ea7ba26	-0.19227639523110546
91	0xbfd18d052e392b24	-0.2742321921729618
92	0xbfd4b87ecd07a521	-0.32376070043990707
93	0xbfd468a57125c2c2	-0.3188871006923756
94	0xbfc59aec8f5f9cf2	-0.16879040718706723
95	0xbfc5acae22be6467	-0.169332282032687
96	0xbfc1f97b89b7dad6	-0.1404261038257661
97	0xbfcb83ba46f73d03	-0.21495750870824545
98	0xbfcd4bcaf30dc9e6	-0.2288755118166385
99	0xbfd3e5e9e705e9a6	-0.31090781746720564
100	0xbfc318b2b47f06ad	-0.14919122517863084
101	0xbfcb4a4c7cbfea3e	-0.21320491877834685
102	0xbfceee52336896d6	-0.24164798269446547
103	0xbfd18686ab50c29d	-0.2738358185770638
104	0xbfb4003529bf3234	-0.07812816876612133
105	0xbfba0276834b9088	-0.1016000814957484
106	0xbfaf737b2d91bc42	-0.0614279263617097
107	0xbfca424134f482f4	-0.20514693341922163
108	0xbfc3541f73d1d94c	-0.1510047259832369
109	0xbfc553f583de17d5	-0.16662472666592856
110	0xbfd2f5c32e32377d	-0.2962501479277007
111	0xbfc5e8a5e90608bd	-0.17116235616783185
112	0xbfc0af67fb279fb0	-0.13035297168175708
113	0xbfb602cfe9e40592	-0.08598041019651806
114	0xbfc4d9a372fc0677	-0.1628917991111398
115	0xbfce504780a0536b	-0.2368249300058339
116	0xbfb8bd14f45b6a5f	-0.09663516011952698
117	0xbfc2f57c566244d8	-0.14811662881815013
118	0xbfc3e7334fb3694a	-0.15549317733423101
119	0xbfc48f584ba2656e	-0.160624539309349
120	0xbf9da40d7ee14d8d	-0.02894612395205125
121	0xbfc77695059b620f	-0.1833063390138396
122	0xbfb8b27111f9a67e	-0.09647280396316124
123	0xbfbfabe96aa53a4e	-0.12371691564224216
124	0xbfa9e4a161c1b782	-0.05057243650740785
125	0x3fbdeee9e2fddeaa	0.11692678252972635
126	0x3f9787a536aa103d	0.022978383504337997
127	0x3fc71a1ad742d963	0.18048415671155302
128	0xbfbee9fb9b4a181d	-0.12075779477353916
129	0x3faf89ba33e0cb8a	0.06159765132215174
130	0x3fb18cb50c0208ee	0.06855327170527278
131	0xbfb8e282f091df6c	-0.09720629094397076
132	0x3fa917f4064c699c	0.04901087357412168
133	0xbfa87b34596838be	-0.04781497565646607
134	0xbfbbe3191a45cfa4	-0.10893399135039644
135	0xbfcc66a72d580e5c	-0.221882722035036
136	0xbfc27ff80cf32516	-0.14453030235589698
137	0xbfb99c2975d72b76	-0.10003909232106686
138	0xbfa5a2eb153176f3	-0.04225859292703928
139	0xbfb0f1587dc60b33	-0.06618264265675293
140	0xbf8a0c2ed4dd8654	-0.01271854960549771
141	0xbfcf07f091b79e3f	-0.24242980113125331
142	0xbfd09cc2a5567672	-0.2595678915621199
143	0xbfbb3a666a134dd4	-0.10635986413699722
144	0xbfcb32550f2604b8	-0.21247351874993625
145	0xbfc35d3d6fb865bb	-0.15128295855610738
146	0xbfc2582afae5ba9b	-0.14331567049835744
147	0xbfb2b5aabeb5a90f	-0.07308451801296577
148	0xbfa7f485bcc509ba	-0.04678743295018557
149	0xbfcc111c34034e5b	-0.21927216090863308
150	0xbfc0c553dca41478	-0.13102196000560062
151	0x3f906504281e1da1	0.016010346363626863
152	0xbfd5dc781eeee73b	-0.34158137341329436
153	0xbfc71abae16da5eb	-0.18050323493234485
154	0xbfc638634d024cb9	-0.17359582195476778
155	0xbfb5190a1c573d26	-0.08241332237161156
156	0xbfc19c2303feb96d	-0.13757741637295898
157	0xbfcbbef6360ffc02	-0.21676519050376447
158	0x3f352cb5a7c1adbd	0.0003230994696028186
159	0xbfbea6d6c2ba140b	-0.11973325971673902
160	0xbfcf861207cf49ea	-0.24627900487264692
161	0xbfc3d42218f83b6a	-0.15491129130574716
162	0xbfaa309e25a5bfca	-0.05115217408717816
163	0xbfa5c20fa7ee1c83	-0.04249619412353758
164	0xbf9f82b94d3e9b75	-0.030772109355577244
165	0xbfc36f497c4a470f	-0.15183371132712195
166	0xbfc8a7a494f837c2	-0.1926160552397374
167	0xbfd8427730bf19ed	-0.37905673752211905
168	0xbfc0e6840738e530	-0.1320347819580916
169	0xbfc5235e3b87b4ef	-0.1651418486284579
170	0xbfdb839673316622	-0.42990647553742367
171	0xbfcbead90099f593	-0.2181044819771328
172	0xbfdc99813e9f4e93	-0.44686919322450896
173	0xbfdfc727756f60eb	-0.4965304037882691
174	0xbfc8dfd9b6b79704	-0.1943313734220099
175	0xbfd23f450cd01316	-0.2851116776585497
176	0xbfc0ebc9ba7861eb	-0.13219567875854862
177	0xbfc78837d001c53a	-0.18384454399669342
178	0xbfcbfc752618f0b0	-0.2186418949148723
179	0xbfcabc83ff1ffe7a	-0.20887803990625625
180	0xbfc2550b3dfb9e69	-0.1432203343058405
181	0xbfe3b7d337b09615	-0.6161895835581982
182	0xbfc4d47437001270	-0.1627335804515897
183	0xbfc694751b46d186	-0.1764055617510502
184	0x3fbc5994971373bc	0.11074188888910802
185	0xbfb5fb537ce7aac7	-0.08586618232190367
186	0xbfc38027f9e50daa	-0.15234851552859868
187	0x3f8a147c7595e0bb	0.012734386766837571
188	0xbf83d31aa72d6297	-0.009679992892118334
189	0xbfb71660f0c82c16	-0.09018522146668348
190	0xbfb5278c9af01b94	-0.08263472349800188
191	0xbfdcd4405bafb69d	-0.45045479730365817
192	0x3f99fc62757ac33a	0.02537683336294381
193	0x3fa89cd3b233db8e	0.04807149458240821
194	0x3fa8ae6ef70f813a	0.0482058216655354
195	0x3f8160b7e49bffe1	0.008485256828407674
196	0x3fab78c84000ed08	0.05365587025922919
197	0x3fbadcbf801ad5bf	0.10493084790763073
198	0x3fb3eff363ca483c	0.0778801077488262
199	0x3fb7dc6fc151affa	0.09320734471992856
200	0xbfb9c2d4ed42b1b3	-0.1006291465043379
201	0xbf8517f587041e80	-0.010299604590286338
202	0xbfc54362fbf2a7da	-0.16611897756712218
203	0xbfbc1fd9c25ce344	-0.10986100192247955
204	0x3f7fd2785860740d	0.007769079302332405
205	0x3faf9fa7aa352a7f	0.061764945533089304
206	0xbf79cffae54e645d	-0.006301860867915368
207	0x3fae1730f5c4bd3f	0.058770685196913856
208	0xbfd4dfc3dcb7e495	-0.3261575370266397
209	0xbfd81077dc41ef36	-0.3760051394417475
210	0xbfc57b776fbfcf87	-0.16783040005213598
211	0xbfcd6aa3390175d0	-0.22981682094079625
212	0xbfc5fb15a7aecdf0	-0.17172499358785798
213	0xbfcfc0321616c3a9	-0.24805284575043388
214	0x3f9d155c767487b8	0.028401798944407836
215	0xbfb813effc4acb5e	-0.09405422124363613
216	0xbfccea34e42b67b9	-0.22589741841403368
217	0xbfd05e0859b1bb87	-0.2557392955704291
218	0xbfc8205151912615	-0.18848625643504194
219	0xbfc9abefe02a0fc5	-0.2005596012642156
220	0xbfc7b61db728c2e5	-0.18524524157830694
221	0xbfd292036de141c6	-0.29016195040187787
222	0xbfcec5688c5a349b	-0.24039942601340133
223	0xbfc6fd70003c0637	-0.1796092988152382
224	0xbfbc838fc9f228c5	-0.11138247185059232
225	0xbfcbf3ed12fe429e	-0.21838153293039836
226	0xbfccab25a4f5af57	-0.22397299341843777
227	0xbfca04f2cba728ef	-0.2032760137938747
228	0xbfc2b5c57f2a3a6c	-0.14617222508646266
229	0xbfd16970f9975cc6	-0.27206062673708364
230	0xbfa945f10fa79ff6	-0.04936173740480847
231	0x3f9572705d179fb8	0.02094436233701888
232	0xbfcfdd6bbc70c182	-0.24894472790903072
233	0xbfc631c6eb51f773	-0.17339407434695495
234	0xbfc737993dbb9903	-0.18138423456475303
235	0xbfb1f47a4c4c2a42	-0.07013668406231324
236	0xbfc492c56efb71d5	-0.16072910231640827
237	0xbfd596f6a8bf422b	-0.3373390815659458
238	0xbfbf7fa374bd60f8	-0.12304135894862955
239	0xbfc61393d3e439cb	-0.17247245641961081
240	0xbfc488c8fc9ce01e	-0.16042435011490935
241	0xbfb9e3d4ae4e75fa	-0.1011326718857716
242	0xbfd0765650f36d3b	-0.2572227278266898
243	0xbfb11fd6d8be9359	-0.06689207831966594
244	0xbfc81af767af34a0	-0.1883229500075787
245	0xbfc591e81a8953ca	-0.16851521774029116
246	0xbfb6b6a9e8f77b28	-0.0887247270361341
247	0xbfbdf562b429afa5	-0.11702553652292964
248	0xbfd273305fc13575	-0.28828057623908104
249	0xbf98563eeb516aca	-0.0237665015341502
250	0xbfbf5a6fe0d9a921	-0.12247370948322046
251	0xbfbe0aff30b26f0f	-0.11735529841319824
252	0xbfb755538fc8fdf1	-0.09114572773341202
253	0x3fa971b33db16afa	0.04969558837975359
254	0x3f73042eae2ae03d	0.0046426604700898185
255	0xbf99dfbc74012698	-0.025267548160889136

bias f8 [4]
0	0xbfb1c38aac37a1ec	-0.06938997940563468
1	0xbfb3af7b2320de71	-0.0768963776362115
2	0xbfb3e085b521d834	-0.07764468834088306
3	0x3fb3a280a421c737	0.07669834143760289

weight f8 [4]
0	0x3fe1caef6ae45f81	0.5560223663078291
1	0x3ff611cf2284df31	1.379347929801906
2	0x3ff62ba2676ae7d3	1.3856529273748392
3	0x3ff2b09b10193580	1.1681166294905267

bias f8 [4]
0	0xbff1882068d942d0	-1.0957340331698795
1	0x3fe2dbf03dc31c68	0.5893479543964419
2	0x3fc1513bb79febe8	0.1352915426831196
3	0x3fe323e66f2ff410	0.598132340586405

running_mean f8 [4]
0	0x3fc0cbdc919eccbc	0.13122136221281788
1	0xbffeabe210227d49	-1.9169636373770393
2	0x40008249b82f54c1	2.0636171712345406
3	0x4006d01764f256a2	2.8516071211295904

running_var f8 [4]
0	0x3ffb6b67524a0322	1.7137215818804141
1	0x4024eeca7c6250fa	10.466388594628814
2	0x402b908950aed276	13.782297631588545
3	0x403684166c170481	22.515967136020212

weight f8 [16, 4, 4, 4]
0	0xbfd3b4c2a809e8c2	-0.30790773782758774
1	0xbfd6bf7872d4c96c	-0.3554364320181296
2	0xbfd6e2e78a9cbe08	-0.35759914909701296
3	0xbfc58d5ec6dcf965	-0.16837677679172738
4	0xbfbcd2202bcde327	-0.11258126325072891
5	0xbfc4aa03bffcd21a	-0.16143843531030272
6	0xbf96a3c23832be89	-0.022109064750735406
7	0xbfc162761c2449ad	-0.13581730245694015
8	0xbfcb5314982ad5f8	-0.21347291402859958
9	0xbfb21e5c42023fd7	-0.07077576266806261
10	0xbfce65c0d504b2b1	-0.23748026276861858
11	0xbfb4272f3cb6114e	-0.07872290832717008
12	0xbfbbbfa55b20b416	-0.10839303469465764
13	0xbfc2a5682fcff20f	-0.14567282042106952
14	0xbfc18ac589e7ee2f	-0.1370474742287668
15	0xbfbe9c3846060ec7	-0.11957122525751195
16	0x3fabfc4545ac23f3	0.05465904689305736
17	0x3fb8ac471e66767e	0.09637875072663779
18	0x3fe0e93e24cbd1f5	0.5284720152545207
19	0x3fc7b0b1f9ff079f	0.18507981020780748
20	0x3f80f1db8899be4c	0.008273806673258076
21	0x3fb299e325b1109c	0.0726606337566999
22	0x3fd4cf0f91e1b516	0.32513798948532846
23	0x3fe5ce6109f2fab2	0.681442756111059
24	0x3fc934c8e5d13827	0.19692336293741272
25	0x3fcfe6e130bd59ca	0.2492333877550677
26	0x3fd10074c3db0c0b	0.26565283895996633
27	0x3fde833192ffdf46	0.4767574248830794
28	0xbfa005371128be9f	-0.03128978809797655
29	0x3fb4fd0ae78b7932	0.08198612358998927
30	0x3fd662a7a95a655f	0.34977141893758373
31	0x3fd372e20d80db14	0.303886902987345
32	0xbfc63f39f44bca5a	-0.1738045161105955
33	0xbfbbb1952bba3c97	-0.10817844693723298
34	0x3f9649abc25451c6	0.02176540731041301
35	0xbfcfeefc2ade67d6	-0.2494807442970443
36	0xbfbed4aea1188762	-0.1204327719974834
37	0xbfb80b9a92e6c267	-0.09392705999813132
38	0xbfa266d6818eb31b	-0.03594084102164726
39	0xbfc086df4b2a427e	-0.12911597414178638
40	0xbfd374c31ff6f195	-0.3040015995173005
41	0xbfd24ec830150077	-0.28605847068320805
42	0xbfc34583bc490717	-0.15055891698471477
43	0xbfbb7f1dd2950fb8	-0.10740839377564171
44	0xbf9eb2783c848783	-0.02997768277521785
45	0xbfb962bff6c87db1	-0.09916305327396092
46	0xbfb1f1167536499f	-0.07008495675680713
47	0xbfc3bb28b823a3e4	-0.15414914122746304
48	0xbfb6dbc26aeb6da8	-0.08929076299994299
49	0xbfbdc7671d990d4d	-0.11632389519313797
50	0xbfadb3c8f2ca4a4b	-0.05801227535007011
51	0xbfc40a403d5af059	-0.1565628337465366
52	0x3fb9fc5c38fcddb8	0.10150696173956575
53	0x3fc3e670c289dd21	0.1554699849982422
54	0x3f6fe03b66ce9ba3	0.0038911018550211326
55	0xbfa7b696958266c4	-0.04631491255822831
56	0x3fa7b93b76f50722	0.04633508517373587
57	0x3fd38888fbffb9fe	0.30520844086905174
58	0x3fc39bb2d774f1db	0.15318904419281307
59	0xbf73207751c628af	-0.004669633952639681
60	0x3fc3aba2728ea2d7	0.15367537110912252
61	0x3fbfe727933d3c15	0.12462088913638099
62	0x3f83168a021dd2de	0.009320333661642474
63	0xbfbc0a3ca60af84c	-0.10953120282917544
64	0xbfd76c3e530ed997	-0.36598165618070183
65	0xbfd53e2b196ba71f	-0.3319194553611044
66	0xbfd8fca6e744b7a1	-0.3904206522446377
67	0xbfdb77ba2b686f72	-0.42918256987626713
68	0xbfd478a9a1c9f6b0	-0.31986466216754206
69	0xbfd235756706389f	-0.2845128542038626
70	0xbfd4d201635eb4ce	-0.3253177137765534
71	0xbfd2e783671c98a0	-0.29538044995786983
72	0x3fde4a77d68ecc8c	0.47329517319594383
73	0x3fbeb757f59ed3b3	0.11998510119049292
74	0xbfbc9babd0e9abab	-0.11175035334024012
75	0xbfc6cae8e9f8c3fe	-0.1780673162880077
76	0x3fe1b872d1800ba7	0.5537656871605251
77	0x3fd488beeb858723	0.3208463001266059
78	0x3fdc86142ecc7196	0.4456835228936823
79	0x3fd5de8f5d4507cd	0.34170898540844236
80	0x3f86b222bbf02b75	0.011081954346101356
81	0x3fa3cf2a4df5e008	0.038689920441299874
82	0x3f89e697e29d749b	0.01264685306858331
83	0xbfbad3be858ba8ee	-0.10479346046819035
84	0x3fcc3e37483fb2bc	0.2206486799981543
85	0x3fc11c63d36523dc	0.13367889234566988
86	0x3f7c408523043e23	0.006897468629417899
87	0x3f9c11d33824ac38	0.02741174726649495
88	0x3fc1db3381e7c523	0.13950198977503545
89	0xbf9af55fdee4b9a8	-0.026326654414498357
90	0x3fbbec8c6d68429c	0.1090781943423828
91	0x3fa674c9d0a36b02	0.04385977432112577
92	0x3fc783a138992e10	0.18370452178565744
93	0xbfbafd77fea11ee8	-0.10543012587106271
94	0xbfdffa66feb8d8a4	-0.49965834498596906
95	0xbfd179d1f238dc70	-0.2730603089762047
96	0xbfc121f89186e9ac	-0.13384921174822517
97	0xbfb72320414a564b	-0.09037973016742133
98	0x3fd8838ab57153d7	0.38302867621433506
99	0x3fe1b2d8cd33f2c5	0.5530818946714012
100	0xbfc797ab138d6929	-0.18431604819017736
101	0x3fb5b6142fa930a6	0.0848095527991882
102	0x3fb21a26f3f205ef	0.07071155029009167
103	0x3fde6fbb90779979	0.4755696211635932
104	0xbfe55206b4685650	-0.6662629626832288
105	0xbfe74bd16d839156	-0.7280051363891669
106	0xbfd5ef7c4d956bb0	-0.342742038502986
107	0x3fc203bf03844363	0.14073932334624847
108	0xbfe730feb4e93020	-0.7247308286109764
109	0xbfea73525a605fb9	-0.8265773549237486
110	0xbfe7639cca3e9a3b	-0.7309097242439927
111	0xbfdf45ae3cc927a9	-0.4886279672251655
112	0xbfa1627ff9df8d06	-0.03395461964808004
113	0x3fc673725a77398c	0.17539815346976828
114	0x3fdc24ce0b52a383	0.43974639039748115
115	0x3fd86427b5d066c6	0.38111298327713106
116	0xbfb2e3e3ffbda7b3	-0.07378983491585593
117	0x3fc1a52628813345	0.13785244920509335
118	0x3fcb8bab3da94b9a	0.2151998568611731
119	0x3fd1ed9ee02c2eae	0.2801282109437392
120	0xbfc59ad59d70f9e8	-0.16878767192424893
121	0x3f93cc7b67445036	0.01933472459593607
122	0x3fc8965f71d48867	0.19208901460757774
123	0x3fc35e9dd57136df	0.15132496759399935
124	0xbfee5422d803dfb7	-0.9477705210729174
125	0xbfce1e3f26d939a3	-0.23529805561925085
126	0xbfb6f8c421b0a84c	-0.0897333700419562
127	0x3fcd0385e5aec932	0.22667001452425378
128	0x3f8928351230580f	0.01228372060544916
129	0x3fd11ea3d118ce84	0.2674951116525579
130	0x3fd2e792b5c2fcb9	0.2953840994850441
131	0x3fc65b40d5ad5fd5	0.17465982850512654
132	0xbfb6452d617abfcc	-0.08699306135053958
133	0xbfa51b4797806700	-0.0412237522543375
134	0xbf92e39fbd03fa4b	-0.018446441566079035
135	0xbfa2ebd9093fc6d4	-0.03695562589554205
136	0xbfd44490ab7c88de	-0.31668488260960526
137	0xbfd4693c97c63f13	-0.318923137871921
138	0xbf5ed888a5a38768	-0.0018826803630464743
139	0xbfb0fead8dca9015	-0.06638607703877171
140	0xbfd289c7f912ae59	-0.28965949367077354
141	0xbfc60525b8671a6a	-0.17203208450355884
142	0x3fb06fa3094d9fb3	0.06420344330911014
143	0xbfc06cf534a99e3d	-0.12832512923636044
144	0x3fd9ec46e9be4997	0.40504620386595874
145	0xbf836d8e8e201bb4	-0.009486306869815532
146	0xbfaf4dd591839a60	-0.06114070321364262
147	0xbfa689015d8e2dbe	-0.044014017744383946
148	0x3faaf8beedcf8dad	0.0526790299698193
149	0x3f68dbfc4872b5d1	0.0030345847513532993
150	0x3fba837f65d37099	0.10356899486527239
151	0x3fd2f8933722c1e0	0.29642181763031594
152	0xbfb2d12cf82b3fd2	-0.07350426729976725
153	0xbf7ca3ae773af80b	-0.006992036349116058
154	0xbfb8b86df3b594af	-0.0965641708367737
155	0x3fd5afef756781cb	0.3388632437254528
156	0x3f918fb402b0306d	0.017149746574475367
157	0xbfc6c748096ed8d9	-0.17795658550830387
158	0xbfb74439a0ebfec1	-0.0908847825885415
159	0x3fb591fdff6ffbc1	0.08425891386285313
160	0x3fdbdf4c081d84ab	0.435503967213729
161	0x3fd49ca7fce057fb	0.3220615357871563
162	0x3fd23d78f48d7b4d	0.2850019825181576
163	0x3fd5bacf3724e172	0.33952694306528663
164	0x3fd8fbcb1f76bcfa	0.39036825249327445
165	0x3fcf93afa6c99f44	0.2466945232765686
166	0x3fd0a6218aee9125	0.26013983314102723
167	0x3fd3e5e439d72ef7	0.31090646408550476
168	0xbf98121e96361236	-0.023506620329060555
169	0xbfb5fdf10c480619	-0.08590609121167637
170	0xbf66f2be39997f8c	-0.0028012957889557762
171	0xbf73d51bc13a54a5	-0.004841907899067942
172	0xbfc4d3f587e1e7b8	-0.1627184785355078
173	0xbfbc9690eaf796d2	-0.11167245613577428
174	0x3fb37cd883736a35	0.07612374505280502
175	0x3fd4428d5b980013	0.31656202263548144
176	0x3fdae8d5b9e0f676	0.4204611125204346
177	0x3fd3353aecafb600	0.30012391199019817
178	0x3ff4f3b5d1566096	1.309499566768897
179	0x3fe4a4447941c72b	0.6450521820354188
180	0xbf907e88c32a6ede	-0.016107689773533156
181	0x3fbd6b71aae62cc0	0.1149207155450993
182	0x3fd5c6de8e9c3f56	0.3402630226782909
183	0x3fde327b3e9b8a5c	0.47183114160558204
184	0x3f6040ce836f6d19	0.001984027239343111
185	0xbfbb454dfe76abe0	-0.10652625524987469
186	0x3fc018f790828baf	0.12576193386220555
187	0x3fd3f9bbb7561f6b	0.3121175089258858
188	0xbfce6ddd27238504	-0.2377277794940157
189	0xbfce081e8607cbe4	-0.23462277931648068
190	0xbfb0f0200ca7dff1	-0.06616401967028175
191	0x3fba5e0ef2b5f58f	0.10299771714740856
192	0x3fd1d75856af1b6a	0.2787686201594882
193	0x3fd8e25759fe8c28	0.38881477154262933
194	0x3fcdeef38ec4eaed	0.2338547179332048
195	0x3fcc22328dc19fa3	0.2197936241311683
196	0xbfa8938bf54c7913	-0.04800069207543536
197	0x3fbc812a9e9675d8	0.11134592410822763
198	0xbfb9407ccdeb65d9	-0.09864025142032719
199	0xbfa2bab69474f841	-0.03658075868814637
200	0xbfcdbd62eb133030	-0.23234211424130669
201	0xbf8ec7187577e132	-0.015028182110640918
202	0xbfc43fdef2d12e7c	-0.15819918495468588
203	0xbfcd121b55e0a453	-0.2271150750468985
204	0xbfd316ac630895db	-0.29825887366527376
205	0xbfa04f6db2e50545	-0.0318559914471828
206	0xbfa1530216eb7d50	-0.03383642701896383
207	0xbfd02ce2ebeba508	-0.25273964919195224
208	0xbfa087981fa5b113	-0.032284501898944516
209	0xbfd543744694b3fe	-0.3322420777574847
210	0xbfd0d8376e704c42	-0.2631968096258711
211	0xbfd9c2ecaf346d0f	-0.40252225026934324
212	0xbf977fafc3dc553f	-0.0229480231565351
213	0xbfbaad5939fa100d	-0.1042075888199749
214	0xbfd4625f779b8c67	-0.318504206470783
215	0xbfca75314310a22c	-0.20670142912537537
216	0x3fb050967e09e48f	0.06372967316737486
217	0xbfcddf992be89991	-0.23338617938970832
218	0xbfce2206877d2f56	-0.2354133760039711
219	0x3f8c39653e25a677	0.013781348189428428
220	0x3f94ebd84e48af34	0.020430927064963814
221	0xbfd6c86f9d0147ea	-0.3559836419345844
222	0xbfe19ff9679f9972	-0.5507781051535814
223	0xbfac7f6f6ec8a7ba	-0.0556597540601866
224	0x3fcef1554a6fc1ea	0.24173990377995774
225	0x3f8ed96437639bf1	0.015063078823414929
226	0xbfac6b6cffac320d	-0.05550709362987414
227	0x3fca2d1de74b29b2	0.2045018557894998
228	0x3fd5182f3e9ca14e	0.32960110773503437
229	0x3fd8c4d339c66280	0.38701325075229676
230	0x3fbb518c5008aeed	0.10671307519867997
231	0x3fcabdccf31a8c97	0.20891725416467885
232	0x3fd9b1bc0a491be0	0.4014730549283154
233	0xbfb393874aaae790	-0.07646985600413658
234	0x3fc4403778a32107	0.15820973768700972
235	0x3fcc37ae601556df	0.22044925395555645
236	0x3fc039de42518eac	0.12676599729740212
237	0x3fb9a58d4a45b5e0	0.10018237174309474
238	0x3fcb3ae2664b20fb	0.21273450846479833
239	0x3fb8708940527466	0.09546716518748752
240	0xbfcaf03c6760316a	-0.21045641944545973
241	0xbfcf97902d16c97b	-0.2468128414307776
242	0xbfd68226fa4f905b	-0.35169386333860125
243	0xbfd2816a8ad33f4c	-0.2891489368166631
244	0xbfd088e0427ea87a	-0.2583542489397882
245	0xbfd483cece904a14	-0.32054491207341695
246	0xbfd7b5f7553a3338	-0.37048133204443756
247	0xbfd42ad51cc38e1b	-0.31511428650830603
248	0xbfc4baeac31d19c7	-0.16195425536188976
249	0xbfd5bc1c1c186417	-0.3396063112609808
250	0xbfd0ef05eb237606	-0.264588813426457
251	0xbfc6be5027acdf97	-0.17768289506215915
252	0xbfdb609eddcf4dcc	-0.4277722517119542
253	0xbfda925c2d9003b2	-0.41518310975521466
254	0xbfda6ef37bc3a5f7	-0.4130219181666627
255	0xbfd6af5d6f1bd83c	-0.35445342874971053

bias f8 [16]
0	0xbfbca0c4c74853ed	-0.11182813515945585
1	0xbfa5754fc8380377	-0.04191064185216125
2	0x3fb9f338981e4ec6	0.10136750902011746
3	0xbf98e82e60b29287	-0.02432320084757802
4	0xbfbdf09d39da3413	-0.11695273077403127
5	0x3f845c9bcfd71e1e	0.009942261963160223
6	0x3fbce74885619472	0.1129041028630853
7	0xbfbbb645a467d51e	-0.10825000060852516
8	0xbfaf4a3ca1c6fede	-0.061113257168015286
9	0x3fb34501d48e1f4a	0.07527171553931314
10	0xbfa930da3714ecb7	-0.049200839256138655
11	0x3fac5000fa52f313	0.055297880704051526
12	0xbfb2d5a37eca7411	-0.07357236714820227
13	0xbf6fc0a562040251	-0.0038760404714824133
14	0xbfb036b46524c833	-0.06333472699478264
15	0xbfbaa706e08af761	-0.10411112768175947

weight f8 [16]
0	0x3ff4708944f98b2f	1.2774746603324265
1	0x3fef763b9c32c099	0.9831827212092491
2	0x3ff514aa000be312	1.3175449373067676
3	0x3fdf7e8c5296fe6e	0.4920988852063378
4	0x3ff3c8f9d52629e6	1.2365663839469732
5	0x3ff18404b5bb916c	1.094731054204284
6	0x3ff5667bada3c19d	1.3375202925491074
7	0x3ff6c5c8e3e530d9	1.4232872869643443
8	0x3ff37c01a7f77a7b	1.2177750168990815
9	0x3fe27b559d67d7e1	0.577555472786795
10	0x3ff08cf33c48a715	1.03441165493354
11	0x3ff62f50eda5c426	1.386551788626329
12	0x3fefeea357aa88c6	0.9978806221227152
13	0x3fe8045e3584ad1d	0.7505332036284106
14	0x3fe4e32f610ca233	0.6527325530524365
15	0x3ff06b8bbdd9f727	1.0262563148566615

bias f8 [16]
0	0x3fde2943a16ffeb2	0.4712685658014194
1	0xbfb47fd40c837de2	-0.08007550530918864
2	0x3fbee8422b77dda3	0.12073148308979013
3	0xbfded9d1775836a5	-0.4820445695375873
4	0x3fc9be5f4b6bcfd1	0.20112219984696236
5	0x3fdd770ef3a5373c	0.4603917483662945
6	0xbfe90522b2720d23	-0.781876896406548
7	0xbfe83240d9f47f7d	-0.7561344391760795
8	0xbfd53a3b197bfef6	-0.33167912949282596
9	0xbfed9c565f7ec177	-0.9253341546191639
10	0x3fcdb8acbeccf157	0.23219832722123598
11	0x3fc082f57c5ab460	0.12899654933918026
12	0xbfc884c0d51d7302	-0.19155130773551582
13	0xbff50d989bf3b22a	-1.3158193675873329
14	0xbfdc2fd8d9c97f2b	-0.44042035358687553
15	0x3fd14e5efbedf0b3	0.2704083881615233

running_mean f8 [16]
0	0x400348a86603afa3	2.4104774446368125
1	0xbff6bb072331af84	-1.420661103703396
2	0x401127f41a54529f	4.289017115971233
3	0xc01175ecfea120fd	-4.365161875328565
4	0x3ff01fd8b21b2914	1.0077750165242536
5	0x3ff421748c507243	1.2581677895569932
6	0x40296ee6ae8cc23d	12.716603712732757
7	0x402a4736fc958186	13.139091389894713
8	0x4028bff37a1a8375	12.374904456841003
9	0x40121931c7ade4fe	4.524603958119085
10	0xc01823583d74f1c0	-6.034516296637264
11	0x4021559a093b0bcc	8.667190826852583
12	0x4014a30c1492886e	5.15922577041975
13	0x402721f69aef9365	11.566334573502624
14	0x4005e10bfe15aa42	2.734886155162969
15	0xc005b40bbacf038d	-2.7129129976678485

running_var f8 [16]
0	0x402b9d7088363024	13.807499176611664
1	0x402f24fd38043848	15.572244406237715
2	0x40443dd6abc0c147	40.4831137362658
3	0x3ffafa415671be45	1.686097467110714
4	0x403aa970f81795d0	26.661880021818263
5	0x404398eb5e6edf4f	39.19468288816153
6	0x405d32e51cc144d8	116.79523390649717
7	0x4056a0261ecbd258	90.50232667831858
8	0x405f9dad9a9edb9e	126.46372094644036
9	0x4047bc54d518bc46	47.47133887965951
10	0x40510cb1af09a862	68.19834495490207
11	0x403e7b8524c9cea4	30.482500361699422
12	0x4038af6f2a69e7e2	24.685290003639132
13	0x405ea3bf9fd5960d	122.55857082231542
14	0x4012f2817abcba4c	4.7368220498743305
15	0x4023d76f94f2d7bf	9.9207731768073

weight f8 [32, 16, 4, 4]
0	0x3fcb8a5a34692e9b	0.21515967902302155
1	0xbfba513541a730dc	-0.10280163624628663
2	0xbfda3754e5eebe78	-0.4096271748958098
3	0xbfedec12dd3af9fb	-0.935067588892536
4	0x3f889e8da1bd3b94	0.012021166323078515
5	0xbfc7374e8068c64d	-0.18137532491668865
6	0xbfde2246f80f5190	-0.47084211563676437
7	0xbfca3a8c0e3c91a6	-0.2049117154612194
8	0xbfbe2ce989f63abd	-0.11787280672272522
9	0xbfeb76459140d727	-0.8581874691942389
10	0xbfe09d5d50fbe202	-0.5192095357625137
11	0xbfe8073eda908fb0	-0.7508844631997729
12	0xbfc4e52d1ec626b7	-0.1632439041389284
13	0xbff10c200256c39e	-1.0654602137912899
14	0xbff2c6490efa2799	-1.1734095177693915
15	0xbfd4969250e41a83	-0.3216901578856907
16	0x3fd5809a59f30781	0.33597430023302627
17	0x3fdcfdda7552d687	0.45299397904759825
18	0x3fe10d8e6d50cf15	0.5329048285552483
19	0x3fd1fa6cd7cb46e6	0.28090973924291374
20	0x3fe16ebc98c9aa77	0.5447676643501173
21	0x3fddf3bc0d6ec7cc	0.4680013781718315
22	0x3fcd23279131544e	0.22763533200728364
23	0x3fc97081b918b832	0.19874593294065473
24	0x3fd005c2618d55b7	0.25035151983805853
25	0x3fe2c4434fef120a	0.586457878228033
26	0x3fc9da48027ecbb3	0.20197391626206027
27	0x3fca327f92427fc5	0.20466608659353205
28	0x3fd6df13ee820d85	0.35736559192465506
29	0x3fe1872c39f8458a	0.5477505809996484
30	0x3fe4159d2a568315	0.6276384188568921
31	0x3fd83d47b57e9463	0.37874024128024625
32	0xbfd3e9274213be0c	-0.3111055512699472
33	0xbfb91898cc938ea1	-0.0980315684751596
34	0x3fc9a3595ec25adc	0.20029751898683557
35	0x3fab76920ab082ad	0.05363899593817698
36	0x3fccc928d3ed42c9	0.22488890026081368
37	0x3fe6a36c55cef33f	0.7074491191811844
38	0x3fe0d5768c62fe4b	0.5260575048377601
39	0x3febe2c6acf0017f	0.8714326265035622
40	0x3fc5a576c3530d4f	0.1691120580418137
41	0x3fda259ba3c5b51b	0.4085454081858459
42	0x3fd4eef7ab298d71	0.3270854159838655
43	0x3fdecb13de1d1863	0.48114487353121244
44	0x3fcd1381a0f43400	0.22715778693273592
45	0x3fd0c3da43f3bac0	0.26195389400428937
46	0x3fd15320ed74da89	0.27069876851184255
47	0x3fd90333836e62d1	0.3908203872211234
48	0x3fdc3ced188f909b	0.4412186374522748
49	0x3fdba7e47d4a50ec	0.4321223472154674
50	0x3fd5e6335d17dbac	0.34217533198482886
51	0xbfcb49da8b37496f	-0.2131913356557322
52	0x3fda41951ba58c12	0.41025283527250267
53	0x3fd89d1a6482b8dd	0.3845888120221284
54	0x3fccd8008ca4533a	0.22534186236648585
55	0x3fcfaf1aa315e64e	0.24753125155602834
56	0x3fd93c2588a24a18	0.3942960581127024
57	0x3fd5ea6f6fa33b41	0.34243379499541865
58	0x3fc3809c5dd347ab	0.15236239033998564
59	0x3fd113e35a0a1eaf	0.2668388728420536
60	0x3fd6da92775af3c7	0.3570905843333176
61	0x3fd590319b92e7ec	0.33692588989981576
62	0x3fd2a8ccb434b84d	0.2915527114699941
63	0x3fd14b5dfeee60b1	0.2702250470697534
64	0x3fc2d3c4bcc052ea	0.14708766189928407
65	0xbfcaa47f8a48c76d	-0.20814508678591484
66	0xbfcd785aa213d2cd	-0.23023541368424674
67	0x3fb60c36d20d4890	0.08612387302608426
68	0xbfcb3368521bb57d	-0.2125063324851161
69	0xbfdbaf53bfb3b747	-0.4325761196222299
70	0xbfdf2c18ecf01122	-0.48706648958638443
71	0xbfd1d3b6b33e27fb	-0.2785469770830102
72	0xbfd0196099619de7	-0.25154890993732554
73	0xbfe0dd1d9cc4f958	-0.5269916593459056
74	0xbfdbcbfd8be8a865	-0.4343255869195047
75	0xbfdc0fb3efce3dbc	-0.43845842760580545
76	0x3fd63afda6c2f7fc	0.34735051427185204
77	0xbfd81ffcafb7ab4d	-0.3769523349753186
78	0xbfd9257dd68e237f	-0.3929133029237661
79	0xbfd74814afb455d9	-0.36377446325908874
80	0xbfda100581cda647	-0.40722787548165623
81	0xbfe3697720ce46ec	-0.6066241875398339
82	0x3fb72f99bf648da6	0.09057007715869378
83	0x3fe2e59b231c5ede	0.5905280767210248
84	0xbfe2778e090a2a90	-0.5770940949017405
85	0xbfe04fb22fdf4df7	-0.5097285208707366
86	0xbfbbb30456baf1b9	-0.10820033185422674
87	0x3fcaaac7b39e7f79	0.2083367945715471
88	0x3fbc04c08509c53e	0.10944751022340868
89	0x3f855d0266d72098	0.010431307567060608
90	0xbf95e3ffd8f43af6	-0.021377561203787608
91	0x3fd56b1c3c26c4cd	0.3346624934593592
92	0x3fd7bac3866a4cd5	0.3707741558693674
93	0x3fd002692b91c938	0.2501471448405428
94	0x3fe08816a07ba0e3	0.5166123518402198
95	0x3fe0d3f7d156e3c6	0.5258750046406184
96	0xbfd2746eedbff3b5	-0.2883565255904686
97	0xbf9bcb39733b5004	-0.027142427118477044
98	0xbfc938218b338d2d	-0.19702548310224569
99	0x3fcca3423ce23f1e	0.22373226139870267
100	0xbfc4d848799a3ab2	-0.16285043656940484
101	0xbfa3eb113e3f7792	-0.03890279660093578
102	0x3f96b5390cc5c425	0.02217568531472493
103	0x3fdf1e4c050eb3ea	0.486224179209613
104	0xbfcfa7cbf74022bf	-0.24730825016765398
105	0xbfd00258be2d5da6	-0.25014322826379
106	0x3faff5e66e5152c9	0.06242294403697241
107	0x3fd7d2f95599f52f	0.37225182876121016
108	0xbfd32d951044cbd1	-0.2996571215509763
109	0xbfbedd753b1345cd	-0.12056667988078758
110	0x3f79af1f2a05a36e	0.0062705247258712914
111	0x3fc0689ec3c7ef10	0.12819275436037758
112	0xbfd760c69821728b	-0.3652817235613745
113	0x3fc41d00437a36df	0.15713504118723784
114	0xbfa4dd93e205809a	-0.04075300344516215
115	0x3fe510d306a89a9e	0.6583037500430071
116	0xbfd0f22cb84c41e3	-0.2647811698707569
117	0xbfae6667c39610b7	-0.05937504065062298
118	0xbf87ec556feb4303	-0.011681239583965835
119	0x3fd667b944b5f880	0.3500807925228244
120	0xbfbe738b050b6ec5	-0.11895054696236247
121	0xbfbcc441168a9897	-0.11236960220648694
122	0xbfaf02c57373991f	-0.06056801828690283
123	0x3fd76fa65abc40ce	0.3661895643317735
124	0xbfd001cf0c85c772	-0.2501103994646804
125	0xbfcdbbcd2f0ccc28	-0.2322937469230919
126	0xbfa4be7bda47a37b	-0.040515776057708806
127	0x3fcfd57cb6edcdb1	0.2487026112754456
128	0xbfe1242652e7f0a5	-0.5356628054864997
129	0xbfd8dfab7f50f7c5	-0.38865172799330266
130	0xbfd11d647beb048e	-0.2674189767968266
131	0xbfbc27a6fff57d59	-0.10998004673955587
132	0xbf81cfb87b247640	-0.008696976907738407
133	0x3fce8e4805c3b818	0.2387170818469151
134	0x3fc5d6bbf4b33895	0.17061566780325124
135	0x3fd57a2f0dccccc9	0.3355825075879691
136	0xbfa1eab44fe534e1	-0.034993777039383785
137	0x3fb87e5f3cec46db	0.09567828404785976
138	0x3fa4610853224175	0.03980279936615975
139	0x3fdc5c890b306e1b	0.4431479081410729
140	0xbfd2614662601ca3	-0.28718719107605234
141	0x3fc3e34208ecaf8e	0.15537286220330454
142	0x3fc35ca284de6fd6	0.15126449096430744
143	0x3fd861d0477a314f	0.38097006778914005
144	0xbf8f2b4eaaed7158	-0.01521932086114279
145	0xbf90914f876e96cc	-0.0161793161784292
146	0xbfa6364110c882b8	-0.04338267640946952
147	0x3ff0233d748974a3	1.0086035301422178
148	0xbfa893b3f87d8b01	-0.0480018845398913
149	0xbfacac7b34bb5dee	-0.05600342768383003
150	0xbf91896520e12f52	-0.01712568295651746
151	0x3fc92f9bedfbcef7	0.19676541443151738
152	0x3f8ab6a61e097d77	0.013043687621744777
153	0x3fc8d922661b873e	0.1941264151164947
154	0x3fb5fa7e8a18ea64	0.08585348960415612
155	0x3fe01005b91adf02	0.5019558539706568
156	0xbf9d28515dc7db2b	-0.02847411284343619
157	0x3f9e61503e2eb506	0.02966809634715608
158	0xbfd119b4f3e10c13	-0.26719402138059073
159	0x3fd72d1cc8c58b85	0.3621284447346443
160	0x3fed547b78c6f16c	0.9165627821853781
161	0xbf844f49bd5d7e69	-0.009916854945628733
162	0xbfdac069a9831bdf	-0.41799394182129207
163	0xbfd160d7773c0d9f	-0.2715357460403655
164	0x3fe154d30e5b117f	0.5416045456300224
165	0x3fe1159cf91a4a65	0.5338883271491112
166	0x3fa30404b0f8ecbc	0.03714003238970906
167	0xbfc36fbf9f34b77f	-0.15184779428221515
168	0x3fdbbe1ff5a6bf17	0.43347929944410296
169	0x3fe7ae55bb85352c	0.7400311148173038
170	0x3fa7970d340de6ae	0.04607430706432801
171	0x3fb20455c4ec598d	0.07037864740082096
172	0x3fd99123062ae29c	0.3994834480504694
173	0x3fda4c2c2a36aff7	0.41089920160698007
174	0xbfaafc8992d37fc2	-0.052707957432857735
175	0xbf9acbfb6c3b029e	-0.02616875503622628
176	0x3fd0953243544172	0.25910622191533783
177	0xbfbc2a34ee42e541	-0.11001902405668763
178	0xbfc977c594788de4	-0.19896764516407395
179	0xbfb72c0df40554f6	-0.09051596839465845
180	0x3fa787a2a66991ee	0.045956690610896675
181	0xbf63b472f0f3ce93	-0.002405380720682812
182	0xbf9df66111ac6c3f	-0.029260174468714203
183	0x3f9111fa9b0bf29a	0.016670146668718112
184	0x3fda41234a1679f9	0.41022569880615795
185	0xbf8525dd7e410c67	-0.010326128402203772
186	0xbfd1b566e75bd077	-0.27669689744585163
187	0xbfb83160ec803e38	-0.09450345777462921
188	0xbfb8d0aa2e00d4df	-0.0969339716255777
189	0xbfa3d280813b6175	-0.03871537759340785
190	0x3f9c2d17cf0bf0ff	0.02751576615536155
191	0x3f9fcb73521c5bd1	0.031049539457935375
192	0x3fd771a762ae00c6	0.3663118804615916
193	0xbfd23dacdaeea323	-0.285014356423334
194	0xbfd6754752c4f9cf	-0.35090811808541117
195	0xbfd84064fece4bae	-0.3789303291643432
196	0x3fd7ef9a5e111ea0	0.3739992064115345
197	0x3fce6b3417605a81	0.2376465906279073
198	0x3fde3d6b67d12f8e	0.4724987520064524
199	0xbf750faf646e3214	-0.005141911627003743
200	0x3fd6e944d84dde29	0.3579876053185865
201	0x3fd0ec5dfb81ee94	0.26442670403751234
202	0x3fd258ab98eb8198	0.28666200574482437
203	0x3fcffc32730fc3ed	0.24988394373170256
204	0x3fd4532f647e6c4f	0.3175772172341497
205	0x3fda73fbfc441c73	0.41332912097318014
206	0x3fcb72298aa1c3ba	0.21442145604262725
207	0x3fba35c68aeea69f	0.10238304988765855
208	0x3fcfd27dfba7c59c	0.2486112097536023
209	0x3fc340f50607abfa	0.15041983408386256
210	0xbfc35c1575638de2	-0.15124767524603927
211	0xbfcff367f53d818c	-0.24961566424009296
212	0x3fc0467038861a54	0.12714960823014343
213	0x3fcbeb566b6ff3ec	0.2181194328876751
214	0x3fd2ce349fee36fa	0.29383578890052287
215	0x3fc3122ea3326e46	0.14899237602809218
216	0x3fb1c1eebab46424	0.06936542566508358
217	0x3fb7b7d726b68a19	0.09264893241064732
218	0x3f932719b6a2eb83	0.01870384385322722
219	0x3fc05e724d450a78	0.12788227818426257
220	0xbfdefb618f5f99ca	-0.4840930843478445
221	0x3fc445af87f34a33	0.15837663782311182
222	0x3fd0735141dfeef8	0.2570384162242898
223	0xbfb4b20df0b93660	-0.08084189536131126
224	0x3fb4342f53f25ba1	0.07892127799492112
225	0xbfd06a9556bc6e58	-0.25650533171003564
226	0xbfd17418616fe984	-0.2727108909163223
227	0xbfc981df3b211b53	-0.19927587878393158
228	0xbfb362f1af8b1db0	-0.07572851691940374
229	0xbfce5279fa99fa08	-0.23689198242568943
230	0xbfd558d2b60695b2	-0.3335463311762751
231	0xbfcd035972fd839d	-0.22666471590767126
232	0x3f9587bce9f61f02	0.021025611667510276
233	0xbfd17d6888d65fa0	-0.2732793175032331
234	0xbfd28fe7b2655425	-0.29003326817957237
235	0xbfd862187000f341	-0.38098727166998364
236	0x3fd0bb923a6643f9	0.26144843772004794
237	0x3fbb73a76b9b9c3d	0.10723348977227061
238	0x3fa5c06fbf3fedc3	0.042483799072182936
239	0xbf73dc1901699c7d	-0.004848573377422058
240	0xbfc3f26585306bd0	-0.15583485606552339
241	0xbfd16ea89c3359c1	-0.2723790669819231
242	0xbfd3c232abb16573	-0.30872790114297927
243	0xbfdd80241d4d62ad	-0.46094611035872896
244	0xbfc54ad1fed97dcb	-0.1663458341963476
245	0xbfce36e394874154	-0.2360500788913763
246	0xbfd8ab37b8e9b876	-0.3854502969542247
247	0xbfd8b4a062212421	-0.3860245664878353
248	0x3fda9db3fb305403	0.41587543039469227
249	0xbfddb07deb5c663f	-0.4638972090193398
250	0xbfd4e9128a987d5b	-0.3267256120179433
251	0xbfd8e65e379f807e	-0.38906054908694176
252	0x3fd98eceef104f7d	0.3993413290602275
253	0x3fd2757a138017ff	0.2884202185090316
254	0x3fa6d5b019a5210d	0.04459905922937155
255	0xbfe2a472004cba51	-0.5825738912443034

bias f8 [32]
0	0x3f95fae2c965abf5	0.021464866201693373
1	0x3f3a6f2ffdaeecb3	0.0004033558049589367
2	0x3f81a0891e602e14	0.008606978644841091
3	0x3fa995ebc61920a4	0.049971931392577745
4	0x3f9fb49aa1729372	0.030962387184121316
5	0x3f9044f3c36d4288	0.015888031771569305
6	0x3f9e92d48d2e9fc1	0.029856988064835614
7	0xbfa121c427eba4b0	-0.03346074092207496
8	0x3fabd5fbc06104e6	0.05436693881393655
9	0x3fa927569cd0aa0f	0.04912825264212383
10	0xbfaecf1ea54441ae	-0.06017394797720797
11	0xbfa76cac8e038700	-0.04575099214140543
12	0xbf86f299c48e1952	-0.0112049115284775
13	0xbfa9b08617af7e95	-0.050174894706057994
14	0xbfabe3cb49da7d1d	-0.054472306027714114
15	0x3fa619479d52c4e5	0.04316161914301534
16	0x3fa00f9329686af9	0.03136882667987168
17	0xbf956a649c901412	-0.020913669639430373
18	0xbfaf282f10963a17	-0.06085345342136266
19	0x3fa51dfa99a954a2	0.041244345910550054
20	0xbfa2706a128eafe4	-0.03601390339403546
21	0xbfa81e63ad95f8a9	-0.04710685247390362
22	0xbf869a7fb0f46bd7	-0.011036870563250574
23	0xbfab13e23b32e289	-0.05288607571259713
24	0xbfa2ededcc4afc9c	-0.036971503437137815
25	0xbf98f5ace2e4a3d4	-0.02437467703672154
26	0xbfa3257ba085524d	-0.03739534697038902
27	0x3fa5662d12c53ed7	0.04179516653186759
28	0xbfaf34ff500b5aa9	-0.060951212426222874
29	0x3f9833685cf220bb	0.02363360469146934
30	0xbf8e5ed114307a98	-0.014829286030417152
31	0xbfa48e1366974de1	-0.04014645221073088

weight f8 [32]
0	0x3ff55541c98587ec	1.3333146926820474
1	0x3fe482a89d86b722	0.6409495426830498
2	0x3fe8f4c8bd97dcab	0.7798808768265152
3	0x40041a19f33337ad	2.5127448081975303
4	0x3ff373808abed1fe	1.2156987590543618
5	0x3fe770d0f250d2a5	0.7325215084770959
6	0x3fe749fd9858f888	0.727782056382936
7	0x3fed3c949d87e007	0.913645084073324
8	0x3fe74819257d22c9	0.727551053257309
9	0x3fe249a9469b49c5	0.5714918498072669
10	0x3fd9d51912b01743	0.4036314661501487
11	0x3fe5dce75d5b5d2e	0.6832157920243043
12	0x3fe5fa8b0fb9a889	0.6868338877805097
13	0x3ff0e6959edf2a57	1.0562950330664955
14	0x3fe412b384c3da8b	0.6272828667705012
15	0x3fe45cf353e1f323	0.6363464964229916
16	0x3fd2c283a8d645b7	0.293122210388073
17	0x3ff4f7376471c0b6	1.310355560646753
18	0x3fe9f05a0469a103	0.8105897985633707
19	0x3fe3f77f57b384bf	0.6239620888628891
20	0x3fe0a6f6ee97493c	0.5203814182262145
21	0x3fd7f99b8ce529db	0.37460984000486314
22	0x3fe345984e85b1c6	0.6022454770696235
23	0x3fe6da99e128b79c	0.7141847036016205
24	0x3fdf3b3804b3bb88	0.48798943003833317
25	0x3fe8f909e6f0b95d	0.7804002295068063
26	0x3fed16c3683a2e56	0.9090287242592676
27	0x3fe501855175813b	0.6564356413837581
28	0x3fe3c5902172eb91	0.6178665784167255
29	0x3fe30f6d52e0cbdc	0.5956331843102549
30	0x3fdd2d8d7a4ad683	0.45590531294451625
31	0x3fe62d2ae22a7b93	0.6930136124900507

bias f8 [32]
0	0x3fd79d32bcb09579	0.3689696161912575
1	0xbff5431e4a8ee29d	-1.3288863098552277
2	0xbff6609717beae23	-1.3985815932782166
3	0x3fec15f947872e43	0.8776823422462673
4	0x3fcf5e822e87bb01	0.24507167121870313
5	0xbff112e85c1dc26a	-1.0671161268511704
6	0xbff7071dd242e8ec	-1.439237424214805
7	0xbfd930977c3f9b9a	-0.3935908044208475
8	0xbfeaabbf954ec1c4	-0.8334653774418759
9	0xbff198df85cd40f5	-1.0998225428230033
10	0xbfeb4c3c7f7b94a3	-0.8530561914345934
11	0xbfec778355f3fac3	-0.8895889929552471
12	0xbfefb26b4478594d	-0.9905296647364509
13	0xbfd9283db3165e74	-0.39308111657144384
14	0xbff468825619f046	-1.2755149234135543
15	0xbfec48aa925f2fb3	-0.883870397455658
16	0xbfeccb54e988dc3b	-0.8998207627508984
17	0x3fd2b71d158ba5ed	0.292426367798355
18	0xbff0ea4e8b80cf1c	-1.0572038125364491
19	0xbfe9d19eed5589c5	-0.8068384776527685
20	0xbfea3f175bd5493f	-0.820201567994708
21	0xbfddffb629dd9fe7	-0.4687323960156377
22	0xbff83b3878c401d0	-1.514458152523833
23	0xbfd698fb6bd072d5	-0.35308728722320143
24	0xbfe7b3b9419f879f	-0.7406889230444341
25	0xbff1b566c2bc105a	-1.1067874533482809
26	0xbfde063544b0daf1	-0.46912891109552307
27	0xbfec5c3dcc6b98d7	-0.8862599365791323
28	0xbff05fb0ea86edc5	-1.0233620797360896
29	0xbfe7af3ad31b8b2b	-0.7401403544612085
30	0xbff51f1f9c7a261e	-1.3200985062015955
31	0xbff1ce20dcd4da2c	-1.1128243089893983

running_mean f8 [32]
0	0xc0055b4e432ac4c7	-2.6695828673769912
1	0x40167b693c1a3ead	5.620518626310212
2	0x401937738810bc07	6.304151655217544
3	0xc024facd564f7534	-10.48984784812874
4	0x3fd93358c3b4a074	0.39375895606872935
5	0xc01a63c9c829ad5d	-6.597449424308562
6	0xc0069a64e5570e7a	-2.825387756079917
7	0x40201e6f2f67d506	8.059442025589771
8	0x4000b960e5c3f566	2.090516848604852
9	0x40184ab6f8003140	6.072963595401518
10	0xc0077be6e52ddca0	-2.935498991453258
11	0x400715fe1294f5c3	2.885738511248492
12	0x400db378e4facf6e	3.7126329316178532
13	0x400ff2e71357e42d	3.993604804153185
14	0x400e7ae65443e72e	3.8100096305105557
15	0x401da47512ccdd58	7.41060284972567
16	0xc0052cb7bee5d1c0	-2.646834842098741
17	0xc01012284ec21fea	-4.017731886480741
18	0x401af0eaeacc913c	6.735271137939261
19	0x40028cf119c8c826	2.318819238128543
20	0x401cce94c8616436	7.20173943609648
21	0xbfef1601908ab06a	-0.9714362929421558
22	0x3fe3217d40aa7c15	0.5978380454070044
23	0xbffbf49ee77c561b	-1.7472218553933831
24	0x3fd61ee62cae8bd1	0.34563593257388187
25	0x4000ca801ba7f0c4	2.0988771591783877
26	0xc0154baf8234e285	-5.3239116997507425
27	0xc00001abc75e106a	-2.000815923269376
28	0x401a14f1249fa699	6.520451137775717
29	0x40029324631dc4c7	2.3218467467746424
30	0x4014bc41d40421cc	5.183844864608954
31	0x3ffa4b193d2a3e43	1.643334616590338

running_var f8 [32]
0	0x40617d5c83e3582f	139.9175433578798
1	0x404b3016c05109ac	54.3756943126385
2	0x4051aae6fe82415e	70.67034876556633
3	0x406855ebabeb2869	194.68501850060719
4	0x4044fffe67b30b8c	41.99995132677495
5	0x4032563261a2624c	18.336706258911633
6	0x402d8af629a13d13	14.771409321720546
7	0x405247ab4b115e14	73.11982990928692
8	0x4066d60d3564e5cb	182.68911237436836
9	0x405ac9a23c07b97a	107.15052700762126
10	0x403dcfa62b11a169	29.811129276089023
11	0x404dfdb72ec99937	59.98215279430081
12	0x403c8fa7cae1a0c1	28.561154060444782
13	0x403305a6176a7d5f	19.022065604685277
14	0x4048c6dd2b5f22e5	49.55362455506637
15	0x40478a3ee6ccfcf5	47.080044603435375
16	0x402693b487322dc6	11.288486695170729
17	0x4052d893a62c9559	75.3840117869744
18	0x4052d6afc328f92d	75.35447768212607
19	0x403ea822441ffe2e	30.656772859392895
20	0x4038ff445322ae7e	24.997136302916708
21	0x402333e4e346652e	9.60135565027539
22	0x4040dd5cd4e60ed0	33.729395496685925
23	0x405cba375426d7e7	114.9096269969301
24	0x4047b8be7a48ac44	47.44331291721804
25	0x404900fa4a83e55d	50.007638277437515
26	0x405f368ec2ba44de	124.85246341886838
27	0x403b568fed593d35	27.338133653914344
28	0x405188c905347a5f	70.1372693073731
29	0x402ecf27ed8ad749	15.40460150070034
30	0x403a81cde658be2d	26.50704803148817
31	0x4043e902dcbe8d28	39.82039984993236
