Model/ColorNet.pt (torch, 38751 bytes, 60 tensors)

weight f8 [3, 1, 8, 8]
00000000: 02a0 d252 ce8d c43f e48a 0e01 7374 b0bf
00000010: 4139 dd03 9c6c b0bf 3c4b 9617 1807 afbf
00000020: ca95 d97a 3e08 83bf dff2 18e0 a483 ac3f
00000030: c667 85ec 4000 6bbf 22e0 d76e 6f3a c53f
00000040: d4d9 ec54 44eb b9bf 9da7 719c f293 c83f
00000050: e65a 4604 8f1f 7d3f 0275 10d5 4643 c23f
00000060: 1111 9b8b f4aa b33f 4bbf bc0a 223b ae3f
00000070: c87b a910 2a69 b9bf 1eed b244 ba80 ce3f
00000080: 577f 3ce5 766b 913f a08c 1274 7c0b bf3f
00000090: 1961 4591 a4a1 c23f e2d4 1b56 1e77 963f
000000a0: aa71 caf4 294e c23f 05b7 8c9f 0c85 c4bf
000000b0: 6d95 99b4 61c7 bfbf 0d80 405e 97d5 c93f
000000c0: 349f c5eb b913 b5bf d8e5 ad99 0a8d c23f
000000d0: ac96 1964 cba8 9fbf c28d 2f3b e8c1 c2bf
000000e0: 69b5 8564 d6fe cf3f 8ddd 8084 d8af bdbf
000000f0: 5cb7 3c75 057c c5bf 6dde 3a62 3db5 b33f
00000100: 2235 4685 6ec3 c4bf a738 f2fb b91a 503f
00000110: fe23 a643 148e c83f 77d6 4a60 0ada c33f
00000120: 2c5d bee0 56be b0bf 6429 9a4d 4603 82bf
00000130: 8f1d 9895 0e77 8d3f 784e fb1e 4d85 b53f
00000140: c604 9b86 c7c1 b1bf d405 cb46 955d c23f
00000150: 7c0b 646c edd7 c03f b655 40a8 1beb ae3f
00000160: 338b 2a97 799d a53f e6c2 9654 6965 883f
00000170: fdeb 3e5a 4242 a3bf ffd4 6a5b 5273 b2bf
00000180: f02a af91 a28b 9abf bb0c 0ec4 7529 8a3f
00000190: bee7 0546 1b3d c53f 5557 3c55 3b5e 9cbf
000001a0: fc8b 29d3 470b ae3f 270e d6d0 8750 bb3f
000001b0: 848c 4566 b6c4 bf3f a548 6507 365c c03f
000001c0: 76af 9b9e eb05 a93f 6a72 743a 4f70 9a3f
000001d0: 973d 6254 84f2 b93f d52c 6403 6006 b43f
000001e0: 3f84 f137 ed33 a73f d0f3 6323 a1c6 c33f
000001f0: 4aee df56 df23 c13f c7c0 3c0d 135a 74bf
00000200: cf1d 0ea4 adee a3bf 971a f9de 2966 9dbf
00000210: cf8e f8c3 fa2e bf3f b81f 3336 7129 acbf
00000220: d978 b553 0002 c03f 7dd5 35cb fc11 d2bf
00000230: 8f75 a8bb 2d12 c4bf 57bf 7dcb 895a d6bf
00000240: 8ac6 ccd8 367f af3f 551d 9811 73e5 8f3f
00000250: 2095 83fb 17e9 bc3f 39a2 27a6 55ad dc3f
00000260: a0b1 00d4 c702 d83f 7722 2269 519e c6bf
00000270: 7413 5216 6834 c0bf 42b9 4249 6038 cabf
00000280: c54a caa6 f06f c43f 6739 a107 3397 ba3f
00000290: 8360 1b3c 35be c33f b0e3 0536 27b1 db3f
000002a0: 216b e189 4ec0 d83f c593 fa3c 10e4 bfbf
000002b0: 98d0 28e6 282c c4bf f266 52c9 40dc d3bf
000002c0: 2bba 2417 22e0 8f3f 8714 ceab 233d bdbf
000002d0: cb94 813a a4b4 c4bf 0722 4c2d 84bf a23f
000002e0: 5a34 8d94 d0f4 ba3f 8e88 c023 4f83 d4bf
000002f0: bd33 ffba 836a d3bf cd60 9acf 84e2 c9bf
00000300: 732a 02e7 bffb bf3f 7153 f036 a657 b4bf
00000310: 06ef 767b 829a c8bf 5e37 fd5b 1c75 c2bf
00000320: f3be a526 504a 93bf b4c5 d7e5 c0d1 d9bf
00000330: f0f8 531a 7cb5 cfbf 7fa0 22e2 c8a2 d4bf
00000340: d4a7 0f23 fefa c73f 4283 cfa7 2b42 a6bf
00000350: f1a1 113f c70a a23f d1c8 4ff0 3e3f e03f
00000360: 2d79 f3ba 7e85 e03f 4ca0 3f13 6224 d2bf
00000370: 411a fcde 7c33 c6bf 12f4 a867 3722 d6bf
00000380: 5403 e467 1c9b b73f ebef ec3a a31e b43f
00000390: 6354 d46b bb0d 4abf a36f 5726 6a6f d83f
000003a0: c40a 748f 3a99 dc3f 9877 8628 eb60 d6bf
000003b0: 4a7d 8f06 3814 d0bf 1877 2641 247b c9bf
000003c0: d95f d00c 6a49 c83f 0807 2ae5 c1bb c13f
000003d0: 4a3e 20b9 21f7 9b3f 55ba 2a91 7d9f d93f
000003e0: ce6a ee53 26cd dc3f ab96 b941 e75f d1bf
000003f0: e43a 0cd0 bb13 bdbf af69 b0ff 76fa c8bf
00000400: 48ef 7d51 6be3 b2bf a84b 8e4d 47f0 c1bf
00000410: 9b90 0269 22e0 b9bf 8a12 ef77 386e a73f
00000420: 72f4 ce3e 8386 bcbf 78d0 6f8f e62f c0bf
00000430: a109 209d 8865 c2bf 0337 7c6d e009 bfbf
00000440: b576 a67f eeeb 3abf d596 5299 e287 aa3f
00000450: 8b12 c4a3 a178 6abf 260a ea87 d808 b23f
00000460: c099 bdfc d0e2 a13f 8be5 1040 ec88 27bf
00000470: fa25 bb7b d671 bdbf bb7a 0e20 68c3 ab3f
00000480: 24de ad96 af19 c4bf 2ce8 e9ac b8be b6bf
00000490: 4ea9 2c83 25b9 c1bf 9441 169c 51a2 69bf
000004a0: c3f0 5595 aa0e b53f 0ddc c885 1364 b2bf
000004b0: 903e a210 f693 93bf 72da bf3b 8f1d a83f
000004c0: e5ea eca2 8ff1 bdbf 9371 7796 e371 6cbf
000004d0: 29d0 4015 6267 b6bf a1ea 0fb6 3f7b a33f
000004e0: 5324 c313 985f 88bf 3f28 2629 32d7 bfbf
000004f0: b8fb b510 f391 90bf 1cdb 8aeb 9f36 b2bf
00000500: 102f 8bf0 1d17 c5bf bfee 84ec d5d8 ae3f
00000510: 221c 535e f286 c0bf 75eb 9b2f c0da c0bf
00000520: 8edb 341e 7012 d23f d0fa 03be d95f b13f
00000530: aedb 5445 b801 bdbf 4f2b 334a 04f8 a73f
00000540: 0dbe 4b1c b14e c3bf 37fd 3a54 5fed bcbf
00000550: fd8f 53b8 e866 c0bf f868 9828 b0db c1bf
00000560: cf3e 039a 73cf a2bf 1267 6875 ef38 c4bf
00000570: 9a7d dadf 2645 81bf 3990 ad7d 1b9a 933f
00000580: 663d 9aa5 db28 a93f ba46 82b0 53c9 a83f
00000590: 626e 869c 6245 abbf 015f a03f 80a1 a83f
000005a0: 606e 38ce eb83 bfbf 4560 0f39 2d56 bdbf
000005b0: 513d 4e5c 94c4 a8bf 8f74 21ef eac5 a33f
000005c0: 8678 57cc 9e8a b2bf 13bc 1692 cf2e a53f
000005d0: a976 2bdd 42a4 a9bf 221d 6949 15b3 a0bf
000005e0: 1652 b7f6 6b5c a73f 7a64 15cf b2be a2bf
000005f0: a703 6c51 7435 b7bf f5c7 ac24 1e70 babf
0.16057757419662272 -0.06427687431145618 -0.06415724844302863 -0.0606009987633542 -0.009293068050463388 0.05569186435284278 -0.0032960193677071562 0.16584580337780702
-0.10124613831872092 0.19201500548234388 0.0071101748075281575 0.14267812160043297 0.07682732017844197 0.059044898806290456 -0.09926093012607773 0.23830345491828892
0.01701150678775262 0.12126901468086482 0.14555794804869818 0.021938776021632196 0.14301037266421918 -0.16031034269820324 -0.12413607272318013 0.20183078863283335
-0.08233224874640827 0.14492924217101577 -0.030917337402931608 -0.14654257669381648 0.24996452244105719 -0.11596444354005638 -0.16784733032676058 0.07698424957458778
-0.1622141028168836 0.0009829345943077967 0.19183591178105525 0.15509156896375817 -0.06540434824852487 -0.008795308345061321 0.014387239399197308 0.08406526571644146
-0.06936308895366769 0.14348092991535444 0.1315895823718981 0.06038748196457837 0.04221706362047541 0.011912176984738076 -0.03761489249833259 -0.07207216960781081
-0.02592329038797464 0.012774391217823191 0.16592732352347456 -0.02770321567285035 0.058679813887259485 0.1066975483755007 0.12409534451357912 0.12781405793299885
0.04887329398283573 0.025819051688005613 0.10135676441335871 0.07822227556987411 0.04531804378417136 0.15449918964432507 0.13390723936014332 -0.0049687141616205415
-0.038930345798742765 -0.028710035547443082 0.1218106010861064 -0.0550036791478869 0.1250610741362326 -0.28234786839251297 -0.15680476820936604 -0.349276016923786
0.061517442669708336 0.015574358915741252 0.1129317273185575 0.4480795023542075 0.37516971305265123 -0.1767064822527293 -0.12659932222245696 -0.20484546258144049
0.159666139069108 0.10386961876176813 0.1542421859255719 0.4326875712936795 0.38673747506043027 -0.12457372177830368 -0.15759764898541984 -0.3103181806596772
0.015564218837053797 -0.11421416229684854 -0.16176274163004786 0.03661740353533465 0.10529807688472329 -0.3205144738332216 -0.303376133550781 -0.20222530495516935
0.12493514432768808 -0.07946242181090014 -0.19221526173156905 -0.1441989373365073 -0.018838169440129126 -0.40342733808128206 -0.2477259758524677 -0.32243558963319424
0.18734719001741829 -0.04347359107464978 0.0352384819496513 0.5077204412066526 0.5162957812679331 -0.2834706485723515 -0.17344628227165695 -0.34583840487522466
0.09221055542367412 0.07859249294864383 -0.0007950940268154457 0.3818002104214832 0.4468523407851246 -0.34966544110818054 -0.25123406067537657 -0.1990704839817503
0.18974042535478367 0.1385424012151406 0.027309920238677322 0.40035952736335406 0.4500213451043863 -0.271478475746657 -0.11358236150065754 -0.19514358029193832
-0.07378264178799754 -0.1401452187243113 -0.10107626975747268 0.04576279129063206 -0.11142750056656484 -0.12646181110142485 -0.1437235610211021 -0.12124445603350513
-0.0004107911369376314 0.05181797143567982 -0.003231349661407206 0.07044747656076619 0.034933596470000605 -0.00017955669321327266 -0.11501827736642403 0.054225210106996845
-0.15703387124425305 -0.08884767743612149 -0.13846272377970553 -0.00312915744206794 0.08225504060641513 -0.07183954254365706 -0.019119114651913238 0.04710052112925646
-0.11696717956230492 -0.0034722752641142634 -0.0875150014770162 0.03804968926848074 -0.011901081183525763 -0.12437737946143644 -0.01618175305838651 -0.07114600658938425
-0.16476797337815485 0.06024807464788528 -0.1291182480401583 -0.13167574238454063 0.28237536382533157 0.0678688134102956 -0.1133074921861936 0.04681409269104241
-0.15083898431429113 -0.11299701506049052 -0.12814053535760186 -0.13951684934801967 -0.03673897986447871 -0.1579875300674805 -0.008432677942720446 0.01914256052567984
0.049139846768521164 0.04841100244187886 -0.05326374207217267 0.04810715462389049 -0.12310670647314614 -0.11459620135372102 -0.0483747828176272 0.0386193673045706
-0.07242767800150504 0.04137276323614727 -0.05008133840395363 -0.03261629601598261 0.04562699686690423 -0.036611163882022305 -0.09065939891662698 -0.10327328105338991

bias f8 [3]
00000000: 18aa 0f8f 11b7 aa3f 5dc8 9bb2 52b7 723f
00000010: 9a46 0aaf b7ab 823f
0.05217795249321372 0.004569361722802948 0.009116587666798726

weight f8 [3]
00000000: 35e0 83d6 81e9 ee3f 7dee 8474 ac4e ea3f
00000010: 105a d862 4bb0 f03f
0.9660042943714929 0.8221037174002529 1.0430406438005129

bias f8 [3]
00000000: fe8e 71b7 a748 b03f 3589 c438 e4bd c03f
00000010: 4d29 9e73 91e6 aabf
0.06360862949946619 0.1307950284181715 -0.05254034553861917

running_mean f8 [3]
00000000: 2354 970b 9405 0440 84fe 20ca ed53 dcbf
00000010: a0b0 fe63 5c78 04c0
2.5027237802082865 -0.44262261141918935 -2.5587699710941507

running_var f8 [3]
00000000: 2233 742c b7c9 b43f 2fba c7a9 83c2 e43f
00000010: 6b6a 39f9 d027 bb3f
0.08120293460178776 0.648744422532962 0.10607629856660032

weight f8 [3, 3, 8, 8]
00000000: 757c 01c1 cee8 b93f 8783 2b52 f2aa b03f
00000010: 6a50 e006 9ac4 b73f a367 7ac6 e395 bb3f
00000020: dead 7a78 7dec b53f ea30 0aef b9df 893f
00000030: 29ea 4c1a 56bb c13f 68b4 d849 668d b13f
00000040: ff06 e7a5 6b3b 8d3f 6f5c f06d 7e05 c13f
00000050: 02a2 dd37 02b7 9c3f 72e6 68e3 be21 ce3f
00000060: 7b27 b113 b184 c3bf 76e3 ebc6 e268 c83f
00000070: cba5 f998 f82a c63f c90a debf 5f0b cfbf
00000080: b20c 5836 b858 b9bf 34fe ae39 3277 90bf
00000090: 63c4 3fb0 ca52 a8bf 73e6 d799 9b3a adbf
000000a0: 3fa5 48f7 030e bcbf aa7e 1438 16df 70bf
000000b0: a751 71f6 71ac 8c3f 7262 f8f1 fc0b b2bf
000000c0: 63e4 54f8 dbd7 ae3f 8930 6762 d7a2 d03f
000000d0: cffe 1927 539e b43f 6774 538b b8a3 ca3f
000000e0: 59c0 88d0 be2d c1bf af09 7b29 e908 d03f
000000f0: 2627 a80e 0cbf d33f 1200 bf16 3de5 c1bf
00000100: d63a 0998 d295 a3bf b57b db64 38b6 91bf
00000110: 8522 fea2 3fe6 b2bf 4477 0e53 3148 903f
00000120: ec67 ddf8 f490 9fbf 9cf5 5b75 793e 99bf
00000130: b824 f9c2 1d7f 7f3f 96e8 0571 1145 9abf
00000140: be61 903b 10fd aa3f 1446 5d7a 867d b83f
00000150: bcda 41a7 0337 b03f 7298 516b aa62 c43f
00000160: f7d3 ce3d 12a4 a8bf df3a 7d92 a31e cb3f
00000170: 9db7 be2b 8a79 d73f 6c62 4424 fa04 d5bf
00000180: b716 870e e2ce b03f 8be6 2e69 7b99 a73f
00000190: b40f 8782 89a4 923f 9428 e90c 04a3 cb3f
000001a0: 6a9f 3194 69b8 acbf c905 aed7 c7b7 d33f
000001b0: 81e6 b936 f908 d33f dd98 e703 0e9a cdbf
000001c0: 31be 718f 6fe6 94bf c979 2d81 f484 ce3f
000001d0: 7706 9143 1e19 b73f 8f3f 4987 475b d33f
000001e0: d82f 4a9d f78a 82bf 72af 350d 7a29 d13f
000001f0: 5c4b 6aa3 8b61 db3f 0723 51d6 0815 dbbf
00000200: 4e19 be6a dc26 b03f fcf4 2afc df17 a83f
00000210: b9cc a91c e128 afbf ceb2 cb69 5190 83bf
00000220: 30c9 7e2e 2b4f 693f 5f47 a8d3 171d 89bf
00000230: 72bf c4af aafe 4f3f 3a86 887a 34f6 bf3f
00000240: 0e9e 2011 e24b a13f 23c6 4566 d0f3 97bf
00000250: 1241 88b2 f19d 65bf 3963 0ee7 e3d7 a1bf
00000260: c1c5 d446 3a08 b23f 4604 a133 2dbb b63f
00000270: 87fb 9b39 3c3c 953f 5885 ae5e 26eb c73f
00000280: 3469 c68c 47f6 a9bf a475 9568 f935 b4bf
00000290: 7e2d c350 9487 bebf ce35 2f86 6d2b bebf
000002a0: 2128 8560 d2bc b8bf fafc 36a0 0af1 74bf
000002b0: 002c 179a 7b01 adbf abf4 6124 8133 b0bf
000002c0: 8296 f9a3 5473 b13f 20d7 ed5c d184 93bf
000002d0: 65cd 2c1e 5f5e a83f f876 c228 8c5e cbbf
000002e0: d8aa 6626 e14f b13f 4273 f574 79d3 a33f
000002f0: 5326 299b 2cdf b53f c164 e577 119c d23f
00000300: d80c f9b7 2a85 b5bf 9cd2 e794 00b8 b4bf
00000310: 6983 b0ba 1c39 b3bf c1e6 0455 3de7 cbbf
00000320: 812f bb1e 459f bebf 192b 6a54 3de2 babf
00000330: be7a 9872 1bc0 c3bf ca33 67e8 7674 c63f
00000340: 79ad 036d fb87 a2bf c8c6 0af7 3ba4 c9bf
00000350: d67a 8a48 bd80 a4bf 7044 03a6 d96f d2bf
00000360: 3394 ec18 ed33 b73f 66aa 8656 6b18 b4bf
00000370: 3e6a 4e6c ce9f c1bf a756 40e5 2e9c d03f
00000380: d892 43c9 af93 a8bf d71a 3883 8bfc b7bf
00000390: dbe2 f03f fca2 b8bf b7e1 7aaa 8b09 d7bf
000003a0: 47b4 5e77 7f9a 923f 3774 f410 d657 c0bf
000003b0: 9b19 f2a5 d713 b4bf 1aa5 3ac6 64b2 ca3f
000003c0: b977 270d 3e4c a6bf 3b69 ace2 e472 c1bf
000003d0: 281e ae6c b9d2 aebf 35f6 54dc f26f d5bf
000003e0: c762 bf5b d6fd 9dbf 9e3e eb7a 810c c5bf
000003f0: 81c8 571e cc5b a4bf 4c98 0728 3cea ca3f
00000400: a09b 0bd3 5eeb b23f 15bb dc38 7e35 b33f
00000410: c732 7e27 7661 9b3f e567 fa56 6001 7dbf
00000420: 7dac 34c5 e480 a13f 5995 5047 31a6 b13f
00000430: a810 96bf 85e3 b33f f378 02cc 2ced 903f
00000440: 4a1b 0d4d 6776 ab3f c044 1d1f 0f33 75bf
00000450: 3b31 e19d 5007 983f a53a 402b 0e0c d3bf
00000460: 9898 c919 3e8c bfbf 7497 df2e 7093 afbf
00000470: 5dd6 da24 a8e3 b8bf da9e 0f75 67eb c0bf
00000480: 5d04 38a6 0891 c1bf 53b1 5601 0753 943f
00000490: db8a 1128 1d4f acbf a414 18da 231d c0bf
000004a0: a30f 2d59 b3d7 b3bf 6b94 b18f 30cb 8c3f
000004b0: 7792 2490 36b4 bebf fc7b 562a 5a63 a3bf
000004c0: c658 14fd bc16 a8bf 5aa2 eca0 35fa ab3f
000004d0: a04c d96c b669 80bf c3d3 1039 6439 cebf
000004e0: 89dd ace5 2b94 c0bf dd1d 3232 c567 c3bf
000004f0: d79a bf36 a752 cebf 1d1e c311 76e7 b1bf
00000500: 9f0f 3c25 1098 c6bf 9133 18ac b87b bfbf
00000510: 7a12 22bf 9474 c1bf 18ce fb20 8198 b9bf
00000520: e162 bf3f 0693 bcbf c5d0 bd5d 3151 b2bf
00000530: 65f0 c3dc 5959 a5bf 7b20 755a 3f12 c0bf
00000540: 1593 4b6a 2351 6a3f 429d 6472 28ae c03f
00000550: 1715 b24b 67e8 c23f 3545 dc87 fe44 bfbf
00000560: f425 fe79 8548 bfbf 2760 1708 6d7f bebf
00000570: 7190 4b8d 22f9 d9bf 4c0a fbff 294f b4bf
00000580: c748 792d c6ff b03f f987 0ec4 166a a53f
00000590: d3ce 0b6b f697 c13f eaaa 27b1 d79a c8bf
000005a0: 7254 96bf 7eb7 b3bf f49f 27d9 6a32 c9bf
000005b0: 6c7a 7ef1 2726 d8bf dcea d464 87a7 d2bf
000005c0: c43e d161 8947 a33f 79fc 43f2 10fb b33f
000005d0: 5fcf 94ed 3e23 923f 3ba4 4c5a a8b7 cabf
000005e0: d680 296f ade3 aabf 088a 5e69 f3d7 c4bf
000005f0: bdd8 8865 a8a1 d7bf 3016 2079 b16a c3bf
00000600: 0aab a54b 9d90 c0bf 9ce5 d4e1 d8ec bb3f
00000610: 4b48 4b1f 5829 b53f f0de 4ced d803 9d3f
00000620: ef06 42ec ca59 7ebf 98cd 24b2 7014 b23f
00000630: f449 a234 601f ba3f 22b8 abf9 5f48 97bf
00000640: c9be f89e 2db1 9ebf 8665 fd28 795c a3bf
00000650: 3e56 0925 030d af3f 4d76 8add ebf3 a33f
00000660: eaf2 2e57 51c9 babf 967a 5758 8d48 ae3f
00000670: 3559 75c0 a4af ba3f 02d6 0eb6 d853 ddbf
00000680: e8c3 ff5c 2c1a c1bf 31d8 0ec8 e4e6 a8bf
00000690: 5c1a e540 fbdc a1bf b297 3496 a009 b1bf
000006a0: 7256 5dea d423 c1bf 1c20 f570 430b 63bf
000006b0: 7783 79be da5a acbf 8632 f8af e60c a9bf
000006c0: 67da c352 f2af 99bf b2c5 b43f 6995 b7bf
000006d0: bd38 7221 bb40 bb3f 9c25 2b7c 9a59 9d3f
000006e0: ff31 02f1 fc6b abbf 3290 0255 7c04 bf3f
000006f0: 9b44 27b2 a115 4abf 19e2 3327 f070 c4bf
00000700: 68f2 d454 1a6c 99bf 7db2 9c19 ea9e 623f
00000710: 4ad1 c050 4b69 a8bf ee42 78de bb2d b4bf
00000720: 4c40 eeda e5d5 923f 1403 dd45 ebd7 b2bf
00000730: d2a1 cd48 089b 98bf 1552 7232 7ba1 893f
00000740: 1c15 6c60 0ee3 bfbf 41e7 9f5e 36cd c3bf
00000750: 7c29 ba18 de66 763f 7d2c 79e3 4a30 8cbf
00000760: e7de 51e2 90aa b9bf 5ff4 f68a 6bb6 a33f
00000770: bc9f 0532 9503 693f ac53 40b1 2f74 d3bf
00000780: a14b 9b3c ae78 b9bf 029e df32 f8fe 843f
00000790: e39c 724f 3e62 bd3f d732 02e7 a92c ad3f
000007a0: 8dac 83f4 ebee b3bf b886 a4b1 ee19 aa3f
000007b0: 859c fe46 f65e b83f a1ea 9796 10e4 cebf
000007c0: f875 1485 1d64 52bf 78ad 7e3a 96af 82bf
000007d0: 438e 8b71 a4a2 a43f a0d1 93af 4f25 b93f
000007e0: 061f 2450 b9fa b8bf 570c ce70 ee48 b23f
000007f0: 1f7e 27f9 7731 b23f f2d0 7f56 8e19 c3bf
0.10120861255698961 0.06510843759634898 0.09284365337254177 0.1077558860364705 0.08563980285060022 0.012633755309501688 0.13852955135537684 0.06856383612530836
0.0142734918598566 0.13298015945540295 0.028041872653746587 0.23540483573906418 -0.1524869295265566 0.19070086205445208 0.17318637341968066 -0.24253460758708048
-0.09901000334507407 -0.016079697390294537 -0.04750665093877939 -0.05708776715250687 -0.109588859436049 -0.004119002145017406 0.014000788052876368 -0.07049542338826045
0.06024062544242594 0.2599390469520207 0.08054084496142909 0.2081213646223745 -0.13420853788693668 0.25054387141076523 0.30853558951695204 -0.1398083077492634
-0.038252430972183823 -0.017296677738041406 -0.07382581452669441 0.015900393194548515 -0.03082640427542309 -0.024652383602178682 0.007689586883835968 -0.02565409900987755
0.052711970587725684 0.0956653641453829 0.06333945115498357 0.1592610382096527 -0.04812676434031709 0.2118725266722867 0.366793196410862 -0.3284287790461693
0.06565678457908573 0.04609285029387163 0.01820578440835137 0.2159123480835815 -0.056094455089634135 0.3080920797584353 0.29742269844391706 -0.23126387777956028
-0.020410292749543927 0.2384324675321763 0.09022702359745859 0.30244625293288946 -0.00905412148247102 0.26815654077539997 0.42782870253102145 -0.42315884522808783
0.0630929718591677 0.047057151348306875 -0.060858759640632205 -0.009552608529213382 0.0030895083800369857 -0.012262521883744602 0.0009764035635608638 0.12485054008041
0.03378206690859652 -0.023391014330121373 -0.0026387901928118873 -0.03485023684988282 0.07043804387355747 0.08879358778450905 0.020737591758912124 0.18686370490199056
-0.050707088407948936 -0.07894858172718117 -0.11925627681482884 -0.11785015607821167 -0.09663119179199998 -0.005112687594589044 -0.05665193801868185 -0.06328589571235692
0.06816605571074244 -0.01906134729093545 0.04759499781939772 -0.21382286062446787 0.06762511432195184 0.03872279694289783 0.08543661869148282 0.29077564915276005
-0.08406321517491067 -0.08093265185727677 -0.07509021337365386 -0.21799437190366258 -0.11961776733659059 -0.10501464186578992 -0.15430014701356315 0.17542921397980954
-0.03619371133558053 -0.20032453119852378 -0.04004470358380778 -0.2880767937868489 0.09063608034610197 -0.07849760878040399 -0.13768940246957756 0.2595326651365703
-0.0480017598327202 -0.09369728044121516 -0.09623695908602363 -0.3599576153606238 0.01816748777462276 -0.12768054798007863 -0.0784277706280591 0.20856914214281447
-0.04355043325971004 -0.1363187891773324 -0.06020144893323859 -0.334957804839948 -0.029288625097111855 -0.16444414617443653 -0.03976285810848968 0.2102732844788896
0.07390396740411953 0.07503498924482373 0.026738973770579457 -0.007081390692883692 0.03418650538727606 0.06894214621623486 0.07769046714207894 0.016529750777970652
0.053637722163833404 -0.0051756468472642925 0.02346540416356045 -0.29761080001564216 -0.12323368196084272 -0.06167173931298367 -0.09722376727844435 -0.1321839639269829
-0.1372385799041095 0.019847974259094524 -0.05529109109990823 -0.12588928364872232 -0.0775100796427624 0.014059428582365826 -0.11993733424294271 -0.03786737219638067
-0.04704847897862545 0.05464332188995931 -0.008014130780031714 -0.23612644945538194 -0.12952183451282576 -0.15160431815114253 -0.23689737485184167 -0.06993806775710039
-0.1765155965623508 -0.12298158837820795 -0.13637027104063631 -0.09998328261627198 -0.11161841446245148 -0.07155140436754255 -0.04169731922044732 -0.1255568687140601
0.003212517900794141 0.1303148802337351 0.14771739193035024 -0.12214651886849455 -0.1222003386339095 -0.11913186500112315 -0.4058309917293235 -0.07933294772650717
0.06640280351828941 0.041825019295416106 0.1374500296293407 -0.19222541952270628 -0.07701866319105635 -0.19685111621151885 -0.3773288591709505 -0.29147515150877523
0.03765515631732577 0.07804971613585278 0.017712577105342017 -0.2087297860064455 -0.052518291301341044 -0.16284029622063678 -0.36924180903896425 -0.15169351972888157
-0.12941328233440458 0.10908275140254492 0.08266211284652163 0.02833498905530879 -0.007409851710805645 0.07062439297879164 0.10204125676163028 -0.022737025846190424
-0.029972756221637895 -0.037814890149728206 0.060646150847486244 0.03897034720760626 -0.10463436487675506 0.05914727881803576 0.10424260805789205 -0.45824258593651745
-0.13361124554606296 -0.048636578961506756 -0.034889079734558875 -0.06655315081715577 -0.13390599673828124 -0.0023247067653393693 -0.05538066458826212 -0.04892655275407258
-0.025085245420053328 -0.09212358289075587 0.10645646635586821 0.028662122563024903 -0.053558258457176315 0.12116219592513813 -0.0007960357218569526 -0.15969659723465737
-0.024826442172740576 0.002273041941313557 -0.04767833100086934 -0.07882284337416554 0.018394080626933637 -0.0736071630062834 -0.02402890152316834 0.012515032269484508
-0.12455835203225657 -0.15470008488028422 0.005469195904547749 -0.01376398569768455 -0.1002588799036591 0.038501129830799334 0.003053466222059568 -0.3039664488763332
-0.0994976900067699 0.01025194077733627 0.11478032531396169 0.05698138184479767 -0.0778644058188311 0.05097909849633936 0.09519900544420253 -0.24133498528666045
-0.0011225021629067671 -0.00912396780025547 0.04030336271332804 0.09822557484205285 -0.09757574278421197 0.07142534498238838 0.0710673316275394 -0.14921740745160822

bias f8 [3]
00000000: 77cf ea48 7983 863f ca58 2887 304e abbf
00000010: 623b 1714 c616 9e3f
0.010992953813321311 -0.05333091401932817 0.029383749939195687

weight f8 [3]
00000000: 3534 6e93 a8c3 f03f 6254 970c 3878 ee3f
00000010: 3672 2e08 4941 ef3f
1.0477681883815084 0.9521751638336691 0.9767193946641501

bias f8 [3]
00000000: 26ad fa54 a01c cb3f 2129 28a8 9fdf b13f
00000010: 5c1c ff6f 165b bc3f
0.2118111052453539 0.06981847625153083 0.1107648871830959

running_mean f8 [3]
00000000: fc58 1851 dddc a13f 5f44 3392 b27a eabf
00000010: b93a 0898 c2dc f0bf
0.03488818755083575 -0.827477727458369 -1.0538965166812615

running_var f8 [3]
00000000: 30fd a0c7 2b73 1d40 f0f4 5f5f 1545 fe3f
00000010: 7309 58cb 7c09 1040
7.362471694184293 1.891866085584578 4.0092651150210825

weight f8 [3, 3, 4, 4]
00000000: 5d0e b0f6 3aaa e63f 9f33 35c1 dd7a da3f
00000010: b592 8962 cda4 d13f fae8 1812 8bcc ccbf
00000020: 3005 499e 3c7e b53f cd3b cd16 5818 69bf
00000030: 8525 7536 60e3 d2bf 613e 104e 0f91 cdbf
00000040: 0444 3d98 afa5 95bf faaa c192 f50a c43f
00000050: 89d3 c900 b276 aa3f 2816 2b99 90e5 c2bf
00000060: 392c 5b5a 3703 bcbf 2418 3356 e710 c0bf
00000070: e3ed ba43 88c1 7d3f 90e4 f3d0 a7bf c4bf
00000080: e100 e365 f8c2 e03f 244f d874 042f cebf
00000090: 2e7c c523 e69f cfbf c0d4 bdcf 9635 dbbf
000000a0: ec9f 6397 78fe b43f a7e7 41a6 ab24 b1bf
000000b0: cfa2 eb6d 5725 a1bf e15c a717 ec46 c3bf
000000c0: c520 1f3d 0461 c73f a2c0 f841 957a b83f
000000d0: 91e8 bcc8 c76f c5bf 76c1 142b 5722 d3bf
000000e0: eb34 160c a1e3 d53f 2564 3519 686e b2bf
000000f0: 7109 3ae5 2174 c5bf 885d 6d8a b835 d0bf
00000100: 2fd7 f801 81ad c93f ce30 3055 4715 a13f
00000110: 15b8 0937 8319 d13f e1c0 9cd7 7723 cc3f
00000120: 7c66 6674 010f 88bf 3e84 74a8 0119 a53f
00000130: 17c3 0b17 77a7 cf3f c82c cac3 95a6 c83f
00000140: e6c1 e4ee 3a16 68bf 0b34 dddb 9e4c b23f
00000150: b410 f1d3 a523 d73f de0d 015a 2dc4 bb3f
00000160: 9030 0946 5c4a b13f d650 9fc3 e9ff bb3f
00000170: e60c 83ce 5a9e d53f 3d0d 414c a525 d53f
00000180: b812 704a 9000 ccbf 1181 7192 8ddc d2bf
00000190: 0658 2dc1 5d9e d83f 4279 7e0e 6bbd d1bf
000001a0: 0a91 4a36 ca07 c1bf e2dc bab5 28e4 64bf
000001b0: 79ed 6466 2c95 99bf ea42 5dcf 1714 bbbf
000001c0: ec18 fa04 0794 c0bf 32b2 d953 4851 c6bf
000001d0: 5b88 bd66 e945 d53f d5f6 4ae2 ce33 8fbf
000001e0: 5f50 8e53 0c52 c4bf b35e ad67 bf73 babf
000001f0: 128f 828d bd5e b1bf e586 336e b7ec b9bf
00000200: c35f 5579 6bea 94bf c49a 53ef a482 b23f
00000210: 1b60 45e4 2378 a3bf cf5a 2da8 27dc bebf
00000220: 5bad aff6 a69b b0bf 7f94 6ffc 29d6 9f3f
00000230: 733f fc11 0146 abbf 6db9 ab12 c4fd a53f
00000240: bcc1 1427 5eda 9cbf f96a a5b3 baca c63f
00000250: 2f22 1bf8 8a51 b83f 35e8 e631 93b9 9bbf
00000260: 5c21 bb7b 6c0e aebf f90e 16bb 0aee c53f
00000270: d60e 47cb d1e6 c83f 6057 1c6b 1e83 b1bf
00000280: 5489 7c26 9da8 c83f 655b 5b81 e1ec acbf
00000290: 39d6 d7a7 0cdb a13f 26f7 f13e fab9 7f3f
000002a0: 2c99 144f 3f3f 9bbf f71d ead4 3f40 9f3f
000002b0: 045e 603a 38e8 aabf b9e4 81a1 e644 b23f
000002c0: eafd 7070 6373 bb3f e62a 5ac2 3e6b c53f
000002d0: f820 b7b9 eca2 533f 4643 7d94 7056 c53f
000002e0: 9f4f de0c 052e ca3f e6c2 c102 7bac 9f3f
000002f0: 82b2 a551 6e5f abbf 3781 19d7 8e67 c83f
00000300: 73b4 a5d2 5f86 d93f 7586 9e4e e568 b5bf
00000310: 539e 2d2a ed5d cc3f da13 bb3d 45e5 c1bf
00000320: e86a 35b4 9c08 acbf ec23 bd60 a924 bc3f
00000330: e430 9a24 4182 b1bf 241b 0b7b a78c acbf
00000340: b030 a78a 5df6 da3f bae8 f89a cd6d bebf
00000350: a046 0766 69ea cf3f 050f 137e 6f50 b2bf
00000360: c63e 0af8 e713 8d3f 49d0 c151 6872 c1bf
00000370: e12b 904e 17a8 c0bf 016a b136 8cde c4bf
00000380: 2634 3d2b 7919 c23f 970a c82e 96d5 8abf
00000390: 9a8b 252c dee4 88bf e0a4 3680 7362 b7bf
000003a0: 981a 8e9d 0943 70bf 017a daab b14f a1bf
000003b0: 71aa 493d 5480 a7bf 5316 213a 27e2 bebf
000003c0: 40aa 96da b794 b23f 03e3 d77e 214a 5dbf
000003d0: 96f7 3b90 5470 bc3f faef de33 7dcf b73f
000003e0: d77b 027a ab4d b9bf 7c52 2a0f bf71 b2bf
000003f0: 392b 740c 67e4 c2bf 00ba 95b8 9596 a83f
00000400: 6dd2 3fc8 0cdd 7fbf 8984 4e7a e70f d03f
00000410: bcfa f5b5 d6e3 ae3f 332b 9899 f800 d03f
00000420: 0c73 1e83 2834 af3f b21e f755 cbf6 d03f
00000430: 9ef7 45b6 d978 603f 8f26 beca 25c8 973f
00000440: 637b 3332 19b1 c03f 9f94 6662 197c cc3f
00000450: ce73 3e58 1260 d33f 0e45 b556 cbc7 c93f
00000460: ac32 c28b b13c cb3f f5e2 38cc fb2e dc3f
00000470: 5948 ec87 983f c93f ae9f 498f 8cc1 d63f
0.7082800691718593 0.4137491595072848 0.27568373320381606 -0.22499216445596187 0.08395747055421476 -0.0030633659829741645 -0.2951279193699395 -0.23098937331859573
-0.02113985411353171 0.1565844503960177 0.05168682345985249 -0.14763076285287124 -0.1094240756603292 -0.12551585873569693 0.007264644893151015 -0.1620988626744162
0.5238000860190618 -0.23580985741920657 -0.24706722971584 -0.42514581954248953 0.08200792022728337 -0.06696579751033359 -0.03348801819612889 -0.15060187487572477
0.18264821037724324 0.09562046871792743 -0.16747376729637556 -0.29897097785126137 0.3420183771166438 -0.07199717154925674 -0.16760657971105844 -0.25327886122018883
0.20060741993227668 0.0333654681672627 0.2671821629982117 0.21983240154214115 -0.011747371067758687 0.04120640927636331 0.24729813218393623 0.19258377132459814
-0.002940287689078713 0.0714816366937187 0.36155076692035526 0.10846217582098158 0.06754090032444737 0.10937367464004252 0.33779020468882803 0.3304227108639742
-0.2187672008004904 -0.29471148778067496 0.3846659075255733 -0.2771861688178384 -0.13305022860470955 -0.0025502009501355708 -0.024983114003800353 -0.1057753449688438
-0.12951743834509644 -0.17435554594284636 0.332392072994599 -0.015235534935864528 -0.15875391082647902 -0.10332866936857492 -0.0678518743976009 -0.10126825752697817
-0.020425490646942778 0.0723059734624299 -0.03802597199927523 -0.12054679733169425 -0.06487506411183601 0.031090408356153617 -0.0532684645132794 0.04295170524516121
-0.02817675698787679 0.1780618073633702 0.09499424512171893 -0.027075099869513692 -0.05870379457843697 0.1713269628054304 0.1945440523687611 -0.0684069644451859
0.19264568690511885 -0.056494757691033105 0.034874339569722364 0.007745721362082658 -0.026608456803978317 0.03051852929141138 -0.05255294525721513 0.07136384432841937
0.10722943778181784 0.16733536233763074 0.0011985122463205582 0.1667004323049019 0.2045294106325146 0.03093139843298589 -0.05346245524092287 0.19066033842956084
0.39882655688308616 -0.08363183183112162 0.2216164070080021 -0.1398092795772346 -0.05475320529759192 0.10993441211498095 -0.06839377540217445 -0.05576060654634876
0.4212869504961061 -0.11886296304229207 0.24934117776733888 -0.07153984859456493 0.014198124177056026 -0.13630393974347246 -0.13012973152248633 -0.16304161711271095
0.1414023839119249 -0.013102696707396872 -0.012155280802010716 -0.09134599571429503 -0.003970181999540266 -0.03381114218540305 -0.04590094802991452 -0.12063832444354121
0.07258175932535327 -0.001787693701201743 0.11108902474731361 0.09300978199365764 -0.09884139755966657 -0.07204813118216608 -0.14759529216856906 0.04802387121423024
-0.007779169016420268 0.25097071594252235 0.06033202143861646 0.2500592708535578 0.06094481087277445 0.26506312747049343 0.002010750979194633 0.023224440097271922
0.1304046149370733 0.22253720574113786 0.30273874871801076 0.20140973790925226 0.2127897198119134 0.4403676504476118 0.19725329052795607 0.355563297204294

bias f8 [3]
00000000: 4267 9567 0d66 90bf 2819 ddbd 00f9 bb3f
00000010: f4c0 5b06 a474 b03f
-0.016014298865548733 0.10926823268264185 0.06427979617342655

weight f8 [3]
00000000: 4aac 0c63 181a f73f 47a9 5e44 75a0 e13f
00000010: d1a1 917d be36 e13f
1.4438709134217498 0.5508371672961311 0.5379326298253152

bias f8 [3]
00000000: 81ac 11f7 a95c e03f 361e f5ca 6f81 ddbf
00000010: 03b1 2604 df39 e2bf
0.5113115144316823 -0.4610251886374245 -0.5695643502308773

running_mean f8 [3]
00000000: 59f2 4d31 eb96 ea3f f8bf 7635 7513 c2bf
00000010: 12a1 a075 8d3a f13f
0.8309226954439267 -0.14121880636730544 1.0767950625250404

running_var f8 [3]
00000000: 6aa2 f375 533d 1340 8efa 7b18 760d e73f
00000010: f72f 0961 d0ed 1140
4.809888689990297 0.7203932264527155 4.482240215478661

weight f8 [3, 3, 4, 4]
00000000: 5d98 4a9f 8381 d23f 7753 52b9 9322 c7bf
00000010: 002e 3433 e666 bfbf 5ec5 45b2 7262 c13f
00000020: 2356 013f 04ef b23f 76d2 c43d 07a5 b83f
00000030: 7935 f3dc 03fc c0bf a7a1 442d 2c0f b93f
00000040: c2c2 6e92 dec7 bf3f 87e4 5b40 16f2 90bf
00000050: e75a 3d9b 04d8 c0bf 44d0 4144 639f a3bf
00000060: 2007 6c96 0795 e8bf 6a6b ff57 e352 d8bf
00000070: 2f6d 1a09 23ec d9bf d369 f7d6 6f9d f6bf
00000080: dadb 101e 5515 943f 73e8 314c 0b23 963f
00000090: f9a3 0a56 feb7 c53f 3e0f 4e7d e463 973f
000000a0: 29fe 9b54 96c2 c73f 216e 535c f0ad bc3f
000000b0: 4435 f429 913a ce3f 94fa c360 1bbf bf3f
000000c0: da38 27d6 e014 c33f 84cf 5d1c 2395 adbf
000000d0: e385 58ba bea7 9cbf 6d7b bf25 bb85 c73f
000000e0: fcc3 2a83 737f cb3f 1a78 6474 e4cb 7a3f
000000f0: 3f6b 1ac7 4aa4 c43f 603f 50b8 9659 cabf
00000100: 7b2d 75ad 40b8 b13f 0da6 1cfa 9a9b c43f
00000110: bc3d fc0f 7aca c53f bea3 54c8 fa6a a4bf
00000120: 06c2 fe48 de22 a83f b914 c351 9bf7 c43f
00000130: 11bd 41bb 4885 bf3f 8d84 6529 d628 b8bf
00000140: 0394 4dbc 796f bf3f 8b59 d87c 48ba c03f
00000150: f8ed 54e4 b00d b23f 568a 0cdf 507c bb3f
00000160: a25f 80da 7234 963f 2ca7 25b3 dbca adbf
00000170: 9d59 842a 3cce b6bf d26d 691b cf00 75bf
00000180: 81b3 3c12 898e b23f c89a 75fe cc71 cebf
00000190: 0a2c b7ee 153c d1bf c5d8 b9f4 5490 afbf
000001a0: db11 da55 b346 c33f 02e4 d76e bfba cbbf
000001b0: 0be5 d572 1946 90bf f415 6c56 0b32 a73f
000001c0: 7fc4 3f94 621b ac3f 6199 2f3d f9f0 bcbf
000001d0: e527 ce4c ad7e c9bf 602a 7c16 2140 b0bf
000001e0: 0294 85df 2cc1 e83f 3d59 7269 56e4 cabf
000001f0: 5bba fdc4 01da b5bf 564e 9c37 1ad7 e0bf
00000200: a86f c397 4a27 babf dd29 2660 dba7 aebf
00000210: f856 8604 9df3 b03f b96b b455 55ee afbf
00000220: 941c 19e7 d3af 583f a299 57dd c967 b33f
00000230: 3761 04aa 6840 ca3f 2505 b264 4a37 c5bf
00000240: 792e 6ad5 6a77 c33f ad53 8700 9778 a8bf
00000250: 6561 5bc4 5d7a c83f 9149 a422 fc42 d0bf
00000260: 2b69 90b2 f08e dfbf 56b9 b942 2e8a d13f
00000270: 7f86 10d7 1ffb d03f a6e2 3de5 85b4 bdbf
00000280: 885c 092c 1097 ca3f e5eb 2970 989f cc3f
00000290: 47d3 983e 6473 d53f e3a8 b020 a4ee b2bf
000002a0: a18a be76 a69c b43f 2e6e e13a 2857 a83f
000002b0: eadc b9df 23c9 96bf 30df 1919 2031 cebf
000002c0: 8b66 8480 0f91 c03f 48fe 3673 51a8 ba3f
000002d0: 3baf c088 d2ff c7bf 60a7 f49e cf78 96bf
000002e0: 3d2d 4931 7a1b b1bf 6411 6b29 804a cc3f
000002f0: 9eb8 fdad 94fa d33f fa11 173f 413a acbf
00000300: 99da ba59 f528 d43f b535 2926 c428 cbbf
00000310: 292e 35eb 48e5 c6bf 6b47 0605 96f9 d03f
00000320: 3ea7 109b d24d cd3f 28c4 48e9 122c c7bf
00000330: bb3e cc5b d56f 97bf 4b2d 54f9 c199 9c3f
00000340: 9e43 fe28 7454 c33f 2fd1 36be 5a15 c2bf
00000350: 8588 77a6 f126 c1bf da78 2681 e7f3 b4bf
00000360: 00ee 1cd2 51f9 d73f 46f9 116f 758e dcbf
00000370: 8fb6 8a36 eb4d c0bf 3227 ca14 71d7 d03f
00000380: d3a5 f30b 5e30 c4bf c4bf 0c3a 5128 b9bf
00000390: a7e6 9a8a 6326 a63f e1cc 00d6 edaa d73f
000003a0: cc5e 5c6a 3e64 bdbf 3a95 ce94 3ec1 c3bf
000003b0: 4dd7 dfbe 7336 bebf bdef 52e8 7b50 a73f
000003c0: 4b8b 72ce c59f d1bf 6338 812e f01e d2bf
000003d0: a28c 8f0a dac4 b6bf ee0c 1ecf bd06 d53f
000003e0: 22f8 f222 78bd ccbf 7487 25a4 47fd d7bf
000003f0: 4237 094e 5124 d4bf d6b2 11c1 4e02 a7bf
00000400: 0a6c 72bc d32c b13f 8ea4 3945 36ff c4bf
00000410: 4d76 a1ca d322 d3bf 2425 975c 2723 e13f
00000420: 393e c574 275a a03f 0f65 ec3b 3e5a 82bf
00000430: 8a6d a146 3ca5 97bf 935c b75c 5d34 e53f
00000440: 9f70 d121 fdf5 ba3f 65e5 6648 4774 bdbf
00000450: 1b4a 9185 5e59 74bf 511b 7ed5 64e2 983f
00000460: c279 19b3 47cc a13f 3ae8 e5c2 657c d53f
00000470: a218 9b50 ae8c ad3f 7dc4 4a8f 9242 d63f
0.2891549163417773 -0.1807427077189023 -0.12266386747449332 0.13581689552988058 0.07395960367406267 0.09626813180950386 -0.13269089020324623 0.09788776498010653
0.12414351534858795 -0.01654848831001179 -0.131592346001262 -0.03832540710655555 -0.7681920946053857 -0.3800590857842311 -0.40503765000331077 -1.4134367367865834
0.019612626991342676 0.021618057752200003 0.1696775360226466 0.02284199728775537 0.18562583094898003 0.11202909711885713 0.23616232441455953 0.12400981056632993
0.1490746541662194 -0.057778451168728956 -0.027983646510738935 0.1837686476055426 0.21482700256959208 0.006542103196151694 0.16126379701457869 -0.20585903167420394
0.06921772227103944 0.1609986993073992 0.17024160175831848 -0.03987868972246343 0.04714102402738622 0.16380635731016982 0.12312750407885555 -0.0943731165948682
0.12279473159067326 0.13068491073563523 0.07052140783792271 0.10736566014797097 0.021684450708647447 -0.05818831025938062 -0.08908439672482023 -0.005127724658986437
0.07248741812936822 -0.23784792351508188 -0.26929233848630985 -0.06164803969743241 0.15059510890945557 -0.21663659012099862 -0.015892408021930964 0.04530368261297815
0.054896431538403505 -0.1130519651775095 -0.1991783738160954 -0.06347853468847964 0.7735809674892382 -0.2100933089138354 -0.08535777148584016 -0.5262576185363723
-0.10216203885232622 -0.059874396788547314 0.06621724472492108 -0.062365214073188686 0.0015067643511359795 0.07580243734228145 0.20509060193649883 -0.16574983517424716
0.15208182736056466 -0.04779502755597007 0.1912343224310106 -0.2540884340570751 -0.49309937894726613 0.27405888096008846 0.26532741548917466 -0.11603581282350692
0.20773508215163283 0.2236204669642056 0.335167943124635 -0.07395387456986983 0.08051529311209517 0.047539956271716796 -0.022251663713601134 -0.23587418771398339
0.12942689681294825 0.10413083136426693 -0.1874945800531068 -0.021945232464680386 -0.06682552054660547 0.2210235788571807 0.31216923705404465 -0.0551319493784241
0.31499990236935954 -0.21218158591584105 -0.1788722179866096 0.2652335213725709 0.22893745967422235 -0.18103252783615287 -0.022887548187155753 0.027930289118598222
0.15101482392904314 -0.14127668655204093 -0.1340009749247352 -0.0818466844852738 0.3745922614941435 -0.4461949906034487 -0.12737789309669664 0.2631495192550687
-0.1577260549886846 -0.09827144305449936 0.04326163355785911 0.36980768107168954 -0.1148108491582846 -0.1543348528477198 -0.11801837358492868 0.045535919294223494
-0.27537675057299243 -0.2831383184574234 -0.08894121892767484 0.32853646494204625 -0.2245321436548134 -0.37483397512379857 -0.3147166502065951 -0.044939480846414234
0.06709025717502484 -0.1640384519589912 -0.29900069034724625 0.5355412300497489 0.03193782139225871 -0.008961187556951104 -0.023091260729740472 0.662642174803198
0.10531599116933642 -0.11505551831841883 -0.0049680416351116875 0.024301124125055754 0.0347616582991921 0.335717621164466 0.0577139352222258 0.3478132628761797

bias f8 [3]
00000000: 8020 4b2f 387c b2bf 4d25 6318 0c16 a0bf
00000010: bd52 78d0 a456 b13f
-0.07220793871522524 -0.03141820714661012 0.06772832955932535

weight f8 [3]
00000000: 0960 8ff1 a360 fc3f 4e3a 384a 48e5 e83f
00000010: e703 4568 4a90 d93f
1.773593848794919 0.7779885720827424 0.39943180258347727

bias f8 [3]
00000000: a62f a569 7061 d1bf 6c52 33d1 ec96 dcbf
00000010: 53df 1df8 fb63 e5bf
-0.27157221142692334 -0.44671173505529427 -0.668455109217556

running_mean f8 [3]
00000000: 1af5 20e7 a9b8 f4bf ac00 2823 7b60 e7bf
00000010: cd05 aeb2 4fa7 d1bf
-1.2950839069811253 -0.7305274664540966 -0.27583687257000805

running_var f8 [3]
00000000: 75ca f440 d147 0840 7e0b 379b 2a03 0740
00000010: b88b 4651 772a 1b40
3.0350670885757673 2.876546108834588 6.791470785074971

weight f8 [3, 3, 3, 3]
00000000: de45 c9fd 9d96 d83f 0a2a e0ea 15f7 e23f
00000010: 3718 8e34 36a9 a7bf fa25 8527 779b cc3f
00000020: 1035 132a 3792 df3f 1b81 0633 03ab 95bf
00000030: 3cff 7fbe 4d37 b13f 19ba 84f8 34e7 c33f
00000040: 7295 0e4b 0b33 9b3f 1138 8c3e 867d b23f
00000050: 371b fdd6 b5ae bd3f 0b3d 399f 1908 c93f
00000060: e175 6580 fb28 d03f 9335 6889 2c33 c23f
00000070: 7b2d d995 2bd1 c03f b4a1 34b8 c5bd 83bf
00000080: 7f60 6ef9 d65a 813f 9799 5156 c332 be3f
00000090: ee72 99b1 9e80 c03f f907 9ba2 dfa9 b93f
000000a0: 6dcb f7e2 4873 95bf d777 9084 e59a b03f
000000b0: 2af4 85c4 dcba b93f f58c 1cef e184 bc3f
000000c0: 3930 c77e 0728 ce3f 7256 11cc 790c c7bf
000000d0: 01e9 1da5 e72e aabf c027 0b4f bfb8 cf3f
000000e0: 648e 5dce fce7 d7bf 60bf 9900 3d0d cbbf
000000f0: f99b 5f76 b3c9 c1bf 5d83 6843 0546 d0bf
00000100: 4c27 df9a feae cabf 2ce0 7a72 baf1 dabf
00000110: 8f6e d6d2 5a4e 983f b3c4 9612 d2dd e53f
00000120: cee0 ece8 81d9 a0bf ba5e d575 a48b b73f
00000130: e4b2 047f f99c c6bf 4938 9810 41ee cbbf
00000140: 9b15 bc59 4f00 d4bf 2b9d 5c6c 5b59 b83f
00000150: d445 8da1 4475 e03f 3fbc bf4d 2f89 b1bf
00000160: 3563 6c3d a2be c93f 3035 297e 1ed9 c33f
00000170: 0cae ae79 ed51 c83f 2091 b2e0 068e d13f
00000180: d1ba 01e9 8a1d cabf 286a 44b0 828f 733f
00000190: c9bc a97c 1a50 c43f 8a4d 832d 638b 7a3f
000001a0: 4a15 eb0e cb72 cbbf f43d 101e ac2c c73f
000001b0: c798 2013 20c4 c9bf ea0d 1f1e 5b19 d9bf
000001c0: b7d0 5e9c 141b d2bf 4f2c 71e2 7c32 bb3f
000001d0: 7034 17c8 cf73 d9bf b6d8 b454 d39a adbf
000001e0: 9e5b ae97 3a84 d3bf 58f9 8517 30b4 dbbf
000001f0: d64c a46c d358 d0bf 00b8 3719 3065 d13f
00000200: 19b1 c561 b7ce ccbf 7ea8 f5df af7a c9bf
00000210: b079 d168 b652 b4bf 7221 41c7 2b51 aabf
00000220: 5418 cfde 2248 cabf f569 fc7d 157e d1bf
00000230: 38b0 d859 a93d bbbf f5da 65bc ab14 b1bf
00000240: 1ad8 bb94 497f c0bf e6ef 391b 66b0 ac3f
00000250: 5b72 f71e 976c c2bf 2508 b4bf 04f9 dcbf
00000260: d152 8be9 5d31 cebf b33a 41e2 fcc2 bebf
00000270: f96a dc2e 2503 dfbf 15fa 6e72 cd41 c7bf
00000280: 9957 d19c bcb1 bfbf
0.38419294151125694 0.5926618182577965 -0.04621285811940406 0.22349442891781718 0.4932992850197744 -0.021160173405975074 0.0672501173103201 0.1554933751553598
0.02656190534221054 0.07222785021824076 0.11594711779353593 0.19555969500149958 0.25250136889175506 0.14218670567826716 0.13138336960615135 -0.009639305767067487
0.008474044310603055 0.11796208245650629 0.12892516776891888 0.10024831504691169 -0.020947588780426175 0.06486353384431652 0.10050754354411198 0.11140262687381493
0.2355965966256706 -0.1800682302879753 -0.05113910570703873 0.24782554015683722 -0.3735343947684895 -0.21134150056195278 -0.13896792678789874 -0.2542737158092246
-0.208465409871048 -0.4210039251297555 0.02373639976359115 0.6833277094903195 -0.032909450228943635 0.09197452427667488 -0.17666548444812868 -0.21820843992503772
-0.3125189186397052 0.09511348147917846 0.5143149524030215 -0.06849952362220878 0.20113018035115152 0.1550634494800902 0.19000023309250513 0.2742936319648539
-0.20402656914980935 0.004775534155010898 0.15869456374227855 0.006480586446019907 -0.2144407103389006 0.1810507914346854 -0.2012977689166233 -0.39217260304960055
-0.2829028632215897 0.10623913315173293 -0.39769358196355764 -0.057821849908962816 -0.30494561016660693 -0.43287279412461066 -0.2554215012507489 0.27180101835881487
-0.22505848192248193 -0.19905661044623807 -0.07938709315337777 -0.05140053565316095 -0.20532642249435418 -0.27332055381125936 -0.10640963023678374 -0.06672166204030446
-0.12888450395956924 0.05603331644394398 -0.14393891346016371 -0.4526988861181301 -0.23588155654456114 -0.12016277812765956 -0.4845669705988907 -0.18169563376973544
-0.12380579784925629

bias f8 [3]
00000000: e49b b855 d372 b43f 0f00 5ac3 c88e b9bf
00000010: 977b e2ee b83d b5bf
0.07987709849167818 -0.09983496445966032 -0.08297305900712924

weight f8 [3]
00000000: 2bbc 3bc4 d82d e13f 4ce8 bcb5 c292 f03f
00000010: 05f9 bc0c b642 e63f
0.5368465264017507 1.0358302210938914 0.6956434487144924

bias f8 [3]
00000000: efdd c409 75ed cfbf 8f02 c1f7 3fec e7bf
00000010: bdf6 9a2a 6415 c1bf
-0.24943411805155288 -0.7475890959686512 -0.1334653099092317

running_mean f8 [3]
00000000: 6c47 261e 6d28 e53f d744 c1a4 8c8a d0bf
00000010: 2ebb ac29 51ba e6bf
0.6611848439081149 -0.25845638360358464 -0.7102437795600502

running_var f8 [3]
00000000: f085 774e 8846 e13f 2e22 74dc 941c c73f
00000010: 0737 a8ff 0b11 dd3f
0.539859917884483 0.18055973781908236 0.45416545835983907

weight f8 [3, 3, 2, 2]
00000000: b1cd ed1a 1b79 db3f 5c71 862d 8c5a b23f
00000010: 8551 3619 c762 d13f f6ab 1d23 e7ac cabf
00000020: b562 e347 5c93 babf 688f fad5 3143 d1bf
00000030: 0ccf 2a34 b144 a93f 0be6 df44 439d d93f
00000040: 19c8 0a3d 1c5b b33f ef73 e681 db09 cfbf
00000050: e3a2 87ad ec94 cc3f ff04 331d 93be 60bf
00000060: 8eda d45c 868b bc3f 4988 b170 cc02 dabf
00000070: b210 17c2 ab29 d73f a062 a3a8 f763 f13f
00000080: 83d4 4852 a205 e0bf 54a8 73b7 fde8 9fbf
00000090: b91f df36 75ca c43f 0920 daa9 b2b6 d7bf
000000a0: f068 d4f4 8d2e b3bf bdef f343 14b2 e1bf
000000b0: 12e5 1bd2 f162 bcbf fef6 26c6 a90d c8bf
000000c0: 7a2a bc34 4576 da3f 4231 bea9 d61a d83f
000000d0: ae71 cd3a 0b0a d23f 30d8 2413 7b60 cebf
000000e0: bd03 bb10 3c2a b03f 9e9f 1411 9a4f a93f
000000f0: fe63 cdcf f8dd b5bf b1d7 50c4 3a7e db3f
00000100: fac4 085e 6ec1 a33f b793 e7f6 b2e4 c53f
00000110: 0c9d cc58 362f b63f 3ccc c1f5 8de1 cb3f
0.4292667162873967 0.07169414626554754 0.2716539140904149 -0.20840157713550383 -0.10381104235728851 -0.269726237262367 0.049352204912251535 0.40022355772052326
0.07560898294721631 -0.242488325527034 0.22329481576095764 -0.0020439980813483634 0.11150398031609596 -0.40642081265662405 0.3619183917437666 1.0869061076574908
-0.50068775244894 -0.03116222793770647 0.162428523819697 -0.3705259951316298 -0.07492911555565107 -0.5529881789402605 -0.11088477496732121 -0.18791696715737055
0.41346864843277553 0.3766380937238588 0.2818630289309806 -0.23731935915719893 0.06314444931469061 0.04943543871405541 -0.08541827271746169 0.429579440798416
0.03858513734702203 0.17104184203995285 0.08665790241194687 0.21782087802748318

bias f8 [3]
00000000: ab13 bff2 177c cd3f a597 f314 cd77 cabf
00000010: 0225 1272 7eea b63f
0.23034953453875792 -0.20678103945755058 0.08951559338506246

weight f8 [3]
00000000: a778 c717 bf70 e73f 59c7 bfff 7cb6 e13f
00000010: beb1 8ce7 96fe e63f
0.7325129951893999 0.553526401052504 0.7185778162434457

bias f8 [3]
00000000: 275a 114c 930d f2bf 12a3 d435 d7dd c8bf
00000010: ca9f 841d 3701 d2bf
-1.1283143016240815 -0.19427003982971108 -0.2813241756689392

running_mean f8 [3]
00000000: 5ed8 20e9 8814 d63f 9cb6 62ff c5ac c9bf
00000010: 00cb f6ed 9b8e b73f
0.3450033451694078 -0.20058512659072825 0.09201979217213463

running_var f8 [3]
00000000: 79ca d90d 2a35 bf3f 87f0 fa90 a63b a63f
00000010: bd6b c1e3 06be a03f
0.12190497244027111 0.04342384834078055 0.0326997902891075

weight f8 [3, 3, 2, 2]
00000000: 624b c266 5918 c1bf 1d0f e481 c90b 56bf
00000010: a6a1 1149 2e39 a93f fb12 e988 2f01 dd3f
00000020: a5b9 1407 a2cf ed3f f5d5 4f21 b61c dcbf
00000030: 806f aeda fe33 db3f 8e77 1bfd fa10 c1bf
00000040: f7b1 4e5e ed0f ef3f f85c f1e9 62a5 d9bf
00000050: e015 8a8a bb0b a13f 910b 30a8 b287 aa3f
00000060: eba4 69ab b2d0 d33f e56e fc32 9c4d b2bf
00000070: b698 3a91 670a aebf 8c27 8b56 9141 b0bf
00000080: e5a4 956f dd0e c9bf a1f6 56a7 b2b7 bcbf
00000090: dad3 e027 6253 d3bf 9004 713b c2cb a73f
000000a0: dad7 27a1 e553 d0bf dd0a bdf7 7dce c9bf
000000b0: 239c e9ac 46b9 d0bf 4e48 ba8a 27e1 b83f
000000c0: 6db0 e662 962f d73f c08d 4c38 e539 b63f
000000d0: 9415 cecf be67 433f a7fb b064 940a 99bf
000000e0: fdf0 a4ca 6f5a 62bf 4ae0 3bb4 25f1 b73f
000000f0: 087d e283 7f6d c8bf 8ae6 67a3 f4ca 8f3f
00000100: aec5 9f28 ea95 bcbf 105f 4cf4 d13c bd3f
00000110: 8e4c 9821 0ad4 cabf 991a cb6a ed5b d53f
-0.1335555793526409 -0.0013455837102477948 0.04926437990144743 0.4531973683372567 0.9315958154964404 -0.4392524075804823 0.4250485549507559 -0.13333070143465559
0.9706942407552209 -0.4007193836782359 0.03329263750223865 0.051816542654726246 0.30961291064757174 -0.07149673695351628 -0.05867313049138671 -0.06350048411255055
-0.19576614330734468 -0.11217800698701776 -0.3019643201290002 0.046476430660285506 -0.2551206659112474 -0.201614137617148 -0.26130835424413784 0.09718558442026046
0.36227950723946983 0.0868209135483573 0.0005922013948384424 -0.02445442070552031 -0.0022403891972811994 0.09352336549989207 -0.1908416170090066 0.015523825871230263
-0.11166251651572764 0.11420929159464444 -0.20959593429924833 0.33373580388107765

bias f8 [3]
00000000: 420e 11e8 0538 cabf 651b 669c becf c93f
00000010: 04b4 488a 840d bf3f
-0.20483468848589054 0.20165236126578204 0.12130001426767484

weight f8 [3]
00000000: 07e3 0607 8c2f f23f 48ed f92f 96e6 de3f
00000010: 33bf 90ea 227f e13f
1.1366081499565455 0.48282389340575493 0.5467695790630159

bias f8 [3]
00000000: e7a9 bcce 3db4 9dbf 71bb f57e d74e f1bf
00000010: cf46 5960 ebd4 f1bf
-0.029007879012320627 -1.081748481690479 -1.1144822848913696

running_mean f8 [3]
00000000: f4c4 5ca9 24a9 c8bf ded5 513f f0c8 c93f
00000010: 74ab 64e6 e7b1 be3f
-0.19266184110305284 0.20144465534001105 0.11990212797961225

running_var f8 [3]
00000000: cfc0 1672 fa3a 8b3f 530f a4f8 3871 b13f
00000010: 969e 139d 082d af3f
0.013296085936275763 0.06813388891538112 0.06089045445861278

weight f8 [3, 3, 2, 2]
00000000: 9c64 73cd 217e 9dbf 1322 8c63 a667 e1bf
00000010: bc1b 6bf4 d250 bbbf 8c0d 59a7 5c26 abbf
00000020: a756 af71 b651 cebf a62e 004d 7aa3 dbbf
00000030: 05df 0fac b26c d1bf 8947 2321 6286 9e3f
00000040: d69b 8a85 412c b8bf b88b 8850 0c5f b6bf
00000050: 4851 e139 2eae d0bf 030a bc35 eb55 a33f
00000060: cfce c3bf 6161 983f 3444 ef9f 8484 8fbf
00000070: d653 15a7 c693 9bbf 7468 f30b d328 91bf
00000080: afdf dd76 b55d d33f 86bb 8c47 77b9 cebf
00000090: fc4f 19c9 19c0 72bf b0f8 bc43 f236 adbf
000000a0: 5096 6e15 41f2 d83f 4676 94cf 4777 85bf
000000b0: f834 1ba4 a453 bbbf fe81 cc4d 062e 99bf
000000c0: 1ab2 ce57 9d50 82bf 7aa2 f447 5338 da3f
000000d0: 4dff 7e9e 6b58 8a3f 3a63 71c4 2168 b3bf
000000e0: bb0f 397a 3b7e d23f da45 f322 9a71 b73f
000000f0: 2612 7c7b 20ed dbbf 0af1 23de c2c2 bebf
00000100: 0617 4074 d95e db3f a568 47c4 fb16 c8bf
00000110: 54bf 6c34 29af a23f eaf3 4b03 f31a bbbf
-0.028801468052595966 -0.543902582577234 -0.10670202700849435 -0.05302705328770249 -0.23686867285748756 -0.43185288924790155 -0.2722593956273019 0.029809506676265172
-0.09442529211319992 -0.08738781896731396 -0.26063113834722573 0.0377648833364397 0.023808982209586212 -0.015389476900880529 -0.026930908153491938 -0.016757295231265748
0.30259453399730324 -0.2400349711765239 -0.004577732777381268 -0.057059832352466144 0.3897860249802294 -0.01048141576989815 -0.10674504286290076 -0.02458963250967549
-0.008942822687310548 0.409687824505944 0.012863961004654501 -0.07580767675370917 0.28895461021260943 0.09157718041685517 -0.4363480764298252 -0.12015932010030297
0.4276641497857415 -0.18820139964993135 0.03649262204123596 -0.10587996321187601

bias f8 [3]
00000000: 1a73 1ed4 f195 b73f 94d8 0278 030c 9dbf
00000010: e4d7 872c 5c6d d0bf
0.09213172367749359 -0.0283661405562375 -0.25667480801291576

weight f8 [3]
00000000: 0166 ed4a 3ba1 f03f 214c 3007 4bf3 de3f
00000010: 7aa9 09ac 3630 ee3f
1.0393631865357522 0.4835994310571455 0.9433854446518091

bias f8 [3]
00000000: 7a9c b856 c16d e0bf 83ab 1971 2efd c3bf
00000010: 8e2a 516f 114d bdbf
-0.5133978551647396 -0.1561639835593632 -0.11445721595479538

running_mean f8 [3]
00000000: 528a 8414 b7d8 b03f 60e8 d2c3 9094 b0bf
00000010: 7016 a623 343f d1bf
0.06580681086465148 -0.06476692944389262 -0.26948264581037673

running_var f8 [3]
00000000: 2267 4fa0 7ec4 b83f 8152 cd82 2f27 bd3f
00000010: 0d6f 0854 6479 aa3f
0.09674827016661117 0.11387917464646514 0.0517073967532423

weight f8 [3, 3, 2, 2]
00000000: f66a 2c97 438a ccbf d1de 5c2d d170 debf
00000010: 2953 2e6d f320 c6bf 44b3 3ab6 a81f e43f
00000020: 77ed 41b4 ca02 dbbf 7de6 1015 06af c43f
00000030: b7d0 3d4b 4199 d3bf e442 3808 c49d d63f
00000040: 5013 7f35 1497 c4bf 580f 59a8 4625 d4bf
00000050: 4eb3 74aa 7527 ddbf 3a73 4677 a88b e43f
00000060: 3061 0c95 b08d b03f dfb9 932f 03e8 b33f
00000070: f499 3b26 74b8 aabf 46ef 49fc 078b b0bf
00000080: 3834 9f75 0648 b23f cd1d 595a 658f c1bf
00000090: e9df 4090 13b0 c63f e6cf 7c68 11d3 b7bf
000000a0: 175c 30c6 4b1c bbbf f017 d119 f3ea 8e3f
000000b0: 5c66 4482 87d0 77bf 3458 c61c d97c 863f
000000c0: 06b6 5621 5cbe a9bf 9a6d 7749 d11a b0bf
000000d0: 403a 224e 712f a1bf 5bae 3e34 74c4 94bf
000000e0: 578a a2bc 5454 dabf 52c4 6073 5df2 b9bf
000000f0: 4d8a 389a 842d b7bf f656 ffa3 d18b cebf
00000100: 2442 ccdb a342 843f 8a0d 5bc5 6b31 c4bf
00000110: 6d2a b5d1 c208 b5bf 5a46 7d16 8acf c0bf
-0.22296948319929982 -0.47563580923040855 -0.17288058119870556 0.6288646277585959 -0.42204539874338515 0.1615913012372409 -0.3062289461879674 0.3533792572280119
-0.16086056339386312 -0.3147751468679778 -0.4555334248168962 0.6420481042474429 0.06466201437831809 0.07775897895383065 -0.05218852011403277 -0.06462144765276631
0.07141151782634914 -0.1371885958817373 0.17724842589973314 -0.09306439209905157 -0.10590051258655851 0.015096568322530118 -0.005814103442639853 0.0109803163439147
-0.0502804556557344 -0.0629092029916393 -0.033565083301358545 -0.02028066223981138 -0.41139715596560705 -0.10135444704862209 -0.09053829922826502 -0.23864193446814114
0.00989273085136328 -0.15775820862300477 -0.08216493243996022 -0.13133360002625488

bias f8 [3]
00000000: 15f2 16c6 65f4 d03f 352b 9a47 2e5b d03f
00000010: 6a66 4328 97ce c2bf
0.26491684288683476 0.2555652331581542 -0.14692964044552365

weight f8 [3]
00000000: 5aa5 d75e 7626 fd3f c11d aa61 1861 913f
00000010: 4120 34a8 c39e ee3f
1.821890230634685 0.016971951447457338 0.9568804059245012

bias f8 [3]
00000000: 19c2 45d1 a118 ccbf c3f4 1950 ade6 bfbf
00000010: 013d f845 716e cebf
-0.21950171202071614 -0.12461360173797957 -0.2377454368256409

running_mean f8 [3]
00000000: a44f 7918 49da d03f e163 731b abef cf3f
00000010: 63b2 c6ca c435 c3bf
0.2633230914118434 0.2495015987431364 -0.1500783910863844

running_var f8 [3]
00000000: f5ba ecd3 0975 8b3f e394 355b be16 a13f
00000010: 7500 c542 7ef4 923f
0.01340682676308578 0.033376644739101534 0.018510792565621565
