Model/ColorNet.pt (torch, 38751 bytes, 60 tensors)

weight f8 [3, 1, 8, 8]
0	0x3faf20d28a08ca52	0.0607972901820132
1	0xbfbe56d542b41aa7	-0.11851246717933837
2	0xbfbea512282891a9	-0.11970628242904148
3	0xbfbe8ab9f5ebe12f	-0.11930429700794741
4	0xbfb17fc6e3f28c26	-0.06835597100375476
5	0xbf844357e1f87a80	-0.00989407213552096
6	0xbfb224cb9ea606f8	-0.07087395308738198
7	0x3fbb5082db360a31	0.10669725276788068
8	0xbfb0afcf67fdc48a	-0.06518265045976271
9	0x3fbe6b5d573ff547	0.11882575397608718
10	0xbfb0c4327e65e95c	-0.0654937323178379
11	0x3fb7c2558af4601d	0.0928090538258179
12	0x3f8882864f43f668	0.011967706006994663
13	0x3fbce00061fdc917	0.11279299156538901
14	0xbfa7a3fad2e48740	-0.046172941440330906
15	0x3fbe917911c8ab41	0.11940724071670862
16	0x3fab9ffa7611e32a	0.05395491305620788
17	0x3fa951f72df32e9a	0.04945347247993688
18	0x3fb2cc97708149d5	0.0734343194647303
19	0xbfb30a7ba6b8fcca	-0.07437870808006433
20	0x3fb885a97cec62ff	0.09578952121627181
21	0xbfbaf2cdc51035b7	-0.1052673917876835
22	0xbfb2303c2a1c1600	-0.07104850795811757
23	0x3fb361c561298a9f	0.07571061727643745
24	0xbfa6029f8d669520	-0.04298876381953165
25	0x3fb3ec2fac53eea9	0.0778226657602611
26	0xbfb90ccca4a646a5	-0.09785155315173684
27	0xbf987b7a4e08e120	-0.023908530247554016
28	0x3fb2c876f9904725	0.07337134926663376
29	0xbfac96e994c827d0	-0.055838870441291655
30	0xbfbbe1fb24ce4aa9	-0.10891694687442545
31	0x3f87e3191484e618	0.011663623751348814
32	0xbfbf3f806ba07e0f	-0.12206270816431462
33	0xbfb0f85399b87abc	-0.0662891626638879
34	0x3fbfeb0bc075723d	0.12468026589108035
35	0x3f7946e9cad374f0	0.006171143771294782
36	0x3fb0c0a64b8dd64b	0.06543959946233106
37	0x3faa17e289c73ae6	0.05096347743857681
38	0x3fb336710c7f6f47	0.0750494628441035
39	0x3f7d47e9543e0ad0	0.007148658219991957
40	0xbfa4089d7cc0d030	-0.03912822864404608
41	0x3fb40ffd6dbf874d	0.0783689873638
42	0x3fb114928b90a7d7	0.0667201605544102
43	0x3f9291f0eee164ac	0.018134846286873937
44	0xbf5056beae526880	-0.0009972440832713148
45	0xbfa1c33ade3aab18	-0.03469261133917295
46	0xbfb5913d597c1712	-0.08424743113218039
47	0xbfbeb2230316815d	-0.11990565133465254
48	0x3f74ab9765fe8790	0.005046454811152304
49	0xbfaa69cbf0ae54cc	-0.05158841431617986
50	0x3fb9cd32f4d8e843	0.10078733899800434
51	0xbfb1a3e5c0c5e64c	-0.06890712696431328
52	0x3f8ee21da6d237d8	0.015079719212987827
53	0x3fae0d450a02eade	0.05869498965463092
54	0x3fb2d7f0ced989e1	0.07360749292414638
55	0x3fb483b21847e2e9	0.08013451664727324
56	0xbfa7005367471d2c	-0.04492436061587521
57	0xbfa4843ffe2ad144	-0.04007148721339829
58	0x3fa1ffb570ad18ce	0.03515402794305232
59	0x3fa0e5ab3e24f18e	0.03300223477933449
60	0xbf94f11364ce45d0	-0.020450881030745383
61	0x3fba8bd1ae082d9f	0.10369596957041559
62	0x3fb5493a59d5ab85	0.08314861958721849
63	0xbfab65c54a66f9b4	-0.05351082356672823
64	0xbfb81046821ef523	-0.0939983432462737
65	0xbfa132029fbe3b74	-0.03358467292775105
66	0x3fbe07463a8539c1	0.11729849747391709
67	0xbfb9dc8083fe0005	-0.10102084372010729
68	0x3fb550130afe2f49	0.08325308817273681
69	0xbfb087450f7f601a	-0.0645640528522339
70	0x3faead0b59335fc6	0.0599139734637784
71	0xbfb1af6303a1cef2	-0.06908243979142606
72	0xbfade3fad1f1f458	-0.05837997258002109
73	0xbfa13c49019b1cd8	-0.0336630644283617
74	0x3faa86a51452d236	0.0518085086163506
75	0x3f9e3c1235d52a9c	0.029526028190313455
76	0xbfb5f7479520b6a0	-0.0858044375497351
77	0x3f9cf728d3bcbb4c	0.028286588595786186
78	0x3fb7ae8d9a681dd7	0.09250721950240091
79	0x3fa65f32cd8059ce	0.043695056520096295
80	0x3fa09f19886909ba	0.03246383466877796
81	0x3fa59d2ee6625456	0.042214837668475155
82	0x3fbbc82dec28682b	0.10852324500629666
83	0x3f91738bbae08b0c	0.01704233482463295
84	0x3f63a3df40113f20	0.0023974762303068525
85	0x3fb625390ee10d2f	0.08650547612437685
86	0x3fad4cd910f526ca	0.05722692806246028
87	0xbfaf92d3020b394c	-0.06166705512952095
88	0xbfaf935a0be4e00c	-0.061671079589757566
89	0xbf850357fd020f90	-0.01026028385991376
90	0xbfb2781f6be33bb6	-0.07214542755103434
91	0x3fbed3a52a24eba9	0.12041694907104152
92	0x3f93aae62a94a834	0.01920661578075329
93	0x3f9155ad8441ccfc	0.016928397366837253
94	0x3f96cbe92d4733fc	0.022262233151014485
95	0x3fb0034548e792e3	0.06254990606209847
96	0x3fa5fbac03801592	0.04293572943428638
97	0xbf93491cdbc1cc10	-0.018833590424446156
98	0xbfbe0ec513f42873	-0.1174128698077384
99	0xbfbaf37668acc7ed	-0.1052774434618013
100	0xbfb28ef03d64555c	-0.07249356745554308
101	0xbfbb452690486343	-0.10652390501526292
102	0x3fb3ee9b8ceddcd9	0.07785961332944015
103	0xbfaea4004607089c	-0.05984497885539605
104	0x3fb3c2cef8169043	0.07719129139746976
105	0xbfa22e42e191065c	-0.03550919536111216
106	0x3fa902b57b06364e	0.048848792331324206
107	0x3fbcf5d6db7495af	0.11312620981023856
108	0x3fbc011ea1ded69d	0.10939208461680967
109	0xbfa342aac8ff2954	-0.03761800483296676
110	0x3fb8006ff7231f8b	0.09375667365668343
111	0xbfb694c203edbad4	-0.08820736499704235
112	0xbf9e82fadb488478	-0.029796523698796012
113	0x3fb739259e9d4c13	0.09071574327872182
114	0x3f89dddb89cf2fe8	0.012630190985781511
115	0x3f7fab55d3dbf950	0.007731757415739018
116	0x3fa9486896063e72	0.049380558312916004
117	0xbfb5345fb9ff9970	-0.082830412778639
118	0x3f89008e2c666a18	0.012208090524656476
119	0x3fad2d700e9c0a96	0.05698728731478757
120	0x3facc1feb814059e	0.056167564363941866
121	0x3fb8b7019c0cd2c7	0.09654245433632545
122	0xbf8da024836d9e60	-0.014465604077215477
123	0x3faae23893e005e6	0.052507179309042404
124	0x3fb4d67747f023c3	0.08139749056148475
125	0xbfa4957f818caf34	-0.040203079761651855
126	0x3fbdd1ceecabacc7	0.11648267057505556
127	0x3fab7b529e8c6ae2	0.05367525277525488
128	0xbfa0d80683347ff4	-0.03289814330696564
129	0xbfb98306f72b8dc1	-0.09965556654383702
130	0xbfaf05c436518bfc	-0.060590869551354815
131	0x3fba97be9eeb643f	0.10387793903227392
132	0xbfab5a0f4cca3428	-0.05342147648216439
133	0xbfb0fb1c2f53a03e	-0.06633163600383882
134	0xbfb57ee90892f86c	-0.08396774730042161
135	0xbfb4840f01dd8c1c	-0.08014005466024837
136	0x3fa4d4c7d072b62e	0.040685886569331906
137	0x3fb7a684891e1609	0.09238460872264666
138	0x3fa3223f2f97d85a	0.03737065750094422
139	0x3fb89afb1eccc263	0.09611482145261045
140	0x3fb3ff39614a021b	0.07811316132757222
141	0x3fa453a9e1f066d2	0.03970080264134669
142	0xbfb36d813b76dad8	-0.07588966085209436
143	0x3fb8e0d049c241fb	0.09718038368942665
144	0xbfbdccf406665f99	-0.11640858799216715
145	0xbfa8b7ad17589870	-0.048276337718832774
146	0xbfb9264317012187	-0.09824008285170836
147	0x3fa460cdf8bf6d02	0.03980106030913967
148	0x3fbae34a002145ab	0.10503065589116171
149	0xbfa01d1fe1ae91a8	-0.031472202586232456
150	0x3f96092e75eabe74	0.021519399592476465
151	0x3fb7122817a38df3	0.09012079789277276
152	0xbfb2889074e215a0	-0.07239630559532495
153	0x3fa5eebeda7c1bae	0.04283710877466916
154	0xbfa56b59485f4ed8	-0.04183463104678048
155	0x3fa003922d92eb8a	0.03127724462816335
156	0xbfabfd569c55ffc8	-0.05466719301602968
157	0xbfb2edc20e079ea2	-0.07394039957545798
158	0x3fa19f6fa49862fe	0.03441952594966401
159	0xbf98a4ec349a5fd8	-0.024066630087503288
160	0xbfbeb18ba62f5a99	-0.11989662940264124
161	0x3fbb4d9c781a8dbf	0.10665300304622514
162	0xbfb53dfff8d2df7a	-0.08297729325101769
163	0xbfb987664165234d	-0.0997222814231808
164	0x3fb7313eba116205	0.09059516947434794
165	0x3fbe4dd6f8bd628d	0.11837524006603868
166	0xbfb00946f274b822	-0.0626415578778681
167	0x3fb8136996159119	0.09404621042410034
168	0xbfb96aa0c50db7e5	-0.09928326426390262
169	0xbfae7117b90e6908	-0.05945657857883374
170	0xbfb324313eed46e4	-0.074771001685146
171	0xbfb4824b1663f8b0	-0.0801131181396808
172	0x3f97e5e5bef284ac	0.023337926654339355
173	0xbfb9d4226e91f87f	-0.10089316558330273
174	0x3fa8e1b80549626a	0.04859709801229857
175	0x3fb27de132842705	0.07223327143961107
176	0x3fb9cfb60f3abe7d	0.10082567092717372
177	0x3fba1439abc0c81f	0.10187111323537622
178	0x3f2670f5cce0d200	0.00017121315471659015
179	0x3fbbbce6aa902d29	0.10835115112438544
180	0xbfb01b4b88bbe72e	-0.06291648948891002
181	0xbfad7118876688f0	-0.05750347760046448
182	0x3f81cab4cf9a8be8	0.00868741282039838
183	0x3fb76e997bf75367	0.0915313651706363
184	0xbf8d3c163147c290	-0.014274762514987743
185	0x3fba00abb9b6a143	0.10157273563402662
186	0x3f84a8632a079538	0.010086798401014549
187	0x3fa1c6da11a288de	0.034720244076440684
188	0x3fbcee4baad6d21d	0.11301110192182091
189	0x3f9bebf4e281386c	0.027267290425065857
190	0xbf9ba217e6e6f4f0	-0.026985524624014212
191	0xbfa6db9afc59b1d0	-0.04464420633744093

bias f8 [3]
0	0x3faab712bcc5a1a4	0.05217798761697459
1	0x3f72b753922351a0	0.0045693649755843835
2	0x3f82abae57fe2ab0	0.009116518078163466

weight f8 [3]
0	0x3ff0000000000000	1.0
1	0x3ff0000000000000	1.0
2	0x3ff0000000000000	1.0

bias f8 [3]
0	0x0000000000000000	0.0
1	0x0000000000000000	0.0
2	0x0000000000000000	0.0

running_mean f8 [3]
0	0x0000000000000000	0.0
1	0x0000000000000000	0.0
2	0x0000000000000000	0.0

running_var f8 [3]
0	0x3ff0000000000000	1.0
1	0x3ff0000000000000	1.0
2	0x3ff0000000000000	1.0

weight f8 [3, 3, 8, 8]
0	0x3fa120b1e975787c	0.03345256781425207
1	0xbf7be83803fab0b0	-0.006813257990568797
2	0x3f96009412ddc6ec	0.021486581470020846
3	0x3fa168e51471e446	0.034003409143175164
4	0x3f9421ea3dc34d94	0.01966062547655907
5	0xbfaf387b1ed4d75d	-0.06097779036865234
6	0x3fb0b9a18ff475fc	0.06533250584148925
7	0x3f7974554f2d4a40	0.006214459647554238
8	0xbf9e9ef5edc08a86	-0.02990326179145566
9	0xbf9d9517463eca02	-0.028889049208098434
10	0xbfab0dbeeae40fea	-0.052839246915055885
11	0x3fa209552287b018	0.035227451768008844
12	0xbfb26daeb72ef823	-0.07198612186672952
13	0xbf81a9c4a663e4d8	-0.00862458832533479
14	0xbfa948bd7288adb2	-0.04938308737868215
15	0x3fb1f683913a38a0	0.07016775413123577
16	0xbfa136315a888957	-0.033616583157953066
17	0x3f9d90ef97fecf24	0.02887319913106902
18	0xbf674a2902f27380	-0.0028429795271009417
19	0xbf895cdd4ca0475c	-0.012384156132643369
20	0xbfb03835d04afc9e	-0.06335769973064706
21	0x3fa4f422b43b46aa	0.04092510652629973
22	0x3fae3af844048470	0.05904365377706078
23	0xbf97c17ddd4bcdfa	-0.023199049598543887
24	0x3fa3689d59703b1e	0.03790752140786523
25	0x3fa9f5f48b3853f0	0.050704614634163536
26	0xbf895d1a0ae268c8	-0.012384608704725145
27	0xbfad3dd1b51499c8	-0.057112267832326646
28	0xbfb13b4fc1d23831	-0.0673112724491325
29	0x3fa89baab690d836	0.04806264380060592
30	0x3fafcdefd684c5fc	0.06211804860721412
31	0x3fb1eeec101ff00a	0.07005191224737942
32	0x3f9b9edbe238b8e8	0.026973186190098725
33	0x3f9813302bbc95d8	0.023510697049592938
34	0xbfa33bd7f507e533	-0.03756594530200132
35	0x3fad2f8a5ff7f2a0	0.05700333043566741
36	0x3f913357a46cc39c	0.016797418032357223
37	0x3f90aabf33b3d6f8	0.0162763476664258
38	0x3fa954f18c72de5a	0.049476192850701664
39	0x3f9bbcc030ac4c58	0.02708721444203052
40	0x3f97696e7b66c858	0.022863127023534296
41	0x3fb26f2270a6e1d4	0.07200827837267038
42	0xbf9863eb2c83abe2	-0.023818659393253123
43	0x3f99bb093d504bb8	0.02512754856804708
44	0x3f94b2076a5dd5bc	0.02021037661275725
45	0xbfb020f71a752c84	-0.06300300975742529
46	0x3f9cce9dfded94bc	0.02813193189958406
47	0xbfa71d4e3ccbc1a9	-0.04514545910012952
48	0x3fa19fedafeb0682	0.03442328236043314
49	0xbf87b21a6108dfd8	-0.0115701733458166
50	0xbfb18d0ef5d95f62	-0.06855863096404627
51	0x3fa76a0f7ed159ba	0.04573105261868045
52	0x3f879b52d19e2e90	0.011526724836378649
53	0x3f5fe73d6b126240	0.0019472217357244942
54	0xbfa92bea80baaa21	-0.04916317769432888
55	0x3fa795953470015e	0.046063101435722884
56	0xbfb23a2f81b97ddc	-0.07120034138778614
57	0x3f8f13bf5994c678	0.01517438404207215
58	0xbf8c588a515cbcf8	-0.01384075222776325
59	0xbf71b81dabc05e10	-0.004325977231949732
60	0x3fa7122953811ea8	0.04506043571796897
61	0xbfb0c15d77a7fcea	-0.06545051738065735
62	0x3f98678542334f34	0.02383239952617018
63	0xbfb1a5c89090ec19	-0.06893590478368629
64	0x3faaf0e5f6c7e762	0.05261915814840169
65	0x3faf926343786a94	0.06166372488606445
66	0xbfb1058cd8d61cfe	-0.06649093908173495
67	0x3fb004b619441f9a	0.06257188908432312
68	0x3f76af0bd5bf5620	0.005538030843998537
69	0x3f7a12dcbd4b6f30	0.006365644706160897
70	0x3f94c190f5de2060	0.020269646650860174
71	0x3f987031aa8b39d8	0.02386548617760717
72	0xbf809ed0c76aa638	-0.008115416608535417
73	0xbf9b40540c9b1378	-0.026612580556292426
74	0xbfa980016a46ed49	-0.04980472967460032
75	0x3f835318e1469860	0.009435839056845363
76	0xbf6101a5181f43c0	-0.0020759796616194037
77	0x3fa300628c28ed66	0.03711231194435065
78	0xbf9fffb7d221d18e	-0.031248924446531094
79	0xbf901a6f3c661458	-0.015725839673468606
80	0x3f9e79c614e8958c	0.029761405016093742
81	0x3f9187b694394c20	0.017119267269958383
82	0xbfad7069fb11be1c	-0.057498275659664894
83	0x3f69cc66b6c6cfc0	0.003149223912453508
84	0xbfa27800d5fd94a6	-0.03607180225552868
85	0x3faf5a5faa404a74	0.06123637154828013
86	0x3f83244898639720	0.009346549177688568
87	0xbfb103c37f215d90	-0.06646367887275617
88	0x3f9719b40dccbfbc	0.022558987943909634
89	0x3f945043b71d2988	0.01983743481768266
90	0xbf8939312649eebc	-0.012316116314870278
91	0xbf8ea4aab1a9144c	-0.014962514445082807
92	0xbfa8d255eee663a2	-0.04847973386058092
93	0x3fb1be76f9649944	0.06931251133628274
94	0x3fa157212c1c4b24	0.03386787093599811
95	0xbfae3166a2e12a87	-0.05897064913059063
96	0x3f978b867dcc9f38	0.02299318449800511
97	0x3fb071f0bc27e48a	0.06423859208725183
98	0x3fa16608424fe074	0.03398156938050159
99	0x3fa576d0c1839a38	0.041922114965747104
100	0xbf997bcce42a546c	-0.024886323381526784
101	0x3f6ef1fd4ed3bfa0	0.003777498952892658
102	0xbfa94b820f837900	-0.04940420569777082
103	0x3fb122320ba30c0a	0.06692803176979126
104	0x3fa38f7cb7ae5bc8	0.038204095289237794
105	0xbfaf71e59e2eb9ca	-0.06141583972872729
106	0xbf883bb59e58ad54	-0.011832636732910608
107	0xbf71d7d2b7abb650	-0.004356215586751214
108	0xbf63299fb29db160	-0.002339183721167412
109	0x3fa0e514b97004e8	0.03299774898187896
110	0xbfab190090057aa6	-0.0529251266295792
111	0x3fa7fd5911426f84	0.04685476623237064
112	0x3fa0b149ec61d79c	0.032602605920074995
113	0x3faaf28d30c6f1b8	0.05263177128242397
114	0xbfafa3c2b5a31685	-0.061796269104474034
115	0xbfa981f0736fc929	-0.049819482890500595
116	0xbfaaa19803d1af40	-0.05201411291713365
117	0xbf8a4ba294969858	-0.012839574966005227
118	0x3f827455d0de4ea8	0.009010954319627132
119	0xbf59f6b156f664c0	-0.0015846950371723317
120	0x3fa2aad401dd25a0	0.03645956537964001
121	0x3f8af16b2f17e110	0.01315578210322646
122	0x3f7d2eeb23376f80	0.007124823099243005
123	0xbf88661456d09d3c	-0.011913451098804921
124	0xbf9b0746af1dcb28	-0.02639494365525788
125	0xbf9f36de14c67856	-0.03048274041940887
126	0x3fb0bb85be1362ba	0.06536136522789607
127	0x3f9e7a0dd8a3dc24	0.02976247439161396
128	0x3f9a362d11bdc8c0	0.025597290237279635
129	0x3f958ba063873abc	0.021040445399018934
130	0xbf9303b800515a2e	-0.018568873423953906
131	0x3f832de68e7ec510	0.009364892219169835
132	0x3fae334f27b93b00	0.058985208128992994
133	0x3fa33a0e0374ab54	0.037552297517626926
134	0x3fb0e1221ab23f88	0.06593526031269736
135	0xbf938955d54d1162	-0.01907858003984709
136	0x3fabd2aabfe39994	0.054341636585195335
137	0xbfac97ac6a12190c	-0.05584467692192349
138	0xbf911fa9a39a69aa	-0.01672234593443426
139	0xbf9e5e3d8e428cbc	-0.029656373794421084
140	0x3fb260cb17380dc6	0.07178944889897484
141	0x3f88dcaa70054530	0.012139636558148398
142	0x3faa1e8b958ab200	0.05101429176770367
143	0xbfa488009586b7e6	-0.040100115063395766
144	0xbfb181cb6b2c3f31	-0.06838675848507304
145	0x3fb0a66e1912e880	0.0650395213332633
146	0xbf81145a4075e098	-0.008339600650956222
147	0xbfb22ba3d3117056	-0.07097839262991221
148	0xbf99654fd8ef6efa	-0.02480053674285807
149	0x3faff75491587584	0.0624338557647475
150	0xbfb139208e5d59da	-0.06727794147204894
151	0x3f8568b8b3bb8538	0.010453646645546585
152	0xbfa12b0a5324c07e	-0.03353149666725218
153	0xbf585b7981682640	-0.001486653001509089
154	0xbfa830dac189f17c	-0.04724773037466698
155	0xbf9f2486ce7ebab2	-0.030412775376755526
156	0x3f8d6a8be2d777a8	0.014363377437742589
157	0xbf971f2b4053c174	-0.022579837609499845
158	0xbf9812053354337c	-0.023506242044323042
159	0x3fac188ad5f30b88	0.05487474309622714
160	0xbfafac90c472d199	-0.061863445263415424
161	0xbfb18b9c5c1e166a	-0.06853654145205615
162	0xbfaf04f71aff8ba4	-0.060584756894761754
163	0xbf7367bf75606cb0	-0.004737613568092033
164	0xbf9f297d6f389088	-0.030431709206951513
165	0xbf5b9f1502987e40	-0.0016858773400442312
166	0x3fa989b590315ebe	0.04987876305739068
167	0xbfacc1dae5f70f06	-0.05616649682226975
168	0xbf932fde7c6f73fc	-0.018737293572360855
169	0xbf6151ade419bb00	-0.00211414301957491
170	0x3fb025f4b39aac6a	0.06307916054599763
171	0x3f9bf1622fe4dc30	0.02728799264260945
172	0xbf9a1299dbcb1102	-0.02546158222209361
173	0xbf9c8150475c4afc	-0.027837042193890035
174	0xbfad5156871569de	-0.05726118468256279
175	0x3f9b1c46dd36b4c8	0.026475054981052876
176	0x3fb21a5e2772665e	0.07071484053667507
177	0xbfb092c11f2b381b	-0.0647392941566242
178	0x3fb1a3a1c349fe4a	0.06890307443426838
179	0xbf9e6485342b5e08	-0.029680329617660234
180	0x3fa08e465a1735f4	0.03233547067393863
181	0x3f945085e922ba58	0.019838421205969986
182	0xbf8a2972ecc378e4	-0.01277437005085997
183	0xbfb0f17728ba6e71	-0.0661844705995749
184	0x3fa146285ae64032	0.0337383852921679
185	0xbfa07480f8dbe653	-0.032138853433889246
186	0xbfad5f2051af68f7	-0.057366380664193466
187	0xbfac4d9f985ad3ee	-0.055279719684598536
188	0x3fa9bf2b1851e114	0.0502866236865335
189	0x3fa1bfd5487402da	0.03466669568479626
190	0x3f881ff0ceff9af8	0.011779671971408487
191	0x3faf1a0647e8f860	0.060745426443177264
192	0xbfabd6db01967ffb	-0.05437359232314517
193	0x3fb06ccf68817032	0.06416031171232886
194	0x3fa28385bb760572	0.036159686215806355
195	0xbfa87f8552d0bccc	-0.04784790645532552
196	0x3fad492eb33f8214	0.05719896257483384
197	0xbf6e08aa5fce3fa0	-0.0036662414190189035
198	0x3fa15731093c086a	0.03386834371305343
199	0xbf92a3cfa84954d8	-0.01820301499022467
200	0x3fa6be5850a23e92	0.04442096695231358
201	0x3f99853919b192ac	0.02492226809808311
202	0x3f932edf996c4818	0.018733495463557487
203	0x3f763f89a3636280	0.005431687974316035
204	0xbfa36c182aed8e6f	-0.037934069862583956
205	0x3fab80755d4a5878	0.053714435232152746
206	0x3faf5906950c63e4	0.06122608727873294
207	0xbf9534b17950535c	-0.020708821324734714
208	0xbfb0bebaa39176ec	-0.06541029446949737
209	0x3f92decfcf607818	0.018428084404256223
210	0x3fa0092e92dc8766	0.031320052554533004
211	0xbf96110ffa9bbb00	-0.02154946295825777
212	0xbfb171d3f72efe40	-0.06814312729601912
213	0x3fa5c7578c661b9c	0.04253648365834481
214	0xbf84573ac9816448	-0.009932002329309367
215	0xbf4cb9185c115c00	-0.0008765572494081608
216	0x3fa92c8e51db9e58	0.049168059818666066
217	0xbf974e227cbf9448	-0.022758997787509366
218	0x3faea48ab2fd8f14	0.059849104260847025
219	0xbfa59d890e4eeabb	-0.04221752452527513
220	0x3f8bb34ac4aed558	0.013525566222464633
221	0x3fa00d53520bd9fa	0.031351665273110244
222	0xbfb25ed47b1b5c87	-0.07175949101962163
223	0xbfab919a90770942	-0.05384524358261668
224	0x3f95b207ae5417cc	0.02118694306866313
225	0x3fa88a5b52695574	0.04793057805060644
226	0x3f9195cf988d81f8	0.017173045812684834
227	0xbfa14cf0ff80aefb	-0.0337901412861736
228	0x3fb0507bb3c9590e	0.06372807635611741
229	0xbf9d4cdfbb81f2ae	-0.028613563365513066
230	0x3f9579d6a1bebdbc	0.020972589132439032
231	0x3fae24a275ccd8e8	0.05887324989309822
232	0xbfa9f3413eebfa80	-0.05068401234710951
233	0x3f9c746e780b5cfc	0.02778790099804683
234	0xbfa729f8922381ca	-0.045242088164517094
235	0x3f9fd3fc9b02cec4	0.03108210273849356
236	0xbfa1f0d516a204e4	-0.03504053021698342
237	0xbfb1541c56f4ccaf	-0.06768967745738295
238	0xbfb208ea2d8e99a1	-0.07044852840645045
239	0xbfae5a8dcacb73dc	-0.059284621243683694
240	0xbf9b0c38564b809a	-0.02641380335524044
241	0x3fa56ffd28ea5726	0.0418700325437114
242	0x3fb0c25730d8adae	0.06546540205515924
243	0xbfa1e510f0bf6721	-0.03495076121153163
244	0xbf897faf5e72cea8	-0.012450571126783785
245	0x3fa4973380bacd0a	0.040216073478768946
246	0x3f946944507669c0	0.0199328111753887
247	0xbfa0af129f797ab3	-0.032585699050050286
248	0x3fb1cf111e102944	0.06956583961451651
249	0xbfa2a7eab8422a93	-0.03643735408066564
250	0xbf95137c0151d380	-0.02058213956884769
251	0xbfa995a23ab157eb	-0.04996973959411818
252	0xbfa1aa375c0ae922	-0.03450177191321503
253	0xbf96bd86f4664a1a	-0.022207363764730294
254	0x3f7a78a733977310	0.006462720042205175
255	0xbf82000ed589cdf8	-0.00878917302291081

bias f8 [3]
0	0x3f86837940b4e988	0.010992953574363154
1	0xbfab4e30958de682	-0.0533309156953239
2	0x3f9e16c624d55f98	0.029383750913751422

weight f8 [3]
0	0x3ff0000000000000	1.0
1	0x3ff0000000000000	1.0
2	0x3ff0000000000000	1.0

bias f8 [3]
0	0x0000000000000000	0.0
1	0x0000000000000000	0.0
2	0x0000000000000000	0.0

running_mean f8 [3]
0	0x0000000000000000	0.0
1	0x0000000000000000	0.0
2	0x0000000000000000	0.0

running_var f8 [3]
0	0x3ff0000000000000	1.0
1	0x3ff0000000000000	1.0
2	0x3ff0000000000000	1.0

weight f8 [3, 3, 4, 4]
0	0x3fbec6fc4399ad38	0.12022377634427961
1	0x3fc1c55a9245cba8	0.13883525984018985
2	0x3fa77aeb6f90edb0	0.04585967766658017
3	0xbfc22444848b118e	-0.14173180076444364
4	0x3fbf0832db02a064	0.12121885153703854
5	0x3fbf170289d6ef18	0.12144485345100653
6	0xbfa8c53a063ee6e6	-0.04837971998445116
7	0xbfb72cf5d7920184	-0.09052979004809997
8	0xbfc0ea280adc274e	-0.13214588670990185
9	0xbfbd012fd651f675	-0.11329936010766935
10	0x3f8b6fecb5d08f80	0.013397073076766963
11	0xbfc1de01b1b5b1dc	-0.13958760430558825
12	0xbfb57a89eaa6562a	-0.08390104273561208
13	0xbfafaf84ec8cbc3c	-0.06188598048753888
14	0x3fb6a0bf8408c244	0.08839032147876319
15	0xbfb68556f9187161	-0.08797210294182413
16	0x3fbd3bbcaf8fac68	0.11419276510393817
17	0xbfb093318fd25e68	-0.06474599610589282
18	0x3f8dbb2b5fc91e10	0.014517153607029903
19	0xbfbc8ab76e5547b0	-0.11149164622955143
20	0x3f7a2ef5edbf6700	0.006392441424361683
21	0xbfa0eced829ddf82	-0.033057615465565085
22	0x3fb04e3b8dc7a1aa	0.0636937352316013
23	0xbfb42e7a41994c9c	-0.0788341913369543
24	0xbfb5775e518cb0c9	-0.08385266772228585
25	0x3fb20135d7106bfe	0.07033096790875956
26	0x3f911a0bae08cec0	0.016700918671815
27	0xbfb8621463dc41a6	-0.0952465766715763
28	0x3fa25f585d97987c	0.035883675980401514
29	0xbfc016146c56c3fc	-0.1256738213537857
30	0xbfbdf356148c5ca0	-0.11699426652590939
31	0xbfbc1aa04039d7ae	-0.1097812802125577
32	0x3fae5c21a12c71e4	0.0592966565365918
33	0xbfb232170e8039b7	-0.07107681373620421
34	0x3f96c47f867a82f0	0.022233955939216565
35	0x3fad1064c7ddb28c	0.05676569881220414
36	0xbf71b34546133b00	-0.004321356392394504
37	0x3fa58d76a1cb260c	0.04209490513819611
38	0x3fc1da6ad7b38014	0.1394780686596283
39	0x3fbede212b6489b0	0.1205769282283089
40	0xbfb725079278de78	-0.09040877653102963
41	0xbf975a516a9dcea0	-0.022805473453856195
42	0x3fb3e72f6fc2a466	0.07774635771296942
43	0xbfb0a40ed0e8b4cf	-0.06500332451169587
44	0xbfb8405ece82f8f9	-0.09473221341884032
45	0xbfb5e93183d41988	-0.0855894991728744
46	0x3f92bca8ba3aa5e8	0.018297802320978024
47	0x3fb87ab92a433292	0.09562260896491129
48	0x3f84c010da602f10	0.010131961502359427
49	0xbfc1ddfc321a9a80	-0.13958694883804768
50	0xbfc1c9680c519b4b	-0.1389589367056153
51	0xbfba4ff1462e7137	-0.1027823253957124
52	0xbfb1993d0e9618eb	-0.06874448400603554
53	0x3fafe8e5528bce6c	0.06232372887270973
54	0x3fa1f99f505dcb6c	0.03510759216341949
55	0xbfa45fa0a59e8526	-0.03979208013266548
56	0x3f973d21227e44c0	0.02269412777929314
57	0xbfa8e6cbfc23468c	-0.048635839966334776
58	0x3fb39dbf057e867e	0.07662576564919196
59	0x3fc1e119dc62b578	0.13968203793539735
60	0xbfb7b1e3e38f9c6c	-0.09255813890159609
61	0xbfa2da13f3348ec2	-0.03682005256476152
62	0xbf6c26b7b76a3e40	-0.0034364307605938837
63	0xbfa1d6852c0ecd4a	-0.03483978426757035
64	0xbfb0fe90045fd00a	-0.06638431650918633
65	0x3f950632401d3830	0.020531449473587482
66	0xbfc109bf0a117eb0	-0.13310993186586506
67	0xbfc1cff790d865c8	-0.13915915081524433
68	0xbf92f96e9844a210	-0.018529632610041757
69	0x3fb8e2c43301391c	0.09721018071397619
70	0x3f85377ac51295c0	0.010359725131204978
71	0x3fb6ef1a077465ce	0.08958590204237923
72	0xbfae8132e83a4700	-0.059579459045506766
73	0x3fc16b254cc7b9fe	0.13608232735664666
74	0x3f45945e3c145200	0.0006585559969232713
75	0xbfa16f74259e024e	-0.034053449241586806
76	0xbfbab552220001d3	-0.10432923631743245
77	0x3fbef031b7fb58f4	0.12085257283920098
78	0x3fbe20b3c8251adc	0.11768649708129025
79	0xbfb6732211614bf9	-0.0876942913467217
80	0x3fc09ee07702d962	0.12984853564348514
81	0xbfbe768eba7c9814	-0.11899654438875046
82	0xbf9b7692dfc53e70	-0.026819510372034505
83	0xbfb3f4239279902b	-0.07794401479765216
84	0x3fa486c916982ff8	0.040090831764331314
85	0x3fb8de4f2aaefaae	0.09714216987684196
86	0xbf77b1f3c42f3a40	-0.005784942829406392
87	0x3fc15e697674a2f0	0.13569372447934525
88	0x3fa93995d8d7b1a0	0.04926746627811274
89	0x3fbb2b5596fa88a0	0.10612997947694902
90	0xbfacf85c3c0acc3e	-0.05658233864723926
91	0x3fba71bfc67a84f2	0.10329817386311271
92	0x3fc2741765645cb4	0.14416782809050732
93	0xbfa253734d133280	-0.03579292598587802
94	0xbfbd25a722fae2e9	-0.1138557873154117
95	0x3fb9588a010f0c8a	0.09900724912499662
96	0x3fabc505258a9e2c	0.0542375191046712
97	0x3f9c53951284b370	0.027662591223975352
98	0xbfbcf5d99d5aef0a	-0.11312637416534357
99	0x3fbd6456efcce5d8	0.114812310738578
100	0xbfae593795b9b576	-0.059274422671346125
101	0x3fc122791a781456	0.13386453430590234
102	0xbfad96ffbe72a47e	-0.057792655942940904
103	0xbf9ce6fe214c2cb8	-0.028224917204209915
104	0x3fb965234b9aa3de	0.09919949146082227
105	0xbfbfa4836fe1d9fc	-0.12360402566432777
106	0xbfa536795a9cc096	-0.041431228934358064
107	0xbfa265855dfed5ee	-0.035930793499044586
108	0x3f9367265df16298	0.01894817303068183
109	0xbfa1e90ffa190cb6	-0.034981250075838785
110	0xbfa09c9d73679bd2	-0.03244487794636765
111	0xbfae395b85e6665a	-0.05903135308763004
112	0x3fc0d1cb7692d174	0.13140242852899642
113	0x3fbd100129e55474	0.11352545998427549
114	0x3f8620a6de30d870	0.010804465919232537
115	0x3fb531afe64ab32c	0.08278941509588539
116	0xbf85f5d8934316c0	-0.010722820276338196
117	0x3fa166c1cf01d0c4	0.03398709918920553
118	0xbf7f54b5a32d01c0	-0.007649144669642671
119	0xbfb156fe900fceea	-0.06773367898113816
120	0x3fac278f4580a458	0.05498931620997699
121	0xbf611e8bb60a2c40	-0.0020897606594352525
122	0x3fc0c153d92bad8a	0.13089988807710667
123	0xbfb6f01d8816c2b3	-0.08960136959536662
124	0xbfb9212bb45e6f37	-0.09816239503419132
125	0xbfc23a77a6c7c6a8	-0.14240928309987066
126	0xbfbc78d5b654a4d4	-0.11121879292899745
127	0xbf97ab4f82d81eb8	-0.023114435540292105
128	0xbfaae3892dfb5602	-0.05251721082974471
129	0x3f8e6870187363b0	0.014847636934449543
130	0xbfb83403b7316efa	-0.09454367849815162
131	0xbf959e6c6c4c99b0	-0.021112150297221965
132	0x3fa5d791fcc7cecc	0.042660295588488134
133	0x3fa8833bcb56aa94	0.047876232692336235
134	0xbfaac0337700d854	-0.052247627522249346
135	0xbfa0a2697e6407d6	-0.03248910587173241
136	0x3f98d2bdcf88d760	0.024241414825346808
137	0xbfa740342f5ebdb0	-0.04541171148536749
138	0x3fb9923037a3f896	0.09988690718089041
139	0xbfaa03efba042b4a	-0.050811282593790155
140	0xbf5b6291298e1e80	-0.001671449432452038
141	0x3fb73374abfefa82	0.09062890242692315
142	0xbfba380fe9c2de84	-0.10241794068394411
143	0x3f9255a483dcfc00	0.017904825733463525

bias f8 [3]
0	0xbf90660d6652ee48	-0.01601429879222696
1	0x3fbbf900bca692d2	0.10926823240022124
2	0x3fb074a4078e8d2e	0.06427979645245749

weight f8 [3]
0	0x3ff0000000000000	1.0
1	0x3ff0000000000000	1.0
2	0x3ff0000000000000	1.0

bias f8 [3]
0	0x0000000000000000	0.0
1	0x0000000000000000	0.0
2	0x0000000000000000	0.0

running_mean f8 [3]
0	0x0000000000000000	0.0
1	0x0000000000000000	0.0
2	0x0000000000000000	0.0

running_var f8 [3]
0	0x3ff0000000000000	1.0
1	0x3ff0000000000000	1.0
2	0x3ff0000000000000	1.0

weight f8 [3, 3, 4, 4]
0	0xbfac8a57fc37d750	-0.055742978609414906
1	0xbfaeb2a4ecf91008	-0.0599566973947106
2	0x3fa7c8f4535c4820	0.046455035377349185
3	0x3fad837b554d8170	0.057643751299795265
4	0xbf97927d85965e1c	-0.02301975372173902
5	0x3fb5388c4ab4a836	0.08289410423154284
6	0xbfbfda1bbec06506	-0.12442181975383812
7	0x3f9cc104678e2a68	0.0280800522046242
8	0x3fbc083e4e837cb4	0.10950078408085312
9	0x3fa40d7cfb74543c	0.039165406890028426
10	0xbfb0b52ef07976d4	-0.06526463862379767
11	0xbf9d05c8e8cd96c4	-0.028342379769489737
12	0xbfb4df0a665a834f	-0.08152832983843193
13	0xbfa9001b59d3f486	-0.04882894012005416
14	0xbfbfacd1c976fb6c	-0.12373076599668104
15	0xbfc20c1242eda337	-0.14099338787061708
16	0xbfac87f9e72b3fb6	-0.05572491595159994
17	0xbfb155e123d2c6b7	-0.06771666645615936
18	0x3fb78bbeb56be932	0.09197608880268573
19	0xbf9aa5b40faa2df8	-0.026022733169652285
20	0xbfb928fdd5470ee0	-0.09828173119518224
21	0xbfc02f8a6b7ecb4b	-0.1264508271102279
22	0xbfb3c2f9b31ab994	-0.07719383833566545
23	0xbfb688a24a0163e4	-0.08802236849568562
24	0x3fa424cfdefe01f0	0.03934335324356997
25	0xbfbac60eef34425b	-0.10458463039345516
26	0xbfb8c2ac58576b49	-0.0967204776456302
27	0x3fbd2c83175f7d08	0.11396045036916658
28	0xbf68f6b9da50a480	-0.0030473356187213363
29	0x3fbb43aabc0e7938	0.1065012654421239
30	0x3fc18feb596e8c74	0.13720456949986082
31	0xbf9cff7c0e6f1914	-0.028318346386890417
32	0xbfacafe0ccdba638	-0.05602934361179418
33	0x3fbd2847fa0f8644	0.1138958917140594
34	0x3fc204c0eae3e416	0.14077006787536622
35	0xbfb6b08c6ec6a260	-0.08863141731729618
36	0xbfc0e672cf1088d4	-0.13203272924972131
37	0x3fb8a32936c397aa	0.09623963915836833
38	0x3faf4c1d5505fbfc	0.06112758314974795
39	0xbfb8a7d128bbaafa	-0.09631068462810424
40	0xbfc1383196a59670	-0.13452739578058326
41	0x3f8023760fc709a0	0.007880136829844286
42	0x3fa94d2e4e6d8e9c	0.04941696841595197
43	0x3f88519b69df5380	0.01187440316054178
44	0xbfa3090b9f725c3a	-0.03717838593836871
45	0xbf821b2c9b395e90	-0.008840893256248067
46	0x3fbc492407690380	0.1104910390940983
47	0x3f934735e5e05580	0.01882633414796464
48	0xbfbd1137d9378d81	-0.11354397824429975
49	0xbfba652cc59d0fcc	-0.10310630631016621
50	0xbfc10841de3e8c78	-0.13306449271940202
51	0x3f96849a7da53be8	0.02199021713141383
52	0xbfb06055dd98d800	-0.06396996173938874
53	0xbf973630ea114920	-0.02266766003260401
54	0x3fbfada52c777134	0.12374336562738081
55	0x3fb69266cbbc4d92	0.08817141031277334
56	0xbfaccb9992f9ffd4	-0.056240843955492587
57	0x3fb3ce99f66fa5ee	0.07737123743540739
58	0x3f9337df33fe2fe0	0.018767821834941745
59	0x3f9f3d638ddd7b38	0.030507617505800527
60	0xbf9dc5d0476ca074	-0.029074911460299238
61	0x3fa6dd9fad578b90	0.0446596049403275
62	0x3fa7f98919ac2180	0.04682568014510746
63	0xbfb656155a3d82f2	-0.0872510285676176
64	0xbfbe4c479e726842	-0.11835143678982354
65	0xbfa66bc3cc9a4678	-0.04379093048659127
66	0x3fb668739b6dd79a	0.08753130478529983
67	0x3fc22414a25d61ea	0.1417260926052813
68	0xbfa795c849a70be4	-0.04606462382391621
69	0xbfa23b638c83f386	-0.035609351065409675
70	0x3fbb9b18baaf695c	0.10783533628219771
71	0x3fbacc9cbdc6f72e	0.10468463547928472
72	0x3fb677adac56cbac	0.08776364762779448
73	0xbfb98d4a598809ca	-0.09981217084717922
74	0x3fc205c4c94b386c	0.1408010466461208
75	0xbfa5bd678e9a101c	-0.04246066680664759
76	0xbfb3770dc09a0aa0	-0.0760353656024031
77	0xbf6b056a0cb2aa00	-0.0032984801560662635
78	0x3fb3a52b071b356c	0.0767390148495985
79	0xbf94906c36c39958	-0.020082178919346688
80	0x3fb263ace85b4b3a	0.07183342621582947
81	0xbfaa0dc36acbaf38	-0.05088625601442093
82	0x3fb6bdf1fb3192e2	0.088835834337782
83	0x3f88f4afed077340	0.012185453816465519
84	0x3f9dd8d94ad99a70	0.029147525018198228
85	0xbfbaad4fdab2c6ca	-0.10420703019442637
86	0xbfc0e283ca7dfc53	-0.13191268336592774
87	0x3f838703b8952000	0.009534863539229832
88	0x3fa89900569ba420	0.04804230744577631
89	0xbfa8fd42a358c504	-0.04880722278574903
90	0xbfbbbd2f7a86984a	-0.1083554910788688
91	0x3fc046deaceba11e	0.127162775453379
92	0xbfbe172d15bcccd0	-0.11754113941860855
93	0xbfc0f64f82ad9a52	-0.13251680260437354
94	0xbfb29db749e8f716	-0.07271905474132398
95	0xbfb78aaaa56a78b6	-0.09195963419412831
96	0x3fbdaef5ad917464	0.11595092284683656
97	0xbf91f114793e4b80	-0.017521209621530698
98	0xbfaac25bf97c99e2	-0.05226409359447694
99	0x3fb047fcdbe2e32e	0.06359844559018477
100	0x3fb829644a6ba56e	0.09438158814341133
101	0xbfa241f4f0a2bff6	-0.03565946042488115
102	0x3fba138fa267da14	0.10186097826940738
103	0x3f836b6b9a3e2bf0	0.009482231754892795
104	0x3fb137a2f5c362a4	0.06725519657210072
105	0xbf53df9e8126e400	-0.0012129829307083728
106	0x3fa453f7662f7578	0.03970311281566813
107	0xbfb5e4bdae809a74	-0.0855215598136086
108	0x3f8d35406f348820	0.014261725801194614
109	0xbf95250120c3757c	-0.020648973107076682
110	0x3f9f5e7b6c7094a0	0.03063385819782083
111	0xbfa7443562e75b52	-0.04544226486512194
112	0xbfa6829720932188	-0.043965075231940764
113	0x3facc96d0a7c503c	0.05622425797460592
114	0x3fb2365e93f035d6	0.0711421118905585
115	0x3fafde810a20e8b4	0.06224444626464401
116	0x3fb92317af3a00e2	0.0981917193221338
117	0x3fb5d3aa881db884	0.08526101897379773
118	0x3fa973b46b92a7c8	0.04971088231225412
119	0xbf9a94ff033ba760	-0.02595900017960362
120	0xbfa4263328e30f54	-0.03935394167049702
121	0xbfc26c6d7d78c5d8	-0.14393395067740644
122	0xbf7464b44e6710e0	-0.004978851624802355
123	0x3fc2480ea81161ca	0.14282401281776763
124	0x3fa8314fd1989bc0	0.047251219115700405
125	0xbfb027b2e4b47cd4	-0.0631057556497468
126	0xbfbedf42c8cdd2ea	-0.12059419062081714
127	0x3fa7f85fd54ec8b4	0.046816820896667194
128	0xbfaa70ff92476296	-0.051643358808808035
129	0xbfc234678b89467d	-0.14222425759594506
130	0xbfbaaf83512e3534	-0.10424061519571098
131	0xbfb4ac47a6df8b42	-0.08075378250172796
132	0xbfc033be68475964	-0.12657909480794693
133	0x3f8b058f03151c80	0.013194196015900994
134	0x3fc234e3397bfd12	0.14223900133945527
135	0xbf9ceb8403fb4ae0	-0.02824217104245974
136	0x3fb06c87d00aa70e	0.064156044284257
137	0xbf72fe7fff8e0640	-0.004637241357046629
138	0x3fbdf34e3201ec00	0.1169937965477601
139	0xbfc26be4690742fd	-0.14391760948503665
140	0xbfbe5b68bfb67d71	-0.11858229332437077
141	0x3fb11eed37593a36	0.066878152859524
142	0x3fb209320b54fd40	0.07045281197223563
143	0xbfbd940f287d09ed	-0.11554045427786948

bias f8 [3]
0	0xbfb27c382f744a68	-0.0722079387526634
1	0xbfa0160c183910fa	-0.03141820712747463
2	0x3fb156a4d0b6269e	0.06772832961555728

weight f8 [3]
0	0x3ff0000000000000	1.0
1	0x3ff0000000000000	1.0
2	0x3ff0000000000000	1.0

bias f8 [3]
0	0x0000000000000000	0.0
1	0x0000000000000000	0.0
2	0x0000000000000000	0.0

running_mean f8 [3]
0	0x0000000000000000	0.0
1	0x0000000000000000	0.0
2	0x0000000000000000	0.0

running_var f8 [3]
0	0x3ff0000000000000	1.0
1	0x3ff0000000000000	1.0
2	0x3ff0000000000000	1.0

weight f8 [3, 3, 3, 3]
0	0x3fc2d23bed1afc7f	0.1470408351651464
1	0x3fc3b47a12fc0a5d	0.15394521643618733
2	0x3fc6b363d88f1897	0.1773495490471688
3	0xbfa933c4b37f47e4	-0.04922308627250496
4	0x3fc81b6997462343	0.18833656202721202
5	0x3f43c6143348da00	0.0006034468302179019
6	0xbfc1eb349546aa9d	-0.139990399254505
7	0x3fb447c2a352e0ca	0.07921997535129602
8	0x3fa980d4b6c78ac0	0.049811026870675956
9	0xbfba09e7178112e6	-0.10171360324700238
10	0x3fa8a9cdbe96d840	0.048170499339378114
11	0x3fc4eed7555be501	0.16353885333936805
12	0x3fc85cd89b7caecd	0.19033343879833922
13	0x3fb5f0f8e357b7b2	0.08570819425923906
14	0x3fc1e11057602ead	0.13968090311424444
15	0xbf94f4c73ec0b558	-0.020465005116581864
16	0x3f61507238527580	0.002113555036500514
17	0x3fc60c7c5ec4b967	0.1722560370194046
18	0x3fa6858bddb2656c	0.04398762780437945
19	0x3fb362897d5c8be6	0.07572230635246022
20	0x3fa39368344d3144	0.038234001526321865
21	0x3f971ad57d47b880	0.022563300868505554
22	0xbfb2e909ddd93ab2	-0.0738683859465066
23	0x3fc1bc00dc580ac7	0.13854990729313085
24	0x3fc6161f54fb0279	0.17255012177885812
25	0xbfc3dcc31f66e836	-0.15517462762164919
26	0xbf98e2aa2a1817e8	-0.024302157229634164
27	0x3fc503af7826761f	0.16417497030936176
28	0xbfaccea130cf6654	-0.05626395912959184
29	0x3fb0dd9a5bbd2116	0.06588139285770853
30	0x3fb77cae508bbede	0.09174622980549027
31	0x3fc6edf34db93815	0.1791366700658165
32	0xbfc6c9cb324ae360	-0.178033256108189
33	0xbfbcdbe683684ad5	-0.11273041446865346
34	0x3fc4d2e2e5de990b	0.16268573974702635
35	0x3fc4610025985001	0.15921022258464748
36	0xbfa7d17513a69a4c	-0.04651990761640387
37	0xbfc89292dd3627db	-0.19197307397217753
38	0x3fc8702bc60dbc8f	0.19092318697537222
39	0x3fc33c571eedd211	0.15027894029812264
40	0xbfbefd94b3ec8d3c	-0.12105683701206699
41	0x3f7f3cbaf0e992a0	0.007626276243716618
42	0x3fc03db21e380a9d	0.12688280559094248
43	0xbf9e1e4eb98d57b0	-0.02941248900909671
44	0xbf623153270a1a80	-0.0022207855293488454
45	0xbfb09c0bf38f50e0	-0.064881083453034
46	0x3fc294e869158723	0.14516930705126993
47	0xbfb62b60699a2c91	-0.08659937456302404
48	0xbfa9a0b3c0f43300	-0.050054185203498136
49	0xbf8acd8149fc3a20	-0.013087282247878085
50	0xbfc37e2b5c4507be	-0.1522878838096044
51	0x3fa2959a7b53ebb0	0.036297633700051235
52	0xbfc5182c3e81e69b	-0.16480019619102823
53	0x3f8a50747fc1b660	0.012848768376183262
54	0x3fb29a4a48c44f52	0.07266678120168749
55	0x3fc30269a74c431b	0.14851113003580782
56	0xbfc4a0421dc3246f	-0.1611406941722495
57	0x3fc8147362350ed3	0.18812410636211627
58	0xbfb5cbe53cef117a	-0.085142447830611
59	0x3fbf52b37a1068fe	0.12235566835480324
60	0x3f4f186bc1ce2e00	0.0009489561231119104
61	0xbfbac46536e84b80	-0.10455925550949807
62	0xbfb3fd76582b3fde	-0.07808627750932781
63	0x3fc4ee095e9e2bdf	0.163514300537229
64	0xbf91c8231895c940	-0.01736502492480807
65	0x3fb1cd76ae93ac3a	0.06954137575273558
66	0x3fc2596b522757bb	0.14335385810289644
67	0x3fc457105eba44b5	0.15890698075648904
68	0xbfbccb5181870510	-0.11247739231386711
69	0x3fb85c7035523926	0.09516049672877055
70	0x3fc306027eec0bf7	0.14862090299001782
71	0x3fb90cca3018f9f6	0.09785140680558144
72	0xbfba01ccbb81925b	-0.10158996179377182
73	0xbfa2ecf357851660	-0.03696403926236935
74	0xbfb20eb78f17e8e2	-0.07053706401339668
75	0xbfa593067ab49714	-0.04213733909482023
76	0xbfb65221e7cfa4b0	-0.08719074162913176
77	0xbfab93bf475f1c30	-0.05386159654840872
78	0xbfc5d5786d03ed31	-0.17057710001959372
79	0xbfa02e0355818264	-0.03160105150960105
80	0xbfae752c85176f44	-0.05948771595623595

bias f8 [3]
0	0x3fb472d355d8e200	0.07987709852103109
1	0xbfb98ec8c2f46a95	-0.09983496436727031
2	0xbfb53db8ef330528	-0.08297305908037755

weight f8 [3]
0	0x3ff0000000000000	1.0
1	0x3ff0000000000000	1.0
2	0x3ff0000000000000	1.0

bias f8 [3]
0	0x0000000000000000	0.0
1	0x0000000000000000	0.0
2	0x0000000000000000	0.0

running_mean f8 [3]
0	0x0000000000000000	0.0
1	0x0000000000000000	0.0
2	0x0000000000000000	0.0

running_var f8 [3]
0	0x3ff0000000000000	1.0
1	0x3ff0000000000000	1.0
2	0x3ff0000000000000	1.0

weight f8 [3, 3, 2, 2]
0	0x3fa198decea8ead0	0.03436943314269103
1	0xbf8fa210d4652d80	-0.01544583461931981
2	0x3fcc3c24c9bec670	0.22058544016686055
3	0x3f962a8d65003e80	0.021646699227913846
4	0xbfc322c9c8c8d941	-0.14949915222104873
5	0xbfd15614103e7165	-0.27087880693740934
6	0xbfba673c8dbc3d16	-0.1031377645524468
7	0x3fc7f0ca032200fc	0.18703580048532575
8	0x3fcb298b75f05a44	0.212205345713942
9	0xbfc3231ed86ee35d	-0.14950929229760393
10	0x3fc146638f4754ae	0.13496059890772955
11	0x3fbc57df9dccb540	0.11071584322481431
12	0x3fb7cbe817cf7ab8	0.09295511800108158
13	0x3fcff6eff14db964	0.24972342760470234
14	0x3fb35c8b57fdc03c	0.07563086412642489
15	0x3fd131cb0790a79e	0.26866412867331657
16	0xbfc9b0c8b45cc4f8	-0.20070751959568844
17	0x3f844106441286c0	0.00988964934578307
18	0x3fcf963f25c0aff8	0.24677266448395563
19	0xbfce9b8604c098c1	-0.2391212008671513
20	0x3fb636eda44d7958	0.08677563916487452
21	0xbfd00fb77c9b7267	-0.2509592739932373
22	0xbfb5c4faceab19f6	-0.08503692193617227
23	0xbfc28f573d66a557	-0.14499941347211617
24	0xbfc70c64384ddfe0	-0.18006565808514008
25	0xbfa283911dbd0938	-0.036160025482347924
26	0x3fadd715fab8ce80	0.05828159986085968
27	0x3fa82f1ffb308378	0.047234534657269955
28	0x3fc6dd9fc3749d40	0.1786384300587347
29	0x3f528db48cf0af00	0.0011324179829541037
30	0xbfca6386d85ad08a	-0.20616231502720367
31	0x3f8ccc10cc0fc7e0	0.014061099269358779
32	0xbfc177a79001ab6d	-0.1364640668064924
33	0x3fd18b26a8e576c0	0.2741181039217331
34	0xbfa418033c47e308	-0.03924570189332682
35	0x3fc3f2aeae18b31a	0.15584357739262417

bias f8 [3]
0	0x3fcd7c17f1a58056	0.23034953402657504
1	0xbfca77cd151c65a1	-0.20678103953177376
2	0x3fb6ea7e72a8f77c	0.08951559352223443

weight f8 [3]
0	0x3ff0000000000000	1.0
1	0x3ff0000000000000	1.0
2	0x3ff0000000000000	1.0

bias f8 [3]
0	0x0000000000000000	0.0
1	0x0000000000000000	0.0
2	0x0000000000000000	0.0

running_mean f8 [3]
0	0x0000000000000000	0.0
1	0x0000000000000000	0.0
2	0x0000000000000000	0.0

running_var f8 [3]
0	0x3ff0000000000000	1.0
1	0x3ff0000000000000	1.0
2	0x3ff0000000000000	1.0

weight f8 [3, 3, 2, 2]
0	0x3fa955f15f536e60	0.049483816992247354
1	0xbfcf14444d93ddac	-0.2428059939190751
2	0x3fcb1026f013dfdc	0.2114304229978633
3	0x3f7be76e399d0b80	0.006812506262408813
4	0x3fcadc8a4b4200c8	0.2098553531141134
5	0x3fc98959628898c6	0.19950406371316926
6	0x3fd27524dbc7e690	0.28839990103697577
7	0xbfaa271c02735c9c	-0.0510796311370367
8	0x3fd25cc940a9a612	0.2869132167312226
9	0x3fc82976ea27916a	0.18876539643600704
10	0xbfd0150e221f0896	-0.2512851079192243
11	0x3fc2e9e4ae610616	0.14776285662269179
12	0xbfbe6f7cd632d2fe	-0.11888866643387172
13	0xbfd187f4a2c1ca06	-0.2739230718063087
14	0xbf6bebd695dffe00	-0.003408354866223595
15	0xbfc3fe1dc7129a73	-0.15619251461358238
16	0xbfd081a21ade720f	-0.25791218398970356
17	0xbfa94333a1950038	-0.04934083316266008
18	0x3f8f552ab97b3d40	0.01529916170639345
19	0x3fd20abe107c2014	0.2819056664452557
20	0xbf913305f22a9ed0	-0.016796200662297534
21	0xbfb057800681c446	-0.06383514555797473
22	0xbf2e9282c9f55800	-0.0002332482008379766
23	0x3f9dae2f13f52c20	0.02898477134048616
24	0x3fc3e30412380768	0.1553654755553524
25	0x3fac40ac9394f410	0.05518092443023914
26	0x3fbf1c582a863304	0.1215262512034308
27	0xbfb7038d74a4be2c	-0.08989795778028825
28	0xbfb840924f3dc0ba	-0.09473528322792193
29	0x3f8572ab847489c0	0.010472621898377166
30	0xbfb331174020bfd6	-0.0749678165018389
31	0xbfcb88f77b8d9623	-0.21511739285340167
32	0x3fc968f3e0f987a6	0.1985154007443814
33	0x3fc825c5196bccbe	0.18865264645828533
34	0x3fc3704c5ae838d8	0.15186457098793116
35	0xbfb6986095fb9f70	-0.08826259290401395

bias f8 [3]
0	0xbfca3805e88c7368	-0.20483468871034494
1	0x3fc9cfbe9c80c396	0.20165236131427083
2	0x3fbf0d848a06d65c	0.1213000142077702

weight f8 [3]
0	0x3ff0000000000000	1.0
1	0x3ff0000000000000	1.0
2	0x3ff0000000000000	1.0

bias f8 [3]
0	0x0000000000000000	0.0
1	0x0000000000000000	0.0
2	0x0000000000000000	0.0

running_mean f8 [3]
0	0x0000000000000000	0.0
1	0x0000000000000000	0.0
2	0x0000000000000000	0.0

running_var f8 [3]
0	0x3ff0000000000000	1.0
1	0x3ff0000000000000	1.0
2	0x3ff0000000000000	1.0

weight f8 [3, 3, 2, 2]
0	0xbf90b0ab3b7f55b0	-0.016298938280518704
1	0xbfcbb56853697eae	-0.21647361824851913
2	0xbfcc42c8e4158a5e	-0.2207881082241156
3	0x3fa3b610cdc5de60	0.03849842559696692
4	0xbfd0d71efda500f7	-0.26312994737601464
5	0xbfc58ccc91189ace	-0.16835934719821072
6	0xbfd20fc7e0a8369e	-0.2822131818692045
7	0xbfb97b305d0c849a	-0.09953596374227161
8	0x3fb657dabe4ac5bc	0.08727805276682593
9	0xbfbb1db7ba944abe	-0.10592220597417687
10	0xbfcd3807c1968c68	-0.22827240898650136
11	0x3fd003c11b54596e	0.2502291457070872
12	0xbfa5a01788ee94d4	-0.04223702951939293
13	0x3fccf861dafb5c30	0.22633002464746843
14	0xbfb2041d3c18e144	-0.07037527768341528
15	0x3fa16312dad57fc0	0.033958996976025
16	0x3fd1efbf78f96438	0.28025805295834827
17	0xbfb87b65b3d9bafa	-0.09563289299851965
18	0x3fce81a436a32574	0.23833134334408224
19	0x3fb85df3b0df69d0	0.09518359249287944
20	0x3fce95fc801a3984	0.23895221953393897
21	0xbf85797a57080160	-0.010485606938346492
22	0xbf7d601e6f2da9c0	-0.00717174423594219
23	0x3fc147666715929a	0.13499145539676222
24	0xbfbdc737743c5e6e	-0.11632105434215997
25	0x3fc6b7928c3eb8d0	0.17747718665982015
26	0x3f7c7bb0b82d3980	0.0069538977721336215
27	0x3f7b9ab5e726e200	0.006739340360973234
28	0x3fd0d88bd466bd6e	0.26321693174664673
29	0x3fcb9b2b3bc4c154	0.21567287844073724
30	0xbfc715423c3cf94d	-0.18033626500432334
31	0xbf95704d43b31fe0	-0.020936209923803406
32	0x3fc990e77ef32b94	0.1997346277115325
33	0xbfc3b722234b18b8	-0.15402628634746462
34	0x3fc1dfd8d3194c54	0.13964376742896667
35	0xbf8b08b6c8491020	-0.013200214373803532

bias f8 [3]
0	0x3fb795f1d2046d14	0.09213172318816404
1	0xbf9d0c03780427a0	-0.02836614055653508
2	0xbfd06d5c2cc2d15d	-0.25667480822746375

weight f8 [3]
0	0x3ff0000000000000	1.0
1	0x3ff0000000000000	1.0
2	0x3ff0000000000000	1.0

bias f8 [3]
0	0x0000000000000000	0.0
1	0x0000000000000000	0.0
2	0x0000000000000000	0.0

running_mean f8 [3]
0	0x0000000000000000	0.0
1	0x0000000000000000	0.0
2	0x0000000000000000	0.0

running_var f8 [3]
0	0x3ff0000000000000	1.0
1	0x3ff0000000000000	1.0
2	0x3ff0000000000000	1.0

weight f8 [3, 3, 2, 2]
0	0x3f9ab3bbd19cc620	0.02607625452873752
1	0x3fc613d35c22167e	0.1724800300473141
2	0xbfcb4c21cbac78a4	-0.21326086468701988
3	0x3fd271fd861d7aa2	0.2882074174612318
4	0xbfd22368377b932f	-0.28341107767328116
5	0x3fc81e370a12a604	0.1884220885452096
6	0x3fb58721aa9a1328	0.08409319319805475
7	0x3fb0ed7a54e9dac0	0.06612362454493859
8	0xbfca7ec18e07f483	-0.20699328837500638
9	0xbfcdb1f0329b6e44	-0.2319927451234084
10	0x3fc24cb0f1dd8c06	0.14296542939982276
11	0x3fbd96052e8b86c8	0.11557037721970709
12	0xbfb4cdeb938d523e	-0.08126709320397027
13	0xbfad834f84439408	-0.05764244546461589
14	0xbfb5c2d5148acef6	-0.08500415565032057
15	0xbfa2ee5226a56640	-0.036974494187870466
16	0x3fca7d9190c350ca	0.2069570500231122
17	0xbfcafea6d9a13c9b	-0.2108963549276027
18	0x3fc6230c1ee60c30	0.1729445601341424
19	0xbfc2e7f6e0ebf938	-0.14770399076946616
20	0xbfca51788dd1cf56	-0.2056112949827546
21	0x3fb29aec23689274	0.07267642845597228
22	0xbfa9c80de9a0a9b0	-0.05035441853427203
23	0xbfa1132bb34c10d8	-0.03334938586888975
24	0xbfcbd3271a8809a6	-0.21738137050131207
25	0xbfce34f9c8c0e566	-0.23599169065873155
26	0xbfa9239a0c5dab7c	-0.04909974480582144
27	0x3fb6fd31fcf881d8	0.08980095315974468
28	0xbfd0e2fd45d975e0	-0.26385433026538685
29	0xbfc26a9815d1df00	-0.14387799325390205
30	0xbf92d484dcea01d0	-0.01838882063248254
31	0xbfcfb562e3b9e3fd	-0.2477229701942462
32	0x3f9f42532651d4f0	0.03052644654640785
33	0x3fc2ccc19975f0ca	0.14687366479109293
34	0x3fb1f57168607ce0	0.0701514129473142
35	0xbfbda791a59e1f56	-0.11583814900779763

bias f8 [3]
0	0x3fd0f465c3857f2f	0.2649168404950499
1	0x3fd05b2e472403d3	0.25556523272831305
2	0xbfc2ce972600f5f0	-0.14692963939334858

weight f8 [3]
0	0x3ff0000000000000	1.0
1	0x3ff0000000000000	1.0
2	0x3ff0000000000000	1.0

bias f8 [3]
0	0x0000000000000000	0.0
1	0x0000000000000000	0.0
2	0x0000000000000000	0.0

running_mean f8 [3]
0	0x0000000000000000	0.0
1	0x0000000000000000	0.0
2	0x0000000000000000	0.0

running_var f8 [3]
0	0x3ff0000000000000	1.0
1	0x3ff0000000000000	1.0
2	0x3ff0000000000000	1.0

weight f8 [3, 2, 2, 2]
0	0x3fd3c2dcb03d0f6f	0.3087684365348115
1	0xbfc3cf046618c315	-0.1547551630515264
2	0xbfc8cc52c38ef42a	-0.19373545216322557
3	0xbfa007dd1ed021b0	-0.031309995662073375
4	0x3f8efa328debc0e0	0.015125651317675126
5	0x3fc9fce2e29803f2	0.20302997650290383
6	0x3fc06af127783a96	0.12826361109951695
7	0x3fc27201d3ef1588	0.14410422180496263
8	0x3fd486c3dd6a9ee9	0.3207254087705978
9	0x3fcbf653eeef3fde	0.21845482985236137
10	0xbfc5f9fae25f25d3	-0.17169128468803638
11	0x3fd0f36800f491db	0.2648563393907161
12	0xbfc648d96bff0430	-0.1740981843304623
13	0xbfcb12ae355a4748	-0.2115075836668956
14	0x3fd1782380509685	0.2729576829027354
15	0xbfa6e31930af2c20	-0.04470137328424806
16	0xbfc4b9b226cfb526	-0.1619169892796119
17	0xbfd39bb328251a8e	-0.30637816353229474
18	0xbfd54ddf31aff0d6	-0.3328779206492646
19	0xbfbe5a3951ba0fa0	-0.11856420750888086
20	0x3f9457542f1a8080	0.019864383101435568
21	0xbf8c0e8f302ab600	-0.013699644715724268
22	0x3fb5edcf2f647e1c	0.08565993220371876
23	0xbfbf1aa1f02ad464	-0.12150013078174166

bias f8 [2]
0	0xbf974671ac140ed0	-0.02272966015608696
1	0x3fb283e0d20f8258	0.07232480171615785

weight f8 [2]
0	0x3ff0000000000000	1.0
1	0x3ff0000000000000	1.0

bias f8 [2]
0	0x0000000000000000	0.0
1	0x0000000000000000	0.0

running_mean f8 [2]
0	0x0000000000000000	0.0
1	0x0000000000000000	0.0

running_var f8 [2]
0	0x3ff0000000000000	1.0
1	0x3ff0000000000000	1.0
